yeonu/results_6dof/SCUD-B_45.0deg_20251219_141641.npz (npz, 146626 bytes, 22 tensors)

time f8 [1271]
00000000: 0000 0000 0000 0000 7b14 ae47 e17a 843f
00000010: 295c 8fc2 f528 bc3f 9493 9f72 90f1 e13f
00000020: d29d 7616 012f f03f d29d 7616 012f f83f
00000030: e94e 3b8b 8017 0040 e94e 3b8b 8017 0440
00000040: e94e 3b8b 8017 0840 e94e 3b8b 8017 0c40
00000050: 74a7 9d45 c00b 1040 74a7 9d45 c00b 1240
00000060: 74a7 9d45 c00b 1440 74a7 9d45 c00b 1640
00000070: 74a7 9d45 c00b 1840 74a7 9d45 c00b 1a40
00000080: 74a7 9d45 c00b 1c40 74a7 9d45 c00b 1e40
00000090: bad3 ce22 e005 2040 bad3 ce22 e005 2140
000000a0: bad3 ce22 e005 2240 bad3 ce22 e005 2340
000000b0: b0ea 33f8 c2a5 2340 7719 8dee 0717 2440
000000c0: 3e48 e6e4 4c88 2440 3e48 e6e4 4c88 2540
000000d0: 3e48 e6e4 4c88 2640 3e48 e6e4 4c88 2740
000000e0: 3e48 e6e4 4c88 2840 3e48 e6e4 4c88 2940
000000f0: 3e48 e6e4 4c88 2a40 3e48 e6e4 4c88 2b40
00000100: 3e48 e6e4 4c88 2c40 3e48 e6e4 4c88 2d40
00000110: 3e48 e6e4 4c88 2e40 3e48 e6e4 4c88 2f40
00000120: 1f24 7372 2644 3040 1f24 7372 26c4 3040
00000130: 1f24 7372 2644 3140 1f24 7372 26c4 3140
00000140: 1f24 7372 2644 3240 1f24 7372 26c4 3240
00000150: 1f24 7372 2644 3340 1f24 7372 26c4 3340
00000160: 1f24 7372 2644 3440 1f24 7372 26c4 3440
00000170: 1f24 7372 2644 3540 1f24 7372 26c4 3540
00000180: 1f24 7372 2644 3640 1f24 7372 26c4 3640
00000190: 1f24 7372 2644 3740 1f24 7372 26c4 3740
000001a0: 1f24 7372 2644 3840 1f24 7372 26c4 3840
000001b0: de4d 1680 8200 3940 9d77 b98d de3c 3940
000001c0: 9d77 b98d debc 3940 9d77 b98d de3c 3a40
000001d0: 9d77 b98d debc 3a40 9d77 b98d de3c 3b40
000001e0: 9d77 b98d debc 3b40 9d77 b98d de3c 3c40
000001f0: 9d77 b98d debc 3c40 9d77 b98d de3c 3d40
00000200: 9d77 b98d debc 3d40 9d77 b98d de3c 3e40
00000210: 9d77 b98d debc 3e40 9d77 b98d de3c 3f40
00000220: 9d77 b98d debc 3f40 cebb dc46 6f1e 4040
00000230: cebb dc46 6f5e 4040 cebb dc46 6f9e 4040
00000240: cebb dc46 6fde 4040 cebb dc46 6f1e 4140
00000250: cebb dc46 6f5e 4140 cebb dc46 6f9e 4140
00000260: cebb dc46 6fde 4140 cebb dc46 6f1e 4240
00000270: cebb dc46 6f5e 4240 cebb dc46 6f9e 4240
00000280: cebb dc46 6fde 4240 cebb dc46 6f1e 4340
00000290: cebb dc46 6f5e 4340 cebb dc46 6f9e 4340
000002a0: cebb dc46 6fde 4340 cebb dc46 6f1e 4440
000002b0: cebb dc46 6f5e 4440 cebb dc46 6f9e 4440
000002c0: cebb dc46 6fde 4440 cebb dc46 6f1e 4540
000002d0: cebb dc46 6f5e 4540 cebb dc46 6f9e 4540
000002e0: cebb dc46 6fde 4540 cebb dc46 6f1e 4640
000002f0: cebb dc46 6f5e 4640 cebb dc46 6f9e 4640
00000300: cebb dc46 6fde 4640 cebb dc46 6f1e 4740
00000310: cebb dc46 6f5e 4740 cebb dc46 6f9e 4740
00000320: cebb dc46 6fde 4740 cebb dc46 6f1e 4840
00000330: cebb dc46 6f5e 4840 cebb dc46 6f9e 4840
00000340: cebb dc46 6fde 4840 cebb dc46 6f1e 4940
00000350: cebb dc46 6f5e 4940 cebb dc46 6f9e 4940
00000360: cebb dc46 6fde 4940 cebb dc46 6f1e 4a40
00000370: cebb dc46 6f5e 4a40 cebb dc46 6f9e 4a40
00000380: cebb dc46 6fde 4a40 cebb dc46 6f1e 4b40
00000390: cebb dc46 6f5e 4b40 cebb dc46 6f9e 4b40
000003a0: cebb dc46 6fde 4b40 cebb dc46 6f1e 4c40
000003b0: cebb dc46 6f5e 4c40 cebb dc46 6f9e 4c40
000003c0: cebb dc46 6fde 4c40 cebb dc46 6f1e 4d40
000003d0: cebb dc46 6f5e 4d40 cebb dc46 6f9e 4d40
000003e0: cebb dc46 6fde 4d40 cebb dc46 6f1e 4e40
000003f0: cebb dc46 6f5e 4e40 cebb dc46 6f9e 4e40
00000400: cebb dc46 6fde 4e40 cebb dc46 6f1e 4f40
00000410: cebb dc46 6f5e 4f40 cebb dc46 6f9e 4f40
00000420: cebb dc46 6fde 4f40 e75d 6ea3 370f 5040
00000430: e75d 6ea3 372f 5040 2b02 e6bf 6e3a 5040
00000440: 1061 4d8b e13f 5040 9a1d bd55 a340 5040
00000450: 24da 2c20 6541 5040 8837 8a08 f748 5040
00000460: 8837 8a08 f768 5040 8837 8a08 f788 5040
00000470: 8837 8a08 f7a8 5040 8837 8a08 f7c8 5040
00000480: 8837 8a08 f7e8 5040 8837 8a08 f708 5140
00000490: 8837 8a08 f728 5140 8837 8a08 f748 5140
000004a0: 8837 8a08 f768 5140 8837 8a08 f788 5140
000004b0: 8837 8a08 f7a8 5140 8837 8a08 f7c8 5140
000004c0: 8837 8a08 f7e8 5140 8837 8a08 f708 5240
000004d0: 8837 8a08 f728 5240 8837 8a08 f748 5240
000004e0: 8837 8a08 f768 5240 8837 8a08 f788 5240
000004f0: 8837 8a08 f7a8 5240 8837 8a08 f7c8 5240
00000500: 8837 8a08 f7e8 5240 8837 8a08 f708 5340
00000510: 8837 8a08 f728 5340 8837 8a08 f748 5340
00000520: 8837 8a08 f768 5340 8837 8a08 f788 5340
00000530: 8837 8a08 f7a8 5340 8837 8a08 f7c8 5340
00000540: 8837 8a08 f7e8 5340 8837 8a08 f708 5440
00000550: 8837 8a08 f728 5440 8837 8a08 f748 5440
00000560: 8837 8a08 f768 5440 8837 8a08 f788 5440
00000570: 8837 8a08 f7a8 5440 8837 8a08 f7c8 5440
00000580: 8837 8a08 f7e8 5440 8837 8a08 f708 5540
00000590: 8837 8a08 f728 5540 8837 8a08 f748 5540
000005a0: 8837 8a08 f768 5540 8837 8a08 f788 5540
000005b0: 8837 8a08 f7a8 5540 ebd7 7c1a 29b8 5540
000005c0: 411d 3ab5 49c9 5540 a5a9 2dee e8de 5540
000005d0: 0936 2127 88f4 5540 3aa6 f97d 3606 5640
000005e0: 6b16 d2d4 e417 5640 f804 b311 d633 5640
000005f0: eafd 05c3 0a4b 5640 dcf6 5874 3f62 5640
00000600: 0aac d8a1 6f80 5640 3861 58cf 9f9e 5640
00000610: 3861 58cf 9fbe 5640 3861 58cf 9fde 5640
00000620: 3861 58cf 9ffe 5640 3861 58cf 9f1e 5740
00000630: 3861 58cf 9f3e 5740 3861 58cf 9f5e 5740
00000640: 3861 58cf 9f7e 5740 3861 58cf 9f9e 5740
00000650: 3861 58cf 9fbe 5740 3861 58cf 9fde 5740
00000660: 3861 58cf 9ffe 5740 3861 58cf 9f1e 5840
00000670: 3861 58cf 9f3e 5840 3861 58cf 9f5e 5840
00000680: 3861 58cf 9f7e 5840 3861 58cf 9f9e 5840
00000690: 3861 58cf 9fbe 5840 3861 58cf 9fde 5840
000006a0: 3861 58cf 9ffe 5840 3861 58cf 9f1e 5940
000006b0: 3861 58cf 9f3e 5940 3861 58cf 9f5e 5940
000006c0: 3861 58cf 9f7e 5940 3861 58cf 9f9e 5940
000006d0: 3861 58cf 9fbe 5940 3861 58cf 9fde 5940
000006e0: 3861 58cf 9ffe 5940 3861 58cf 9f1e 5a40
000006f0: 3861 58cf 9f3e 5a40 3861 58cf 9f5e 5a40
00000700: 3861 58cf 9f7e 5a40 3861 58cf 9f9e 5a40
00000710: 3861 58cf 9fbe 5a40 3861 58cf 9fde 5a40
00000720: 3861 58cf 9ffe 5a40 3861 58cf 9f1e 5b40
00000730: 3861 58cf 9f3e 5b40 3861 58cf 9f5e 5b40
00000740: 3861 58cf 9f7e 5b40 3861 58cf 9f9e 5b40
00000750: 3861 58cf 9fbe 5b40 3861 58cf 9fde 5b40
00000760: 3861 58cf 9ffe 5b40 3861 58cf 9f1e 5c40
00000770: 3861 58cf 9f3e 5c40 3861 58cf 9f5e 5c40
00000780: 3861 58cf 9f7e 5c40 3861 58cf 9f9e 5c40
00000790: 3861 58cf 9fbe 5c40 3861 58cf 9fde 5c40
000007a0: 3861 58cf 9ffe 5c40 3861 58cf 9f1e 5d40
000007b0: 3861 58cf 9f3e 5d40 3861 58cf 9f5e 5d40
000007c0: 3861 58cf 9f7e 5d40 3861 58cf 9f9e 5d40
000007d0: 3861 58cf 9fbe 5d40 3861 58cf 9fde 5d40
000007e0: 3861 58cf 9ffe 5d40 3861 58cf 9f1e 5e40
000007f0: 3861 58cf 9f3e 5e40 3861 58cf 9f5e 5e40
0.0 0.01 0.11 0.5607378233659 1.0114756467318 1.5114756467318 2.0114756467318 2.5114756467318
3.0114756467318 3.5114756467318 4.0114756467318 4.5114756467318 5.0114756467318 5.5114756467318 6.0114756467318 6.5114756467318
7.0114756467318 7.5114756467318 8.0114756467318 8.5114756467318 9.0114756467318 9.5114756467318 9.82375312455892 10.044982390140587
10.266211655722255 10.766211655722255 11.266211655722255 11.766211655722255 12.266211655722255 12.766211655722255 13.266211655722255 13.766211655722255
14.266211655722255 14.766211655722255 15.266211655722255 15.766211655722255 16.266211655722255 16.766211655722255 17.266211655722255 17.766211655722255
18.266211655722255 18.766211655722255 19.266211655722255 19.766211655722255 20.266211655722255 20.766211655722255 21.266211655722255 21.766211655722255
22.266211655722255 22.766211655722255 23.266211655722255 23.766211655722255 24.266211655722255 24.766211655722255 25.00199127716575 25.237770898609245
25.737770898609245 26.237770898609245 26.737770898609245 27.237770898609245 27.737770898609245 28.237770898609245 28.737770898609245 29.237770898609245
29.737770898609245 30.237770898609245 30.737770898609245 31.237770898609245 31.737770898609245 32.23777089860924 32.73777089860924 33.23777089860924
33.73777089860924 34.23777089860924 34.73777089860924 35.23777089860924 35.73777089860924 36.23777089860924 36.73777089860924 37.23777089860924
37.73777089860924 38.23777089860924 38.73777089860924 39.23777089860924 39.73777089860924 40.23777089860924 40.73777089860924 41.23777089860924
41.73777089860924 42.23777089860924 42.73777089860924 43.23777089860924 43.73777089860924 44.23777089860924 44.73777089860924 45.23777089860924
45.73777089860924 46.23777089860924 46.73777089860924 47.23777089860924 47.73777089860924 48.23777089860924 48.73777089860924 49.23777089860924
49.73777089860924 50.23777089860924 50.73777089860924 51.23777089860924 51.73777089860924 52.23777089860924 52.73777089860924 53.23777089860924
53.73777089860924 54.23777089860924 54.73777089860924 55.23777089860924 55.73777089860924 56.23777089860924 56.73777089860924 57.23777089860924
57.73777089860924 58.23777089860924 58.73777089860924 59.23777089860924 59.73777089860924 60.23777089860924 60.73777089860924 61.23777089860924
61.73777089860924 62.23777089860924 62.73777089860924 63.23777089860924 63.73777089860924 64.23777089860924 64.73777089860924 64.91300961934819
64.9981411224037 65.00996917217563 65.02179722194757 65.14007771966692 65.64007771966692 66.14007771966692 66.64007771966692 67.14007771966692
67.64007771966692 68.14007771966692 68.64007771966692 69.14007771966692 69.64007771966692 70.14007771966692 70.64007771966692 71.14007771966692
71.64007771966692 72.14007771966692 72.64007771966692 73.14007771966692 73.64007771966692 74.14007771966692 74.64007771966692 75.14007771966692
75.64007771966692 76.14007771966692 76.64007771966692 77.14007771966692 77.64007771966692 78.14007771966692 78.64007771966692 79.14007771966692
79.64007771966692 80.14007771966692 80.64007771966692 81.14007771966692 81.64007771966692 82.14007771966692 82.64007771966692 83.14007771966692
83.64007771966692 84.14007771966692 84.64007771966692 85.14007771966692 85.64007771966692 86.14007771966692 86.64007771966692 86.87750875655881
87.1451237742922 87.4829669423985 87.82081011050481 88.09707593326394 88.37334175602307 88.80994074327816 89.17253184876577 89.53512295425338
90.00681348952654 90.47850402479969 90.97850402479969 91.47850402479969 91.97850402479969 92.47850402479969 92.97850402479969 93.47850402479969
93.97850402479969 94.47850402479969 94.97850402479969 95.47850402479969 95.97850402479969 96.47850402479969 96.97850402479969 97.47850402479969
97.97850402479969 98.47850402479969 98.97850402479969 99.47850402479969 99.97850402479969 100.47850402479969 100.97850402479969 101.47850402479969
101.97850402479969 102.47850402479969 102.97850402479969 103.47850402479969 103.97850402479969 104.47850402479969 104.97850402479969 105.47850402479969
105.97850402479969 106.47850402479969 106.97850402479969 107.47850402479969 107.97850402479969 108.47850402479969 108.97850402479969 109.47850402479969
109.97850402479969 110.47850402479969 110.97850402479969 111.47850402479969 111.97850402479969 112.47850402479969 112.97850402479969 113.47850402479969
113.97850402479969 114.47850402479969 114.97850402479969 115.47850402479969 115.97850402479969 116.47850402479969 116.97850402479969 117.47850402479969
117.97850402479969 118.47850402479969 118.97850402479969 119.47850402479969 119.97850402479969 120.47850402479969 120.97850402479969 121.47850402479969

position_x f8 [1271]
00000000: 0000 0000 0000 0000 3af4 68b0 c2cb 7c3f
00000010: f2bb f452 e336 b53f 930a e758 5693 e13f
00000020: 8ea3 b79b 857e f33f 0a07 02ed 4d92 0140
00000030: 91d3 74b1 7c5e 0b40 21b7 c7e6 aa90 1340
00000040: 9845 b2e5 2e6c 1a40 98ef cebc 3020 2140
00000050: 7bbd e8c9 c785 2540 8218 3d97 d465 2a40
00000060: 3c9b 5165 1cbf 2f40 c04d b680 18c8 3240
00000070: ee47 1bfc b8eb 3540 506a 99ed 8749 3940
00000080: 2436 b39d 87e0 3c40 afcc 4ec3 d557 4040
00000090: 8ced 7e94 f05a 4240 c480 7c3d f478 4440
000000a0: d751 a7e6 36b1 4640 0109 06d4 0603 4940
000000b0: 47ab a8e3 8982 4a40 0e95 e509 ff97 4b40
000000c0: 018a 82e3 f5bb 4c40 5e19 d44f 659f 4f40
000000d0: 38c4 a761 177c 5140 996e 64a1 7267 5340
000000e0: e528 2cb4 0296 5540 1fcd 6b5e f70b 5840
000000f0: 904c 4ac0 70cd 5a40 8448 b806 7ede 5d40
00000100: 029d 8bfd 8da1 6040 2220 e536 9a7f 6240
00000110: 0f1b 540b 5b8b 6440 a8d7 0043 d2c6 6640
00000120: e9a2 ea6f 0034 6940 25ca 03c4 e4d4 6b40
00000130: edae 9495 7dab 6e40 e8ab 7a78 e4dc 7040
00000140: 752d 0a9b e280 7240 014a 2de0 b842 7440
00000150: 58c5 c1cb 6723 7640 d4a5 0514 f123 7840
00000160: cb3b ee00 5845 7a40 08e9 f9cd a188 7c40
00000170: 25e4 8150 d5ee 7e40 465e b945 7bbc 8040
00000180: 3ae9 5ec2 0414 8240 e929 2923 8a7e 8340
00000190: 70dd 0096 8ffc 8440 7b18 0998 9a8e 8640
000001a0: c622 ff1a 3235 8840 7752 70a9 def0 8940
000001b0: 4123 59a8 8ec9 8a40 ebec 050b 67a5 8b40
000001c0: 13e1 58c8 777e 8d40 c78b b71c c160 8f40
000001d0: 64fd 3804 12a6 9040 b105 7e94 40a0 9140
000001e0: d8b3 0116 dd9e 9240 4423 83e2 d8a1 9340
000001f0: fa97 5ac8 25a9 9440 4901 2ffa b5b4 9540
00000200: e032 b4fc 7bc4 9640 14db 7092 6ad8 9740
00000210: 6e15 86a5 74f0 9840 024f 70a6 8e0c 9a40
00000220: 505b e7cb b22c 9b40 08ad 8b12 dc50 9c40
00000230: 8e9c 837b 0479 9d40 0181 abe2 24a5 9e40
00000240: 0e2a 77d1 34d5 9f40 b026 3d27 9584 a040
00000250: 10c1 9bbb 7c20 a140 ef11 7c00 4abe a140
00000260: 42c0 36b5 f45d a240 4765 ac68 73ff a240
00000270: 2c26 e155 bba2 a340 1c8a 7f3d c047 a440
00000280: 7426 f03b 74ee a440 d26f ac9b c796 a540
00000290: 88f2 6aa3 a840 a640 dc9f ba5f 03ec a640
000002a0: 92cd 9967 c198 a740 8510 8c9b c946 a840
000002b0: 5c60 a8de fff5 a840 5837 0fc9 44a6 a940
000002c0: 7994 513a 7557 aa40 3ffe 60e7 6909 ab40
000002d0: 5b69 282c f7bb ab40 da65 d0a5 ec6e ac40
000002e0: cd03 93ba 1422 ad40 83b4 c716 34d5 ad40
000002f0: 6214 704e 0988 ae40 860b 127f 4e3a af40
00000300: 4d44 7824 b8eb af40 ddc2 9114 f94d b040
00000310: 08ec 3188 4fa5 b040 2467 0094 abfb b040
00000320: 5f37 ebd5 d350 b140 3e65 89ea 88a4 b140
00000330: 0241 aee7 84f6 b140 d147 87d3 7a46 b240
00000340: c28b f91a 1694 b240 4a06 cafd f9de b240
00000350: e903 2ff1 c026 b340 627a eefd fb6a b340
00000360: b6fd 6b1b 32ab b340 8094 e187 dfe6 b340
00000370: ee21 c41e 751d b440 c4d0 deae 574e b440
00000380: d80b df51 df78 b440 cf4e 1fc7 569c b440
00000390: 4088 ded3 fab7 b440 c12b 5b98 fcca b440
000003a0: 5a9d f54c 88d4 b440 5fbd aafd bbd3 b440
000003b0: 4056 e033 a5c7 b440 7ac6 9b4f 41af b440
000003c0: e67b 86cd 7d89 b440 551b a47b 3855 b440
000003d0: ca00 9e9d 3f11 b440 f118 cd00 52bc b340
000003e0: 5ea3 8aff 1e55 b340 e09e c072 46da b240
000003f0: 5257 2b90 584a b240 4572 37b3 d5a3 b140
00000400: c9d7 db0d 2ee5 b040 5d98 353e c10c b040
00000410: 24ce fa89 bb31 ae40 e31a 42b0 800f ac40
00000420: 3f38 a817 26af a940 a3e3 7796 d80c a740
00000430: 9af3 c330 9b24 a440 eaec e611 730e a340
00000440: 47be 3b0c fb83 a240 25c4 4c40 9370 a240
00000450: 878d 32d4 2a5d a240 94cd b064 179b a140
00000460: 29cf 7d30 86cd 9c40 f0f3 16f8 2f65 9640
00000470: 9cd5 c003 86fa 8f40 e277 8597 a52b 8340
00000480: 3036 8588 7e77 6940 c63e 9941 c1ba 69c0
00000490: e034 bda3 f339 83c0 88a3 5c24 ec01 90c0
000004a0: 821d b636 2866 96c0 ae97 901d a9c9 9cc0
000004b0: 10f3 a0e7 3596 a1c0 444e bb85 37c7 a4c0
000004c0: 07ad 9ba2 d9f7 a7c0 303b 2c47 1d28 abc0
000004d0: e1fd c941 0458 aec0 2846 2e8e c8c3 b0c0
000004e0: 8f04 2089 635b b2c0 89e8 eb02 d5f2 b3c0
000004f0: 8068 d63a 1f8a b5c0 d476 82b8 4421 b7c0
00000500: 1bdb f445 48b8 b8c0 ad01 4ee9 2c4f bac0
00000510: b630 3cde f5e5 bbc0 b9b0 2a8f a67c bdc0
00000520: 0ea7 348e 4213 bfc0 1419 f2c6 e654 c0c0
00000530: 66ea e3ac 2520 c1c0 26b8 74e7 5feb c1c0
00000540: f87e 196a 97b6 c2c0 adf5 6629 ce81 c3c0
00000550: 203d 4517 064d c4c0 f166 2e1f 4118 c5c0
00000560: dab5 7e22 81e3 c5c0 f471 ddf4 c7ae c6c0
00000570: c80c c558 177a c7c0 3f18 31fc 7045 c8c0
00000580: d273 6d75 d610 c9c0 751b 3040 49dc c9c0
00000590: abe5 bcba caa7 cac0 0bb3 2723 5c73 cbc0
000005a0: 6965 1394 fe3e ccc0 5cf1 a2fe b20a cdc0
000005b0: 3686 f31f 7ad6 cdc0 8c3a e345 4537 cec0
000005c0: 6352 b2f5 63a4 cec0 d24e d6a6 2e2e cfc0
000005d0: 5608 2e8e 00b8 cfc0 23ae 8b76 5d14 d0c0
000005e0: 42f5 39ca bd4c d0c0 ddd7 4871 dca5 d0c0
000005f0: ad1c 9dbd e5ef d0c0 2d73 dd6a f439 d1c0
00000600: 23dd 5f7e 539a d1c0 8038 4168 bbfa d1c0
00000610: 114f 0eed f560 d2c0 6cc5 78cc 39c7 d2c0
00000620: a033 229f 862d d3c0 831a d0e7 db93 d3c0
00000630: 399c 1819 39fa d3c0 6e3a df96 9d60 d4c0
00000640: 2c1c a5b7 08c7 d4c0 9625 f3c5 792d d5c0
00000650: 4946 da01 f093 d5c0 530b 87a2 6afa d5c0
00000660: d547 e5d7 e860 d6c0 3180 50cc 69c7 d6c0
00000670: 11a8 4da6 ec2d d7c0 30b1 4a8a 7094 d7c0
00000680: e15e 609c f4fa d7c0 35d0 1202 7861 d8c0
00000690: 1738 0de4 f9c7 d8c0 8c47 d56f 792e d9c0
000006a0: 17e2 72d9 f594 d9c0 09cf 085d 6efb d9c0
000006b0: e93b 5b40 e261 dac0 b90b 41d4 50c8 dac0
000006c0: 831c fd75 b92e dbc0 c5df 7c90 1b95 dbc0
000006d0: a1da 799d 76fb dbc0 b5df 7b26 ca61 dcc0
000006e0: a915 bac5 15c8 dcc0 5422 d926 592e ddc0
000006f0: 401a 8507 9494 ddc0 c01e e637 c6fa ddc0
00000700: 22e1 ee9a ef60 dec0 2e8f 8426 10c7 dec0
00000710: 87fb 7fe3 272d dfc0 d622 88ed 3693 dfc0
00000720: a97c c672 3df9 dfc0 c5e9 bad9 9d2f e0c0
00000730: 7755 a600 9962 e0c0 0d41 625f 9095 e0c0
00000740: 7bc4 1f2f 84c8 e0c0 054f 87b0 74fb e0c0
00000750: 8fd5 2c2b 622e e1c0 0658 f6ec 4c61 e1c0
00000760: 1000 7649 3594 e1c0 2a33 3999 1bc7 e1c0
00000770: 4307 0e39 00fa e1c0 099b 4089 e32c e2c0
00000780: dce1 d1ec c55f e2c0 f67e a9c8 a792 e2c0
00000790: 6d53 c482 89c5 e2c0 0b67 6181 6bf8 e2c0
000007a0: 81d4 2e2a 4e2b e3c0 7d5d 78e1 315e e3c0
000007b0: dd51 6b09 1791 e3c0 8720 2501 fec3 e3c0
000007c0: a89c 0e24 e7f6 e3c0 c8e1 1ac9 d229 e4c0
000007d0: c7e6 1442 c15c e4c0 67fc f5da b28f e4c0
000007e0: 56b9 40d9 a7c2 e4c0 02ec df7b a0f5 e4c0
000007f0: 73b4 b4f9 9c28 e5c0 fb17 3881 9d5b e5c0
0.0 0.007030258659651395 0.08286877417843622 0.5492355095269253 1.2183891375263758 2.196437694191336 3.421136270883331 4.891276937427194
6.60564764881692 8.56287183786462 10.761289891873039 13.198887563903785 15.87326351758167 18.78162388277792 21.92079139390983 25.28723034854403
28.877069336178593 32.686211026645985 36.71046692083027 40.944953618805386 45.38448794526965 50.02364588064848 53.0198330472545 55.187470662213045
57.46844142793635 63.245279291690835 69.93892709144063 77.61637148673834 86.3439150267837 96.18697319533793 107.21000678306359 119.47644203182614
133.04858281391358 147.98757500411108 164.3548638003053 182.2131667152837 201.62505336596885 222.65292549839174 245.3590801147433 269.80577896040495
296.05532363868343 324.17013566676184 354.212840802114 386.2463569851509 420.3339852624892 456.5395030748482 494.9270787309527 535.5601915819068
578.5023238577771 623.8174498763957 671.5701103274896 721.8254852972599 774.6494655544745 830.108721616284 857.194657036198 884.6753139937331
943.8084876006782 1004.094293054536 1065.5175942330034 1128.063066453073 1191.7159042612093 1256.4618015756869 1322.2868971019038 1389.1777121872458
1457.1210811763813 1526.1040742524829 1596.1139126730518 1667.139306788275 1739.1746059560282 1812.214914495884 1886.2543774189285 1961.2860209271896
2037.3015802974146 2114.291314993832 2192.2436188386127 2271.1445349475757 2350.9779450521173 2431.725407969821 2513.3658895835015 2595.8754691940394
2679.2270197913112 2763.3898595701694 2848.329371778589 2934.0065897293225 3020.3777435363236 3107.3937648554006 3194.999745618594 3283.1343464617785
3371.7289605611554 3460.706843405758 3549.9827587727173 3639.462202560838 3729.0404859487667 3818.601736298356 3908.0181765580064 3997.153313220889
4085.859653242433 4173.972970113825 4261.310671920895 4347.670227074796 4432.827482892054 4516.534828746049 4598.519160166617 4678.47979016784
4756.086349102612 4830.976528765235 4902.753680170493 4970.984343438033 5035.195730924073 5094.873167132144 5149.457500704082 5198.342512060135
5240.872343006507 5276.3389758651165 5303.9797953684465 5322.986699770147 5332.532424307743 5331.734339400514 5319.645322819764 5295.255120979267
5257.491417317628 5205.22063661258 5137.2484987976 5052.320324724759 4949.121086754689 4826.275188483036 4682.345949848956 4515.834765878103
4325.179898967916 4108.754855489443 3864.8662870766293 3591.751344743521 3287.5743992394123 2950.4230229821565 2578.3031064257493 2439.2247459568216
2369.9903277082226 2360.2875999440607 2350.5836501882327 2253.5456900835943 1843.3810443551722 1433.2968448244465 1023.3154368462742 613.4558554103098
203.7341959573546 -205.83609085016923 -615.2439646512757 -1024.4806074595272 -1433.5392712073813 -1842.4151518433168 -2251.1052828118045 -2659.6084421666183
-3067.925068726417 -3476.0571836302042 -3884.0083144304667 -4291.783419506195 -4699.388811112512 -5106.832075828811 -5514.12199153949 -5921.268440393458
-6328.282317450993 -6735.175434947404 -7141.960422288792 -7548.6506220513775 -7955.259982386384 -8361.802946340795 -8768.294338693097 -9174.749250974575
-9581.182925402638 -9987.610638494452 -10394.047585158201 -10800.508764076485 -11207.008865202708 -11613.562160187379 -12020.182396537057 -12426.882696282233
-12833.675458604386 -13240.572271359832 -13647.583823787825 -14054.71982284777 -14461.988893913762 -14869.39839588914 -15276.954100075276 -15470.541195300662
-15688.780935564258 -15964.36446646546 -16240.004338983603 -16465.460360450797 -16690.965467919836 -17047.444414339832 -17343.589698102955 -17639.819022524334
-18025.304588285402 -18410.928238206077 -18819.842593743528 -19228.903104965968 -19638.103462744155 -20047.43602373685 -20456.892156746446 -20866.462333495198
-21276.136208798896 -21685.9027068965 -22095.750113075865 -22505.666169892367 -22915.638177223347 -23325.65309536475 -23735.697650350692 -24145.758440659556
-24555.82204446092 -24965.875126555755 -25375.904544167304 -25785.897450752134 -26195.841397019187 -26605.724428369696 -27015.535178001886 -27425.26295496125
-27834.897826459735 -28244.430693834805 -28653.853361571793 -29063.158598869766 -29472.34019329181 -29881.39299610474 -30290.312958980212 -30699.097161798505
-31107.743831367356 -31516.252350940536 -31924.62326049388 -32332.8582477894 -32740.96013033079 -33148.93282838495 -33556.78132931416 -33964.511643530896
-34372.13075245261 -34779.6465488952 -35187.067770402056 -35594.40392605965 -36001.66521739971 -36408.86245403283 -36816.00696469706 -37223.110504439166
-37630.18515867341 -38037.24324488446 -38444.2972127561 -38851.35954351545 -39258.442649283454 -39665.55877321491 -40072.71989980687 -40479.937639773874
-40887.223151498765 -41294.58704895113 -41702.039316607224 -42109.589228623365 -42517.245270120606 -42925.01512142272 -43332.905481674614 -43740.92202381786

position_y f8 [1271]
00000000: 0000 0000 0000 0000 4e6c 38e5 d264 c4be
00000010: 984b ec2a 37cd 33bf 7d62 5072 d9f0 81bf
00000020: d900 734f 6506 a0bf 8b3b a7f9 bf89 b3bf
00000030: f0a0 791d 6ea0 c2bf d227 05fb 2de1 cebf
00000040: 9616 e844 815a d7bf f22a 3388 c88a e0bf
00000050: 0c12 1ab7 8a4d e6bf d00a dc31 e8eb ecbf
00000060: cad4 038a 8d2b f2bf 40a7 48b6 3c3e f6bf
00000070: 6ea0 632b 60a3 fabf a421 e0e4 a64f ffbf
00000080: 1b70 ee1e ce1b 02c0 eb00 3299 0da8 04c0
00000090: 62c5 ea9c 5347 07c0 fc5b b812 d8f4 09c0
000000a0: 3ea0 c442 59ac 0cc0 72a3 a67c 236a 0fc0
000000b0: 7ed0 303f 1b91 10c0 0a06 7a51 2c2d 11c0
000000c0: a297 c991 15c8 11c0 b030 cd9e d71d 13c0
000000d0: 1137 5cf4 5365 14c0 e105 ab64 399b 15c0
000000e0: c565 bc2e 2abc 16c0 0862 92ce b4c4 17c0
000000f0: b174 8f51 4db1 18c0 95d5 fac0 477e 19c0
00000100: eabd eda3 d327 1ac0 c895 f646 f8a9 1ac0
00000110: a5a9 2bc4 8a00 1bc0 a3fe c576 2527 1bc0
00000120: 605c 060a 2b19 1bc0 7400 8707 c4d1 1ac0
00000130: cd35 5d38 dc4b 1ac0 2995 6a13 2082 19c0
00000140: 4b0f 6421 fa6e 18c0 dff0 5b43 900c 17c0
00000150: 6542 12cc c054 15c0 dca3 085f 1f41 13c0
00000160: 823e 648a f1ca 10c0 e355 3824 56d6 0bc0
00000170: 991f e4ae d634 05c0 503b 2853 0b44 fbbf
00000180: 1207 8069 5637 e4bf 961d 6482 1362 e23f
00000190: d510 2c2d 3ac5 fe3f ee37 ad2e d962 0b40
000001a0: cafe f304 3f56 1440 5216 0219 dea9 1b40
000001b0: 7f50 9d4d fd5d 1f40 305d bd94 3d95 2140
000001c0: 684d 3659 6fb2 2540 f21a 74d9 ffed 2940
000001d0: e407 1927 7648 2e40 df6f 786e 3361 3140
000001e0: dded 506e 3cae 3340 6a9f e233 b30b 3640
000001f0: 87d5 9e19 ff79 3840 9f5c ff4e 92f9 3a40
00000200: 7e55 8088 ea8a 3d40 63ea b1e3 4817 4040
00000210: be06 6a9e 8f72 4140 6f80 5a1e 9fd7 4240
00000220: 1c93 e4bb e046 4440 eb58 21f1 c8c0 4540
00000230: 0203 0431 d545 4740 8956 e6d3 8cd6 4840
00000240: 59cd 3a17 8273 4a40 e357 d33c 531d 4c40
00000250: 4849 0781 abd4 4d40 929e 7f12 449a 4f40
00000260: 9922 7c27 73b7 5040 fca9 d1d9 b6a9 5140
00000270: 1ce1 1af2 64a4 5240 209b dd78 00a8 5340
00000280: 5776 22f4 18b5 5440 14e7 87d5 4bcc 5540
00000290: a193 9b13 46ee 5640 dfac b5f2 c51b 5840
000002a0: 4828 b101 9d55 5940 9dc5 e14e b29c 5a40
000002b0: ea89 8cd9 04f2 5b40 fa1f de43 ae56 5d40
000002c0: 3335 de8c e5cb 5e40 4775 4304 8129 6040
000002d0: bb2e b9a9 bff6 6040 06f1 c397 80ce 6140
000002e0: f8ff c5c9 abb1 6240 4860 de7d 41a1 6340
000002f0: 799c a0af 5c9e 6440 a86d b38a 37aa 6540
00000300: 54d6 de48 2cc6 6640 cf81 9800 b5f3 6740
00000310: 441e 050f 6e34 6940 d691 8861 188a 6a40
00000320: 2efb 3a71 9bf6 6b40 ad68 20e7 067c 6d40
00000330: 08e2 4d31 941c 6f40 6371 14fc 536d 7040
00000340: f0a4 2163 695c 7140 aa58 b971 e85c 7240
00000350: 64ad 22e4 4470 7340 db6a 458b 0798 7440
00000360: 7945 dd6a cdd5 7540 5fec 706a 462b 7740
00000370: 0e53 2196 339a 7840 62cb e3ee 6424 7a40
00000380: 70f4 66ca b6cb 7b40 b73a b9c4 0e92 7d40
00000390: 5918 b047 5879 7f40 2284 9d00 c1c1 8040
000003a0: 5043 1459 36d9 8140 ad8e 83b6 e503 8340
000003b0: 312e 5934 9142 8440 e0a2 7d48 e595 8540
000003c0: 1179 ee41 7afe 8640 c608 7293 d57c 8840
000003d0: 71f5 c3f9 6a11 8a40 3f05 e088 9dbc 8b40
000003e0: 5177 3ea9 c07e 8d40 be80 b10b 1958 8f40
000003f0: 7f55 7bcc 6ea4 9040 d489 6d30 9ca8 9140
00000400: 81b8 f8c5 a3b8 9240 8a1d 1e29 8fd4 9340
00000410: 0bc3 64fc 62fc 9440 0f18 046c 1f30 9640
00000420: b061 48b6 c06f 9740 cae3 19ba 3fbb 9840
00000430: cd98 ac8c 9212 9a40 6541 eba8 b08d 9a40
00000440: 2b8c 9dc7 05ca 9a40 d57c 3893 6ed2 9a40
00000450: 54a4 18e5 d8da 9a40 5fbc 76f0 522f 9b40
00000460: 11df 0ea9 c39a 9c40 094c 9d8e f80f 9e40
00000470: 50d7 3e23 468e 9f40 436a 204c 7d8a a040
00000480: 9235 5845 af51 a140 1cdf 4cd9 5a1c a240
00000490: 92f6 98c3 1fea a240 e199 f0ec 9bba a340
000004a0: dc20 deb4 6b8d a440 1188 5438 2a62 a540
000004b0: f478 9495 7138 a640 36f6 c52d db0f a740
000004c0: 58f8 92e4 ffe7 a740 92a1 fd5d 78c0 a840
000004d0: 3354 9e3a dd98 a940 2242 6a52 c770 aa40
000004e0: 7a7f 19ee cf47 ab40 afd7 3bff 901d ac40
000004f0: ed4a 0557 a5f1 ac40 12ef d5db a8c3 ad40
00000500: cbbf 7cbd 3893 ae40 f788 31a8 f35f af40
00000510: 3bb1 1ffb bc14 b040 c487 2bf0 b677 b040
00000520: e772 3fd6 b9d8 b040 dd49 caed 9837 b140
00000530: de10 aaaa 2894 b140 be65 6bc9 3eee b140
00000540: e3df bd63 b245 b240 b533 1604 5c9a b240
00000550: c6be 76b8 15ec b240 760a 5724 bb3a b340
00000560: 85fe a291 2986 b340 27a1 cb00 40ce b340
00000570: 2fcc e737 df12 b440 6558 f3d0 e953 b440
00000580: 41e2 8c4c 4491 b440 a305 ca15 d5ca b440
00000590: b9f7 4d91 8400 b540 7c3c e029 3d32 b540
000005a0: b224 4163 eb5f b540 0a6d 1bfd 7d89 b540
000005b0: 43aa a1a8 e5ae b540 8fbc b492 2ebf b540
000005c0: b062 a084 63d0 b540 9e5b 629d 5ee4 b540
000005d0: 23a3 12c1 63f6 b540 dc01 c1cb a903 b640
000005e0: 1b54 05e6 9d0f b640 4dd4 8fd1 ce1f b640
000005f0: 297a 942b bc2a b640 f1d0 b770 5f33 b640
00000600: e5ef 64c2 2e3b b640 a575 4043 1f3f b640
00000610: b81a 76c5 153f b640 2e19 96d5 bb3a b640
00000620: 5b6d 212f 1932 b640 44f6 6ca4 3725 b640
00000630: 3c37 421d 2314 b640 e87c f78d e9fe b540
00000640: a37a aaee 9ae5 b540 7dd5 8231 49c8 b540
00000650: 55b9 0238 08a7 b540 fcd0 6ac7 ed81 b540
00000660: 24b5 377c 1159 b540 b18f bfbc 8c2c b540
00000670: b83e f7aa 7afc b440 01bd 6615 f8c8 b440
00000680: 9503 5567 2392 b440 fbfb 3398 1c58 b440
00000690: 8477 551a 051b b440 4f76 f2c8 ffda b340
000006a0: 0059 8ed5 3098 b340 c5e2 bfb4 bd52 b340
000006b0: 6536 6a0a cd0a b340 7638 7095 86c0 b240
000006c0: a6fa ec1a 1374 b240 3c08 fc50 9c25 b240
000006d0: 5c9a 1cc9 4cd5 b140 42e3 3ada 4f83 b140
000006e0: 83c2 6a8a d12f b140 7551 5f78 feda b040
000006f0: edcd aac4 0385 b040 ea7a d2fa 0e2e b040
00000700: 2534 84f4 9bac af40 2a4d 55be ddfb ae40
00000710: 78f3 afd6 3f4a ae40 2cf7 11de 1e98 ad40
00000720: 09ed ab63 d7e5 ac40 e926 61b7 c533 ac40
00000730: 57dc 11bc 4582 ab40 6b2b 46ba b2d1 aa40
00000740: 085a 5033 6722 aa40 9b77 fcb4 bc74 a940
00000750: 0e31 e3ad 0bc9 a840 a656 7542 ab1f a840
00000760: 1542 d522 f178 a740 f700 9361 31d5 a640
00000770: c6f0 5f4b be34 a640 d767 ce3f e897 a540
00000780: d43c 328b fdfe a440 5db6 b741 4a6a a440
00000790: e412 c81b 18da a340 9737 d653 ae4e a340
000007a0: 7eb0 b485 51c8 a240 0205 a38f 4347 a240
000007b0: 8cc8 5e48 c3cb a140 0e37 1cc2 0c56 a140
000007c0: 3db6 dae8 58e6 a040 5dfd 5c78 dd7c a040
000007d0: e183 f8e4 cc19 a040 45d7 c287 ac7a 9f40
000007e0: 0b29 3963 4acf 9e40 3aec 3701 c431 9e40
000007f0: 36b2 ee45 62a2 9d40 b463 81d4 6621 9d40
0.0 -2.431135536230063e-06 -0.000302148789090123 -0.00876016502483989 -0.03129879565085653 -0.07632064671564202 -0.14552093924726917 -0.2412469363865158
-0.3648989842334712 -0.5169413242486753 -0.6969655586440822 -0.9037972425288334 -1.1356330290994259 -1.3901946182690637 -1.6648866362466168 -1.9569462719392527
-2.263576738025234 -2.5820571869263538 -2.9098274478098327 -3.2445527517807005 -3.584154626489208 -3.92682549842396 -4.1417055009407004 -4.294114373276452
-4.445394781045168 -4.779142838739219 -5.098953073624004 -5.401586125315107 -5.683754663704751 -5.942095973667627 -6.173146509533738 -6.373320594129287
-6.538893281350719 -6.6659861648562995 -6.750529351391752 -6.788228851160656 -6.774578243864283 -6.704849355330328 -6.57408226078901 -6.37707548463849
-6.108376046878969 -5.762269070135715 -5.332766712774718 -4.813596234228466 -4.198187029236239 -3.479656489342902 -2.6508001006477113 -1.7041123627020234
-0.6317550716923697 0.5744721934033119 1.923151184514656 3.423265804921349 5.084224774734773 6.915886297943489 7.8417865874545205 8.791485450854992
10.848505771521289 12.964842601225858 15.141526433759232 17.379691032794536 19.680609602697462 22.045703165843783 24.4765487683085 26.97488874182147
29.54264119275239 32.18191190898212 34.895007898111984 37.6845434133437 40.55373333607551 43.506132260592345 46.54556858726393 49.6761727213571
52.90240755435179 56.229102709956145 59.661483887250654 63.20520240050713 66.8664034569032 70.65178533053398 74.56866123795447 78.62502881661612
82.82964804997879 87.1921285464453 91.72302713578257 96.43395679227568 101.33770792294047 106.44838306472816 111.78154600834355 117.35438629810224
123.18588563632947 129.29699910331166 135.7108963600966 142.45319736738037 149.5522202365098 157.03924458916504 164.9488142144144 173.31928000492667
182.19290584109206 191.61584501062904 201.6384348964658 212.31547619508518 223.70647489089737 235.8758426316248 248.89308991633902 262.83300407395853
277.77572930471706 293.8067490806667 311.0168191294272 329.50184180370496 349.36265074190266 370.7046913538997 393.63759434716565 418.2746418855878
444.73212661949856 473.12860557894913 503.58405274188186 536.2192394548367 571.151537092499 608.4871645238796 648.3209006278249 690.7369546714144
735.8096960669228 783.6042851361206 834.1772342023161 887.5769212247468 943.8440728073275 1003.0122293345846 1065.1082019110615 1130.152528487718
1198.1599348890888 1269.1398052888421 1343.09666593018 1420.0306854858097 1499.938195353472 1582.8122333569795 1668.643114754511 1699.42251937472
1714.505644284897 1716.6079834772293 1718.7118114328669 1739.8309954216454 1830.6910745929383 1923.9927315309199 2019.5684938258091 2117.244721425029
2216.8423259320634 2318.177439119563 2421.062039165591 2525.3045420825806 2630.7103642859565 2737.082461015329 2844.2218443296097 2951.928083597474
3059.999790757003 3168.2350920924882 3276.432087848452 3384.3893006520966 3491.9061134307967 3598.7831972790514 3704.8229295400583 3809.8298022131285
3913.610820673382 4015.97589258954 4116.738206845063 4215.714602203985 4312.725925412705 4407.597378390344 4500.158854130857 4590.245260917987
4677.696834437523 4762.359437358497 4844.0848459449535 4922.731023254446 4998.1623784896265 5070.250012137264 5138.871946799612 5203.913344582635
5265.266793065298 5322.832363726021 5376.517842171649 5426.238920225875 5471.919483252963 5513.492143358346 5550.897104362552 5567.181926055941
5584.388742469877 5604.369588992469 5622.389664807156 5635.663265288309 5647.61679108909 5663.807885159808 5674.73503997786 5683.372813690673
5691.182653721397 5695.122119930956 5695.085044271014 5690.73372781863 5682.0983754055005 5669.217352686046 5652.13716520165 5630.912322490687
5605.60520425314 5576.2859117289745 5543.032104654548 5505.928824115774 5465.068301660274 5420.549755070287 5372.479171231091 5320.96907655825
5266.138295472502 5208.111697434443 5147.019933072737 5082.999159959682 5016.190758606652 4946.741039269317 4874.800940168648 4800.525717748436
4724.07462960357 4645.610610725413 4565.299943721471 4483.311923675998 4399.818518326271 4314.994024236094 4229.014719653392 4142.058514742859
4054.3045998872426 3965.9330927521414 3877.1246848091796 3788.060288011 3698.9206823088502 3609.8861646995542 3521.1362004834623 3432.8490774086
3345.201563368788 3258.368568315125 3172.522811031092 3087.834491411998 3004.4709688800017 2922.5964475573232 2842.37166881384 2763.9536118032224
2687.4952026080373 2613.1450326356994 2541.047086956316 2471.3404833739146 2404.159223219437 2339.6319552367795 2277.8814115161713 2219.0249184434133
2163.173651537653 2110.432558923653 2060.900184408282 2014.6684866374865 1971.8226441317845 1932.4414108980113 1896.595969895961 1864.3504200188736

position_z f8 [1271]
00000000: 0000 0000 0000 0000 fc3d fbd1 ccb4 c93f
00000010: 7cbd 6430 e582 0240 16c7 c4ef 316c 2c40
00000020: df69 db69 5d04 3e40 b47d dfcd be14 4a40
00000030: d8f5 7f8d d7cc 5340 d406 887b 50cb 5b40
00000040: 1855 c98e 4b84 6240 5503 0348 bac3 6740
00000050: 996d 7008 57a5 6d40 7657 b53c 4115 7240
00000060: 4152 0ea5 4daa 7540 97ae 2a17 7f92 7940
00000070: 4611 b4f1 82ce 7d40 b2b0 5fce 822f 8140
00000080: aa0d 7349 59a2 8340 b7a6 4362 1f40 8640
00000090: da67 8f3d 3b09 8940 3dd9 4b43 f6fd 8b40
000000a0: 0045 02d1 931e 8f40 cade 856c a935 9140
000000b0: 43a2 4bb3 b348 9240 3345 23f7 cc10 9340
000000c0: fa54 3fee 3fdd 9340 d49d 9ae0 5abb 9540
000000d0: 8a64 e9d2 bcaf 9740 98f5 6912 73ba 9940
000000e0: 9c6a da1a 87db 9b40 5928 1310 fd12 9e40
000000f0: 8851 9574 6a30 a040 a8b4 e86d 8562 a140
00000100: 3a6f 53b3 cb9f a240 29fa 9df6 37e8 a340
00000110: d95d c8b1 cc3b a540 97f8 9c38 989a a640
00000120: 48e2 8d47 aa04 a840 a8d9 6a97 137a a940
00000130: 465d 68f5 e5fa aa40 da27 055b 3487 ac40
00000140: 7af8 c805 131f ae40 e9bc d88e 97c2 af40
00000150: cabf 2e81 ecb8 b040 f148 5efb 7796 b140
00000160: 8e22 d051 fb79 b240 e18c 687c 8463 b340
00000170: b20e d707 2253 b440 59bc 771c e148 b540
00000180: 609a 9ad1 ce44 b640 4dbd 1afe f846 b740
00000190: e5ca a241 6e4f b840 df1f dc0d 3e5e b940
000001a0: 0bd9 88af 7873 ba40 6ec3 8857 2f8f bb40
000001b0: 66e6 281c 3e17 bc40 f8d5 0dfc cea0 bc40
000001c0: ecaf efbe a8c9 bd40 7574 0796 8ef9 be40
000001d0: 81e1 cab8 4c18 c040 c6e2 6810 71b7 c040
000001e0: b04f c837 415a c140 f304 fa9c ca00 c240
000001f0: 8179 013b 1bab c240 b7ad 999e 4159 c340
00000200: 3181 eeea 4c0b c440 32bb 45de 4cc1 c440
00000210: 5a87 92d6 517b c540 7c09 9102 6d39 c640
00000220: 6bc6 d6e8 b0fb c640 f16f 42d0 30c2 c740
00000230: 73aa b38e 008d c840 2f1d f189 345c c940
00000240: 94c2 81b8 e12f ca40 2ec8 78a2 1d08 cb40
00000250: 2f01 2637 fee4 cb40 549f a38d 99c6 cc40
00000260: 970d 9140 06ad cd40 ce96 8f82 5b98 ce40
00000270: bcda 801f b188 cf40 2d22 e3be 0f3f d040
00000280: 0b86 c1cf 5fbc d040 0beb f091 553c d140
00000290: 662b 2f24 febe d140 7a43 09f5 6644 d240
000002a0: 51e4 82c3 9dcc d240 8d72 bd9f b057 d340
000002b0: fbf8 9beb ade5 d340 0173 605b a476 d440
000002c0: 62df 23d5 a20a d540 93cd f44d b8a1 d540
000002d0: 8b7c 210b f43b d640 3e8f 3dad 65d9 d640
000002e0: 183c 5e30 1d7a d740 cea1 08ec 2a1e d840
000002f0: bdbb 0895 9fc5 d840 b663 4358 8c70 d940
00000300: 3de8 afcf 021f da40 f0ce f8e2 14d1 da40
00000310: f183 7cc4 d486 db40 f42c 54ee 5440 dc40
00000320: 87de 081e a8fd dc40 7fdb d84e e1be dd40
00000330: c59f 81b2 1384 de40 fc06 f5a7 524d df40
00000340: d277 b4d7 580d e040 fc2e e82d 2276 e040
00000350: 67fd c720 0fe1 e040 b6eb f770 294e e140
00000360: e8e2 6fc9 7abd e140 e53e 5db1 0c2f e240
00000370: e293 db7b e8a2 e240 e1d3 5c35 1719 e340
00000380: 0f4c 9b8e a191 e340 1edd f3c4 8f0c e440
00000390: 5eae 0a88 e989 e440 a56d 3f02 b609 e540
000003a0: a320 c724 fc8b e540 f456 842d c210 e640
000003b0: 49da be6e 0d98 e640 b904 5736 e221 e740
000003c0: 6eaa 76b4 43ae e740 c477 cde1 333d e840
000003d0: e375 5365 b3ce e840 45ca 7f79 c162 e940
000003e0: 95bc d5d0 5bf9 e940 a8fd 9d79 7e92 ea40
000003f0: e98e 95c0 232e eb40 a107 4e12 44cc eb40
00000400: 91c9 ebda d56c ec40 9469 dd63 cd0f ed40
00000410: 9e6a 13af 1cb5 ed40 6a82 274f b35c ee40
00000420: 79cd c53b 7e06 ef40 e018 87a1 67b2 ef40
00000430: e3de 1f56 2b30 f040 c879 39e6 e04e f040
00000440: 3ea7 c4bb d65d f040 dae9 a45c eb5f f040
00000450: 1dbc a1f9 ff61 f040 693f 09c5 cc76 f040
00000460: 1dbb 0239 9fce f040 6ea5 6ad6 4626 f140
00000470: 23ae e41d c47d f140 b5b8 4089 17d5 f140
00000480: 8c76 8b8c 412c f240 2419 e696 4283 f240
00000490: 9a0f 2c13 1bda f240 fced 6d68 cb30 f340
000004a0: 01be 47fa 5387 f340 523a 1829 b5dd f340
000004b0: 15d3 1d52 ef33 f440 f3ce 7dcf 028a f440
000004c0: 5d63 39f8 efdf f440 3c36 1420 b735 f540
000004d0: ac5f 6f97 588b f540 b0b1 1bab d4e0 f540
000004e0: 2fc4 25a4 2b36 f640 6703 9ec7 5d8b f640
000004f0: 0ec5 5e56 6be0 f640 8033 d28c 5435 f740
00000500: d3ad b9a2 198a f740 900e f8ca bade f740
00000510: b720 6033 3833 f840 fc62 8804 9287 f840
00000520: 8d13 a561 c8db f840 c75a 6968 db2f f940
00000530: 0249 f030 cb83 f940 8b3a aecd 97d7 f940
00000540: 4a15 6b4b 412b fa40 10b5 45b1 c77e fa40
00000550: 49be c000 2bd2 fa40 b5f2 d835 6b25 fb40
00000560: cd08 2547 8878 fb40 2eec fe25 82cb fb40
00000570: 5c32 b6be 581e fc40 d96d cbf8 0b71 fc40
00000580: 6483 24b7 9bc3 fc40 0765 7bd8 0716 fd40
00000590: 3284 9737 5068 fd40 2fe6 adab 74ba fd40
000005a0: 6be6 c208 750c fe40 8dcf 1d20 515e fe40
000005b0: 3568 36c1 08b0 fe40 38b6 dadc c9d6 fe40
000005c0: 3a61 4c46 6e02 ff40 64a1 dc71 7739 ff40
000005d0: 7f7a 83cb 6f70 ff40 40a9 cb9e 569d ff40
000005e0: 19e6 fb10 32ca ff40 aed2 705e 7f08 0041
000005f0: 7646 bda9 da25 0041 b8d8 6609 2c43 0041
00000600: 6858 0fc7 4069 0041 dda1 b293 448f 0041
00000610: 9c08 23dc 7db7 0041 06dd 7dea a3df 0041
00000620: 81bf 3aa7 b607 0141 ea2e 60fc b52f 0141
00000630: 3410 86d5 a157 0141 750e fd1f 7a7f 0141
00000640: 244f f5ca 3ea7 0141 0b30 a1c7 efce 0141
00000650: b9d5 5309 8df6 0141 da4e 9b85 161e 0241
00000660: e41a 5634 8c45 0241 5dec c30f ee6c 0241
00000670: 1289 9114 3c94 0241 aab4 df41 76bb 0241
00000680: 311c 4599 9ce2 0241 6b43 cb1e af09 0341
00000690: d07e e6d8 ad30 0341 240f 69d0 9857 0341
000006a0: 557d 7110 707e 0341 ce5e 54a6 33a5 0341
000006b0: 90b3 81a1 e3cb 0341 2018 6613 80f2 0341
000006c0: 830d 480f 0919 0441 3ea1 21aa 7e3f 0441
000006d0: 56c6 76fa e065 0441 b2b6 2818 308c 0441
000006e0: ecb9 461c 6cb2 0441 93b3 dc20 95d8 0441
000006f0: 02df bf40 abfe 0441 3222 5a97 ae24 0541
00000700: 8263 7440 9f4a 0541 f24f 0058 7d70 0541
00000710: 1f00 e2f9 4896 0541 23ea b941 02bc 0541
00000720: 868d af4a a9e1 0541 9444 3d2f 3e07 0641
00000730: afa3 fd08 c12c 0641 c8cb 7af0 3152 0641
00000740: d610 00fd 9077 0641 1f50 6e44 de9c 0641
00000750: 674c 13db 19c2 0641 cb5f 84d3 43e7 0641
00000760: fccb 7c3e 5c0c 0741 24ea bf2a 6331 0741
00000770: c273 ffa4 5856 0741 7215 c6b7 3c7b 0741
00000780: 0174 666b 0fa0 0741 6dc3 eec5 d0c4 0741
00000790: ba06 21cb 80e9 0741 2907 707c 1f0e 0841
000007a0: bd09 01d9 ac32 0841 3144 b2dd 2857 0841
000007b0: cf4e 1685 937b 0841 07da a6c7 ec9f 0841
000007c0: 0ea0 bd9b 34c4 0841 800f b2f5 6ae8 0841
000007d0: 9be1 f5c7 8f0c 0941 e3ac 3403 a330 0941
000007e0: c1ad 7696 a454 0941 ff0b 506f 9478 0941
000007f0: d1ae fa79 729c 0941 d38f 97a1 3ec0 0941
0.0 0.20083008053778417 2.3139137058967076 14.211318485995019 30.017050376956714 52.16207288181923 79.20065629478574 111.17678726466994
148.13422335932478 190.11648941601257 237.16687414129845 289.32842703663425 346.6439562377382 409.1560279528871 476.90696878756387 549.938870189266
628.2935971249146 712.015324142957 801.1539260104721 895.7452455449744 995.8221759965236 1101.4154530446272 1170.1754886453425 1220.2001615057932
1271.3124322791687 1390.8387474211531 1515.9343983142485 1646.6123749309681 1782.8819383742875 1924.7471316331269 2072.207920709803 2225.260604164174
2383.8978525231623 2548.109303414142 2717.899793874222 2893.2973069241957 3074.332577165482 3261.038264597959 3453.44913793696 3651.6022569285533
3855.5371535113636 4065.296011708317 4280.923846170257 4502.468679325874 4729.981717117726 4963.517523321528 5203.132932129944 5448.8793406329
5700.807885801973 5958.972627326218 6223.430689024482 6494.2423989847 6771.471428444852 7055.184929416382 7191.242617183923 7328.808533539523
7625.659163456392 7929.556976762707 8240.59938941966 8558.883313284616 8884.509514845762 9217.582915546815 9558.212738212898 9906.512652597257
10262.600919545252 10626.600533214954 10998.639360729303 11378.85164082492 11767.382105681309 12164.38135557619 12570.004354913928 12984.410459651232
13407.76344320298 13840.231520745987 14281.986057997301 14733.199634983823 15194.048845416675 15664.714921902309 16145.383773905567 16636.246025832534
17137.497055416967 17649.337032537016 18171.970958511716 18705.60870582189 19250.46505806252 19806.75974975764 20374.71750544848 20954.568077194508
21546.544259040973 22150.87975807262 22767.81317937052 23397.58869875897 24040.456077154813 24696.670656354916 25366.493471320475 26050.192887160658
26748.043926216884 27460.326353265846 28187.32449257741 28929.327046436214 29686.62683316928 30459.520437445022 31248.307770162606 32053.29150129015
32874.77633117106 33713.0681038778 34568.47275161259 35441.295040092824 36331.83708948438 37240.39665090832 38167.26511935123 39112.725263990236
40077.048658035805 41060.49279206454 42063.297856655656 43085.687774385595 44127.879489482635 45190.06805626853 46272.41976874002 47375.069133290504
48498.115779240485 49641.62131379501 50805.60611889863 51990.04608144289 53194.869242542576 54419.95234584372 55665.11725881493 56930.12723447313
58214.682973760304 59518.418440538604 60840.89637156318 62181.60341239425 63539.94479646808 64915.23846773966 66306.70852648797 66798.05620715686
67037.42084184007 67070.71011821125 67103.99844525797 67436.79810452242 68841.95141862002 70244.4273477995 71644.25729816458 73041.47100898887
74436.09681268985 75828.1618405325 77217.69218069167 78604.71299546206 79989.24860357495 81371.32253287107 82750.95754797415 84128.17565708961
85502.9981016046 86875.44533177553 88245.53697144863 89613.29177445802 90978.72757507929 92341.86123467759 93702.70858647322 95061.28438015096
96417.60222785854 97771.67455297173 99123.51254284648 100473.12610663095 101820.52383906972 103165.71299109898 104508.69944790381 105849.48771498555
107188.08091266933 108524.48077936866 109858.68768381434 111190.70064635093 112520.51736930311 113848.13427631624 115173.54656047508 116496.7482408801
117817.73221255612 119136.4903520533 120453.01357223166 121767.29191389003 123079.31463899619 124389.07034092974 125696.54717102724 126316.61641951732
127014.8921626852 127895.4652983002 128774.98718593454 129493.41376844514 130211.12914647943 131343.92111363023 132283.33288054512 133221.5045906955
134440.09719723766 135656.57211805778 136943.73248869635 138228.48949787783 139510.8316550218 140790.74823033 142068.2292596117 143343.26561938567
144615.84910070256 145885.97247540983 147153.62955443354 148418.81523763278 149681.52555485733 150941.75769791278 152199.5100432118 153454.78216496605
154707.57483884835 155957.89003613158 157205.730908385 158451.1017628844 159694.0080289642 160934.45621561114 162172.45386066707 163408.00947207306
164641.13246164852 165871.83307195635 167100.12229685736 168326.01179640513 169549.51380677463 170770.64104595463 171989.40661596513 173205.8239023849
174419.90647199383 175631.66796934564 176841.12201309294 178048.2820928852 179253.16146765294 180455.77306607796 181656.12939002874 182854.24242171482
184050.1235352817 185243.7834135303 186435.23197040262 187624.47827982748 188811.53051146853 189996.39587386057 191179.08056536136 192359.58973328356
193537.9274415076 194714.09664681126 195888.09918408637 197059.9357605514 198229.60595901115 199397.10825017237 200562.4399839551 201725.59748621305
202886.57604527514 204045.3699685298 205201.97263695006 206356.37656531399 207508.5734685492 208658.55435189602 209806.3095601709 210951.82890236247
