yeonu/results_6dof/SCUD-B_45.0deg_20251219_203524.npz (npz, 209126 bytes, 22 tensors)

time f8 [1864]
0	0x0000000000000000	0.0
1	0x3f847ae147ae147b	0.01
2	0x3fbc28f5c28f5c29	0.11
3	0x3fcae147ae147ae2	0.21000000000000002
4	0x3fd3d70a3d70a3d8	0.31000000000000005
5	0x3fda3d70a3d70a3e	0.41000000000000003
6	0x3fe051eb851eb852	0.51
7	0x3fe3851eb851eb85	0.61
8	0x3fe6b851eb851eb8	0.71
9	0x3fe9eb851eb851eb	0.8099999999999999
10	0x3fed1eb851eb851e	0.9099999999999999
11	0x3ff028f5c28f5c29	1.01
12	0x3ff1c28f5c28f5c3	1.11
13	0x3ff35c28f5c28f5d	1.2100000000000002
14	0x3ff4f5c28f5c28f7	1.3100000000000003
15	0x3ff68f5c28f5c291	1.4100000000000004
16	0x3ff828f5c28f5c2b	1.5100000000000005
17	0x3ff9c28f5c28f5c5	1.6100000000000005
18	0x3ffb5c28f5c28f5f	1.7100000000000006
19	0x3ffcf5c28f5c28f9	1.8100000000000007
20	0x3ffe8f5c28f5c293	1.9100000000000008
21	0x4000147ae147ae16	2.0100000000000007
22	0x4000e147ae147ae3	2.1100000000000008
23	0x4001ae147ae147b0	2.210000000000001
24	0x40027ae147ae147d	2.310000000000001
25	0x400347ae147ae14a	2.410000000000001
26	0x4004147ae147ae17	2.510000000000001
27	0x4004e147ae147ae4	2.610000000000001
28	0x4005ae147ae147b1	2.7100000000000013
29	0x40067ae147ae147e	2.8100000000000014
30	0x400747ae147ae14b	2.9100000000000015
31	0x4008147ae147ae18	3.0100000000000016
32	0x4008e147ae147ae5	3.1100000000000017
33	0x4009ae147ae147b2	3.2100000000000017
34	0x400a7ae147ae147f	3.310000000000002
35	0x400b47ae147ae14c	3.410000000000002
36	0x400c147ae147ae19	3.510000000000002
37	0x400ce147ae147ae6	3.610000000000002
38	0x400dae147ae147b3	3.710000000000002
39	0x400e7ae147ae1480	3.8100000000000023
40	0x400f47ae147ae14d	3.9100000000000024
41	0x40100a3d70a3d70d	4.0100000000000025
42	0x401070a3d70a3d73	4.110000000000002
43	0x4010d70a3d70a3d9	4.210000000000002
44	0x40113d70a3d70a3f	4.310000000000001
45	0x4011a3d70a3d70a5	4.410000000000001
46	0x40120a3d70a3d70b	4.510000000000001
47	0x401270a3d70a3d71	4.61
48	0x4012d70a3d70a3d7	4.71
49	0x40133d70a3d70a3d	4.81
50	0x4013a3d70a3d70a3	4.909999999999999
51	0x40140a3d70a3d709	5.009999999999999
52	0x401470a3d70a3d6f	5.1099999999999985
53	0x4014d70a3d70a3d5	5.209999999999998
54	0x40153d70a3d70a3b	5.309999999999998
55	0x4015a3d70a3d70a1	5.4099999999999975
56	0x40160a3d70a3d707	5.509999999999997
57	0x401670a3d70a3d6d	5.609999999999997
58	0x4016d70a3d70a3d3	5.709999999999996
59	0x40173d70a3d70a39	5.809999999999996
60	0x4017a3d70a3d709f	5.909999999999996
61	0x40180a3d70a3d705	6.009999999999995
62	0x401870a3d70a3d6b	6.109999999999995
63	0x4018d70a3d70a3d1	6.209999999999995
64	0x40193d70a3d70a37	6.309999999999994
65	0x4019a3d70a3d709d	6.409999999999994
66	0x401a0a3d70a3d703	6.509999999999994
67	0x401a70a3d70a3d69	6.609999999999993
68	0x401ad70a3d70a3cf	6.709999999999993
69	0x401b3d70a3d70a35	6.8099999999999925
70	0x401ba3d70a3d709b	6.909999999999992
71	0x401c0a3d70a3d701	7.009999999999992
72	0x401c70a3d70a3d67	7.109999999999991
73	0x401cd70a3d70a3cd	7.209999999999991
74	0x401d3d70a3d70a33	7.309999999999991
75	0x401da3d70a3d7099	7.40999999999999
76	0x401e0a3d70a3d6ff	7.50999999999999
77	0x401e70a3d70a3d65	7.60999999999999
78	0x401ed70a3d70a3cb	7.709999999999989
79	0x401f3d70a3d70a31	7.809999999999989
80	0x401fa3d70a3d7097	7.909999999999989
81	0x4020051eb851eb7f	8.00999999999999
82	0x40203851eb851eb2	8.109999999999989
83	0x40206b851eb851e5	8.209999999999988
84	0x40209eb851eb8518	8.309999999999988
85	0x4020d1eb851eb84b	8.409999999999988
86	0x4021051eb851eb7e	8.509999999999987
87	0x40213851eb851eb1	8.609999999999987
88	0x40216b851eb851e4	8.709999999999987
89	0x40219eb851eb8517	8.809999999999986
90	0x4021d1eb851eb84a	8.909999999999986
91	0x4022051eb851eb7d	9.009999999999986
92	0x40223851eb851eb0	9.109999999999985
93	0x40226b851eb851e3	9.209999999999985
94	0x40229eb851eb8516	9.309999999999985
95	0x4022d1eb851eb849	9.409999999999984
96	0x4023051eb851eb7c	9.509999999999984
97	0x40233851eb851eaf	9.609999999999983
98	0x40236b851eb851e2	9.709999999999983
99	0x40239eb851eb8515	9.809999999999983
100	0x4023d1eb851eb848	9.909999999999982
101	0x4024051eb851eb7b	10.009999999999982
102	0x40243851eb851eae	10.109999999999982
103	0x40246b851eb851e1	10.209999999999981
104	0x40249eb851eb8514	10.309999999999981
105	0x4024d1eb851eb847	10.40999999999998
106	0x4025051eb851eb7a	10.50999999999998
107	0x40253851eb851ead	10.60999999999998
108	0x40256b851eb851e0	10.70999999999998
109	0x40259eb851eb8513	10.80999999999998
110	0x4025d1eb851eb846	10.909999999999979
111	0x4026051eb851eb79	11.009999999999978
112	0x40263851eb851eac	11.109999999999978
113	0x40266b851eb851df	11.209999999999978
114	0x40269eb851eb8512	11.309999999999977
115	0x4026d1eb851eb845	11.409999999999977
116	0x4027051eb851eb78	11.509999999999977
117	0x40273851eb851eab	11.609999999999976
118	0x40276b851eb851de	11.709999999999976
119	0x40279eb851eb8511	11.809999999999976
120	0x4027d1eb851eb844	11.909999999999975
121	0x4028051eb851eb77	12.009999999999975
122	0x40283851eb851eaa	12.109999999999975
123	0x40286b851eb851dd	12.209999999999974
124	0x40289eb851eb8510	12.309999999999974
125	0x4028d1eb851eb843	12.409999999999973
126	0x4029051eb851eb76	12.509999999999973
127	0x40293851eb851ea9	12.609999999999973
128	0x40296b851eb851dc	12.709999999999972
129	0x40299eb851eb850f	12.809999999999972
130	0x4029d1eb851eb842	12.909999999999972
131	0x402a051eb851eb75	13.009999999999971
132	0x402a3851eb851ea8	13.109999999999971
133	0x402a6b851eb851db	13.20999999999997
134	0x402a9eb851eb850e	13.30999999999997
135	0x402ad1eb851eb841	13.40999999999997
136	0x402b051eb851eb74	13.50999999999997
137	0x402b3851eb851ea7	13.60999999999997
138	0x402b6b851eb851da	13.709999999999969
139	0x402b9eb851eb850d	13.809999999999969
140	0x402bd1eb851eb840	13.909999999999968
141	0x402c051eb851eb73	14.009999999999968
142	0x402c3851eb851ea6	14.109999999999967
143	0x402c6b851eb851d9	14.209999999999967
144	0x402c9eb851eb850c	14.309999999999967
145	0x402cd1eb851eb83f	14.409999999999966
146	0x402d051eb851eb72	14.509999999999966
147	0x402d3851eb851ea5	14.609999999999966
148	0x402d6b851eb851d8	14.709999999999965
149	0x402d9eb851eb850b	14.809999999999965
150	0x402dd1eb851eb83e	14.909999999999965
151	0x402e051eb851eb71	15.009999999999964
152	0x402e3851eb851ea4	15.109999999999964
153	0x402e6b851eb851d7	15.209999999999964
154	0x402e9eb851eb850a	15.309999999999963
155	0x402ed1eb851eb83d	15.409999999999963
156	0x402f051eb851eb70	15.509999999999962
157	0x402f3851eb851ea3	15.609999999999962
158	0x402f6b851eb851d6	15.709999999999962
159	0x402f9eb851eb8509	15.809999999999961
160	0x402fd1eb851eb83c	15.909999999999961
161	0x4030028f5c28f5b8	16.009999999999962
162	0x40301c28f5c28f52	16.109999999999964
163	0x403035c28f5c28ec	16.209999999999965
164	0x40304f5c28f5c286	16.309999999999967
165	0x403068f5c28f5c20	16.409999999999968
166	0x4030828f5c28f5ba	16.50999999999997
167	0x40309c28f5c28f54	16.60999999999997
168	0x4030b5c28f5c28ee	16.709999999999972
169	0x4030cf5c28f5c288	16.809999999999974
170	0x4030e8f5c28f5c22	16.909999999999975
171	0x4031028f5c28f5bc	17.009999999999977
172	0x40311c28f5c28f56	17.109999999999978
173	0x403135c28f5c28f0	17.20999999999998
174	0x40314f5c28f5c28a	17.30999999999998
175	0x403168f5c28f5c24	17.409999999999982
176	0x4031828f5c28f5be	17.509999999999984
177	0x40319c28f5c28f58	17.609999999999985
178	0x4031b5c28f5c28f2	17.709999999999987
179	0x4031cf5c28f5c28c	17.809999999999988
180	0x4031e8f5c28f5c26	17.90999999999999
181	0x4032028f5c28f5c0	18.00999999999999
182	0x40321c28f5c28f5a	18.109999999999992
183	0x403235c28f5c28f4	18.209999999999994
184	0x40324f5c28f5c28e	18.309999999999995
185	0x403268f5c28f5c28	18.409999999999997
186	0x4032828f5c28f5c2	18.509999999999998
187	0x40329c28f5c28f5c	18.61
188	0x4032b5c28f5c28f6	18.71
189	0x4032cf5c28f5c290	18.810000000000002
190	0x4032e8f5c28f5c2a	18.910000000000004
191	0x4033028f5c28f5c4	19.010000000000005
192	0x40331c28f5c28f5e	19.110000000000007
193	0x403335c28f5c28f8	19.210000000000008
194	0x40334f5c28f5c292	19.31000000000001
195	0x403368f5c28f5c2c	19.41000000000001
196	0x4033828f5c28f5c6	19.510000000000012
197	0x40339c28f5c28f60	19.610000000000014
198	0x4033b5c28f5c28fa	19.710000000000015
199	0x4033cf5c28f5c294	19.810000000000016
200	0x4033e8f5c28f5c2e	19.910000000000018
201	0x4034028f5c28f5c8	20.01000000000002
202	0x40341c28f5c28f62	20.11000000000002
203	0x403435c28f5c28fc	20.210000000000022
204	0x40344f5c28f5c296	20.310000000000024
205	0x403468f5c28f5c30	20.410000000000025
206	0x4034828f5c28f5ca	20.510000000000026
207	0x40349c28f5c28f64	20.610000000000028
208	0x4034b5c28f5c28fe	20.71000000000003
209	0x4034cf5c28f5c298	20.81000000000003
210	0x4034e8f5c28f5c32	20.910000000000032
211	0x4035028f5c28f5cc	21.010000000000034
212	0x40351c28f5c28f66	21.110000000000035
213	0x403535c28f5c2900	21.210000000000036
214	0x40354f5c28f5c29a	21.310000000000038
215	0x403568f5c28f5c34	21.41000000000004
216	0x4035828f5c28f5ce	21.51000000000004
217	0x40359c28f5c28f68	21.610000000000042
218	0x4035b5c28f5c2902	21.710000000000043
219	0x4035cf5c28f5c29c	21.810000000000045
220	0x4035e8f5c28f5c36	21.910000000000046
221	0x4036028f5c28f5d0	22.010000000000048
222	0x40361c28f5c28f6a	22.11000000000005
223	0x403635c28f5c2904	22.21000000000005
224	0x40364f5c28f5c29e	22.310000000000052
225	0x403668f5c28f5c38	22.410000000000053
226	0x4036828f5c28f5d2	22.510000000000055
227	0x40369c28f5c28f6c	22.610000000000056
228	0x4036b5c28f5c2906	22.710000000000058
229	0x4036cf5c28f5c2a0	22.81000000000006
230	0x4036e8f5c28f5c3a	22.91000000000006
231	0x4037028f5c28f5d4	23.010000000000062
232	0x40371c28f5c28f6e	23.110000000000063
233	0x403735c28f5c2908	23.210000000000065
234	0x40374f5c28f5c2a2	23.310000000000066
235	0x403768f5c28f5c3c	23.410000000000068
236	0x4037828f5c28f5d6	23.51000000000007
237	0x40379c28f5c28f70	23.61000000000007
238	0x4037b5c28f5c290a	23.710000000000072
239	0x4037cf5c28f5c2a4	23.810000000000073
240	0x4037e8f5c28f5c3e	23.910000000000075
241	0x4038028f5c28f5d8	24.010000000000076
242	0x40381c28f5c28f72	24.110000000000078
243	0x403835c28f5c290c	24.21000000000008
244	0x40384f5c28f5c2a6	24.31000000000008
245	0x403868f5c28f5c40	24.410000000000082
246	0x40386d585fa4a036	24.42712972420869
247	0x403871bafcb9e42c	24.4442594484173
248	0x4038761d99cf2822	24.461389172625907
249	0x4038779b35ae0420	24.467212061867144
250	0x40387918d18ce01e	24.47303495110838
251	0x403879b010398a9c	24.475342763946728
252	0x403879ec8fb1cece	24.476265889082065
253	0x40387a290f2a1300	24.4771890142174
254	0x40387c8609dcbcf4	24.48642026557077
255	0x40389427d4d7607c	24.57873277910447

position_x f8 [1864]
0	0x0000000000000000	0.0
1	0x3f81ec3baa24982b	0.008751360063410448
2	0x3fb95a415498748c	0.09903343501396672
3	0x3fc8e0912b7adad0	0.19435324309389168
4	0x3fd2dca2ac94363c	0.29471651891148887
5	0x3fd99bb5a7b5e104	0.40012875917410917
6	0x3fe056cbcb2ac7b7	0.510595223246347
7	0x3fe4092ec4dd40e4	0.6261209340100575
8	0x3fe7e50dcafc6c7a	0.7467106785365012
9	0x3febea7269653b80	0.8723690088753386
10	0x3ff00cb2d72371b7	1.0031002429815155
11	0x3ff238f81558262a	1.138908465744303
12	0x3ff47a0cf995c25d	1.2797975301183648
13	0x3ff6cff550339a52	1.4257710583566632
14	0x3ff93ab4a7f70333	1.5768324433449379
15	0x3ffbba4e5275fcd0	1.732984850037429
16	0x3ffe4ec56480c925	1.8942312169934408
17	0x40007c0e5b4934da	2.060574258014282
18	0x4001db2b72a3fc81	2.2320164638800297
19	0x400344bb28ef6ad1	2.408560104185519
20	0x4004b8be915cc96a	2.5902072292748715
21	0x40063736a1f5d0a9	2.7769596722738084
22	0x4007c02433e5d10a	2.968819051218934
23	0x4009538803c629b0	3.165786771283102
24	0x400af162b1ee038c	3.367864027095896
25	0x400c99b4c2c5483a	3.575051805158208
26	0x400e4c7e9f1acae9	3.787350886349817
27	0x401004e04a3ecc8a	4.00476184852881
28	0x4010e8bd6accb41b	4.227285069221604
29	0x4011d1d6bd4b0a9e	4.454920728402298
30	0x4012c02c40bd14ca	4.687668811359979
31	0x4013b3bde7482cc0	4.9255291116525655
32	0x4014ac8b9667f745	5.168501234145713
33	0x4015aa952724083e	5.4165845981352145
34	0x4016adda6646ef6d	5.669778440551323
35	0x4017b65b1496a604	5.9280818192432925
36	0x4018c416e70e558d	6.191493616342439
37	0x4019d70d87197052	6.4600125417019445
38	0x401aef3e92d01324	6.733637136411549
39	0x401c0ca99d34a848	7.012365776385259
40	0x401d2f4e2e72c2ea	7.296196676020125
41	0x401e572bc41f2a73	7.585127891924105
42	0x401f8441d1790ca4	7.879157326710956
43	0x40205b47dfd626bd	8.178282732860106
44	0x4020f70a770a759d	8.482501716639314
45	0x402195685941b6b1	8.791811742088017
46	0x402236612cc12a40	9.106210135059086
47	0x4022d9f4934e408e	9.425694087316767
48	0x402380222a5243d9	9.750260660688513
49	0x402428e98afe73b0	10.079906791268371
50	0x4024d44a4a708c77	10.414629293669561
51	0x40258243f9d7b5e2	10.754424865323873
52	0x402632d62699d2fe	11.09929009082543
53	0x4026e6005a792e76	11.449221446316397
54	0x40279bc21bba7da4	11.804215303912152
55	0x4028541aed4b34e3	12.164267936163418
56	0x40290f0a4ee827a8	12.529375520552847
57	0x4029cc8fbd446ecd	12.899534144023528
58	0x402a8caab2308f70	13.27473980753686
59	0x402b4f5aa4c1dcc4	13.654988430657234
60	0x402c149f097a0f2c	14.040275856160939
61	0x402cdc778e5b7cb9	14.43059964052951
62	0x402da6e4941e867b	14.825962666250453
63	0x402e73e58393f153	15.226360427674683
64	0x402f4379ae38b4d1	15.63178772394386
65	0x40300ad0311a5a65	16.042239254888404
66	0x4030752c753dd254	16.45770962485615
67	0x4030e0d14776e467	16.87819334652559
68	0x40314dbe4a3c6242	17.303684844724792
69	0x4031bbf31e9c379b	17.734178460253684
70	0x40322b6f644bd5d9	18.169668453707207
71	0x40329c32b9b89e1b	18.610149009297043
72	0x40330e3cbc18470b	19.055614238669516
73	0x4033818d07793be9	19.506058184717322
74	0x4033f62336d2f23f	19.961474825382762
75	0x40346bfee41633c1	20.421858077450228
76	0x4034e31fa83d59c3	20.887201800325567
77	0x40355b851b5c77ed	21.357499799800213
78	0x4035d52ed4b173a0	21.83274583179775
79	0x4036501c6ab405b7	22.31293360610081
80	0x4036cc4d7325a447	22.798056790056105
81	0x403749c18321520a	23.288109012255553
82	0x4037c8782f2b5129	23.783083866191337
83	0x403848710b40b73f	24.282974913882978
84	0x4038c9abaae6e04b	24.78777568947434
85	0x40394c27a13abe82	25.29747970279869
86	0x4039cfe4810004ed	25.812080442909906
87	0x403a54e1dcb02ac4	26.331571381578
88	0x403adb1f4689459a	26.855945976747172
89	0x403b629c509cb85e	27.385197675954593
90	0x403beb588cddb56e	27.91931991970835
91	0x403c75538d2f91e1	28.458306144822817
92	0x403d008ce373e85a	29.00214978770996
93	0x403d8d04219889ac	29.550844287624997
94	0x403e1ab8d9a539c6	30.104383089865017
95	0x403ea9aa9dc93752	30.662759648919128
96	0x403f39d900688c9c	31.225967431568833
97	0x403fcb4394292850	31.793999919937335
98	0x40402ef4f5ffde65	32.3668506144866
99	0x404078e5cd9e3255	32.94451303696102
100	0x4040c3741acb85c5	33.526980733276595
101	0x40410e9fa79dccd7	34.114247276354654
102	0x40415a683e6af0da	34.706306268899155
103	0x4041a6cda9cea79e	35.30315134611668
104	0x4041f3cfb4b02adc	35.90477617837834
105	0x4042416e2a47cf44	36.51117447382288
106	0x40428fa8d6247ad2	37.12233998090018
107	0x4042de7f837108c9	37.73826640147451
108	0x40432df1f6030143	38.35894656321263
109	0x40437dffc5434d6c	38.98436799799205
110	0x4043cea84ac092bd	39.61451086428631
111	0x40441fea8556e92e	40.24934450858778
112	0x404471c53b0c1b26	40.88883150187603
113	0x4044c436ec302092	41.53292610502207
114	0x4045173dd0d1c626	42.18157396548149
115	0x40456ad7d5e866e7	42.834711779096146
116	0x4045bf029a319958	43.492266916483175
117	0x404613bb6abd3469	44.154157011399384
118	0x404668ff3f2166f6	44.820289508161224
119	0x4046becab54fd32f	45.49056116483404
120	0x4047151a0d03b625	46.16485750848032
121	0x40476be922c015a8	46.84305223826533
122	0x4047c3336a53b5a4	47.52500657164936
123	0x40481af3e8d72c26	48.21056852823703
124	0x40487325365e0f6e	48.89957313149249
125	0x4048cbc1ba74fe6d	49.59184961998549
126	0x404924c39e5ca70e	50.28721980594683
127	0x40497e24b99be643	50.98549575912741
128	0x4049d7de97b15442	51.686480485521784
129	0x404a31ea807c45ac	52.389968929939045
130	0x404a8c4183a9fd08	53.095749338152075
131	0x404ae6dc87e04b98	53.80360506488722
132	0x404b41b45e89d413	54.513316933917075
133	0x404b9cc1dd5ce928	55.22466628109606
134	0x404bf7fdfef69018	55.93743884123995
135	0x404c53620c49b2cb	56.65142968748622
136	0x404caee7de8ea304	57.36645109142958
137	0x404d0a8a2607889e	58.08234095924239
138	0x404d6644a6c45486	58.798970075477925
139	0x404dc2149c9be5a8	59.51625402080691
140	0x404e1df9382607da	60.23416807038275
141	0x404e79f438933dcc	60.95276553334733
142	0x404ed60aa7db5c24	61.67220018588003
143	0x404f3245bf23a1b2	62.392753498457196
144	0x404f8eb3f937ce61	63.114867355584245
145	0x404feb6a5823daf4	63.83918287039515
146	0x40502442f06cfc20	64.56658564227155
147	0x40505316a5c8c567	65.29825729948571
148	0x40508249700ef265	66.03573228320745
149	0x4050b1fb34c0c8f1	66.78095740152982
150	0x4050e2538cf5ccc6	67.53634952548882
151	0x405113828f4c7811	68.30484373538663
152	0x405145c1407f8e72	69.08992016274149
153	0x4051795164b0efc0	69.89559285429914
154	0x4051ae7c55ea0b41	70.72633884292465
155	0x4051e59073ff38f2	71.58694171833102
156	0x40521edcc1f9f8b1	72.48222398196482
157	0x40525aaa6545f047	73.41665012197437
158	0x405299340c394cda	74.39380174251292
159	0x4052da9bcddd4f8b	75.41575953113913
160	0x40531ee0d07de429	76.48247158330982
161	0x405365d6c1448a3f	77.59123260205614
162	0x4053af2193aa9fc9	78.73642436659351
163	0x4053fa37c114429d	79.9096529672483
164	0x4054466c2116a8a2	81.10034968579069
165	0x405492fe88392fcc	82.29678540787353
166	0x4054df3030eb7d86	83.48731635090925
167	0x40552a57a329b9c7	84.66159895968222
168	0x405573f28a065d92	85.81167841550476
169	0x4055bbc20c6e279e	86.93371878392506
170	0x405601ab2740cb8a	88.02607137038845
171	0x405645908fce561c	89.08694834852253
172	0x405687511953887c	90.11432488591703
173	0x4056c6c7ce327e78	91.10594515734726
174	0x405703cc1ae464d3	92.0593325834664
175	0x40573e31ef5b5cb3	92.97179778978425
176	0x405775c9cfcc8ed5	93.84044260956155
177	0x4057aa60d570fb8f	94.66216026338064
178	0x4057dbc0a1bb5e7f	95.43363230989233
179	0x405809af4672c9bf	96.15132294854901
180	0x405833ef248b21cc	96.81147111498939
181	0x40585a3ec2f618f8	97.41008066208803
182	0x40587c589e2343ef	97.94290879672893
183	0x405899f2f07f30aa	98.40545284672649
184	0x4058b2bf73f1eaeb	98.79293535828371
185	0x4058c66b1c1db70c	99.10028746511324
186	0x4058d49dc8e8aef6	99.32213041995041
187	0x4058dcf9f0aa4ce4	99.4527551329698
188	0x4058df1c4124d67c	99.48609951589054
189	0x4058da9b363ed683	99.41572338234441
190	0x4058cf06a537b78f	99.23478060189358
191	0x4058bbe73ad1d608	98.9359881447964
192	0x4058a0bdeaa21a2c	98.51159158544823
193	0x40587d034d5ff129	97.95332655305232
194	0x40585026ebafab77	97.25237552790882
195	0x4058198e727583be	96.39931928134953
196	0x4057d894cd4b945b	95.38408214932262
197	0x40578c89233ec46b	94.19587021951308
198	0x405734adb1892ac0	92.82310140986647
199	0x4056d0367faddd26	91.25332633952038
200	0x40565e47e83f8e05	89.47313886839409
201	0x4055ddf4f1860352	87.46807516181187
202	0x40554e9e81e9ed74	85.22842452854621
203	0x4054b005d4df8361	82.75035592868291
204	0x405401eefc1f906b	80.03021147806582
205	0x405343f8d4f29979	77.06206248942716
206	0x405275a1874ad7d2	73.83798391636745
207	0x40519643e5846ec3	70.34789407666089
208	0x4050a5150af590de	66.5794093511681
209	0x404f4244c71eb794	62.517723932264886
210	0x404d12a09674cc38	58.145525748281614
211	0x404ab8b2f0e08bfc	53.4429608436985
212	0x4048319ed256588e	48.387659351502506
213	0x40457a3816364bce	42.95483663226297
214	0x40428f09af3e82f7	37.11748304893802
215	0x403ed8be6304c933	30.84665507189602
216	0x40381ca417999aef	24.11187884807708
217	0x4030e1b5729f9196	16.8816749229023
218	0x40223f9860051037	9.12420940458115
219	0x3fe9dbbad1f7f890	0.8080724812459881
220	0xc02031926877f2ea	-8.096820130006979
221	0xc0319e433bf3304b	-17.618213412162998
222	0xc03bc7c895e57766	-27.78040444233138
223	0xc0434d313169905e	-38.60306375174035
224	0xc0490ccd6b1ca5ef	-50.100018872249954
225	0xc04f2396cb9d949a	-62.278039409583656
226	0xc052c8aea17e8ba4	-75.13565862043339
227	0xc0562a5f48b2091a	-88.66206567178997
228	0xc059b584b2f1123a	-102.83622430364713
229	0xc05d68134356490f	-117.62617572237308
230	0xc0609fa28a9c6f6e	-132.98859148553623
231	0xc0629bcbde1a492e	-148.86863618024785
232	0xc064a667e3a85b36	-165.20018179781044
233	0xc066bd014504335f	-181.90640497990077
234	0xc068dcd33b9ca328	-198.9007852610896
235	0xc06b02d50d25be4e	-216.08850724574808
236	0xc06d2bc8b9efd863	-233.36825272412088
237	0xc06f544c956986ab	-250.63434858904415
238	0xc070bc77986773a9	-267.77919807825907
239	0xc071cb21c23c2eb1	-284.69574187763925
240	0xc072d472c9d34b70	-301.2780245069216
241	0xc073d643691ffa5a	-317.3914576768053
242	0xc074c6d01e7c710b	-332.4258103238105
243	0xc0758af302014c6b	-344.68432808406095
244	0xc07618c61672a9ac	-353.5483612517371
245	0xc076856596922a09	-360.33730179877654
246	0xc0769671f87bb11a	-361.40282486264334
247	0xc076a72b433755cd	-362.44806214919373
248	0xc076b79303dc51d9	-363.47339235365286
249	0xc076bd141129f388	-363.8173991812441
250	0xc076c28ba8fedc4e	-364.15909671358975
251	0xc076c4b3be2ca035	-364.2938825362392
252	0xc076c5902cfcdeab	-364.3476991536833
253	0xc076c66c761ab842	-364.4014798206082
254	0xc076ceff7f6cad0b	-364.93737738086264
255	0xc0772191ee6fbd27	-370.09812778137206

position_y f8 [1864]
0	0x0000000000000000	0.0
1	0xbeddee0403eb0d0e	-7.13580817429954e-06
2	0xbf4d3b5f9996f8ff	-0.0008920876309088942
3	0xbf6b7dd31724670c	-0.0033558962687835255
4	0xbf7ee36fecfa9456	-0.007541119775543134
5	0xbf8bd56d914f1077	-0.013590675351118115
6	0xbf962aa0834cf596	-0.02164698411364937
7	0xbfa04ea079097559	-0.03184987523557465
8	0xbfa6b3887b89f7d1	-0.04433847911876366
9	0xbfae5640ac2bbcda	-0.05925180532164527
10	0xbfb3a47ea9970907	-0.07672874107723625
11	0xbfb8cef748ab37d9	-0.09690804981366287
12	0xbfbeb3a029a0afc4	-0.11992836967755155
13	0xbfc2adc6912ea18c	-0.1459282120606641
14	0xbfc667e7f10728ed	-0.1750459601301552
15	0xbfca8cbbf56e9888	-0.20741986736283402
16	0xbfcf20c945d43296	-0.24318805608381372
17	0xbfd2144ab670872a	-0.2824885160099365
18	0xbfd4d4526aad161f	-0.32545910279836393
19	0xbfd7d2bd6382cc43	-0.37223753660072506
20	0xbfdb11ccb1c969ba	-0.42296140062321863
21	0xbfde93c0d1c35bcd	-0.47776813969306603
22	0xbfe12d6cd4cac59f	-0.5367950588317177
23	0xbfe334ab43e090ff	-0.6001793218352133
24	0xbfe560bb10cfb280	-0.6680579498621029
25	0xbfe7b2bb48efdf5f	-0.7405678200293372
26	0xbfea2bcaab840ba4	-0.8178456640165348
27	0xbfeccd07a8fbcb6d	-0.9000280666790396
28	0xbfef97906235f816	-0.9872514646701827
29	0xbff1464153e253e8	-1.0796521450731635
30	0xbff2d67dfc994335	-1.1773662440429693
31	0xbff47d0cc224cf00	-1.2805297454587503
32	0xbff63a7c122dcf34	-1.389278479587074
33	0xbff80f5a30c5d920	-1.5037481217564803
34	0xbff9fc35380cf83e	-1.6240741910437602
35	0xbffc019b17d83cbb	-1.7503920489723857
36	0xbffe201995592740	-1.8828368982235162
37	0xc0002c1f2562fcc1	-2.0215437813600095
38	0xc001554b53817994	-2.1666475795638664
39	0xc0028bd7f6a64147	-2.3182830113875386
40	0xc003d00b9a713880	-2.476584631519529
41	0xc005222cb45a0902	-2.64168682956472
42	0xc0068281a386be9f	-2.8137238288398545
43	0xc007f150b0a2ed56	-2.9928296851846126
44	0xc0096ee00db76452	-3.179138285788704
45	0xc00afb75d60271af	-3.372783348035419
46	0xc00c97580dd0bacb	-3.573898418362068
47	0xc00e42cca256acf4	-3.7826168711377424
48	0xc00ffe19698a8a42	-3.9990719075588297
49	0xc010e4c210ff8b38	-4.223396554562719
50	0xc011d2a9395f73be	-4.455723663760123
51	0xc012c8e4f5942ef0	-4.696185910386461
52	0xc013c79801652417	-4.944915792272716
53	0xc014cee50ca09af0	-5.202045628836217
54	0xc015deeebb0abe8c	-5.467707560091764
55	0xc016f7d7a44cfb92	-5.742033545683528
56	0xc01819c253e5bbc4	-6.025155363938158
57	0xc01944d1491880a4	-6.317204610939516
58	0xc01a7926f6de5f1e	-6.618312699625475
59	0xc01bb6e5c3d6de12	-6.928610858907193
60	0xc01cfe300a39399a	-7.248230132811296
61	0xc01e4f2889a4ee68	-7.577303076449972
62	0xc01fa9f3552519ca	-7.915967302693796
63	0xc020875954bf4483	-8.264353416774844
64	0xc0213ec446361c6e	-8.622591203790048
65	0xc021fb4b78c78d1c	-8.990810179099348
66	0xc022bcffdd16ce1c	-9.369139584573581
67	0xc02383f25a75ab02	-9.757708384383935
68	0xc0245033cec02495	-10.156645260767883
69	0xc02521d50e37e182	-10.566078609773061
70	0xc025f8e6e35f71e3	-10.986136536980615
71	0xc026d57a0ed56907	-11.41694685320955
72	0xc027b79f472f50ed	-11.85863707020368
73	0xc0289f6738d47b03	-12.31133439630276
74	0xc0298ce285d8b1c8	-12.775165732099495
75	0xc02a8021c5d6cef8	-13.250257666084039
76	0xc02b793585cb3a0e	-13.736736470277744
77	0xc02c782e47ee52e3	-14.234728095857866
78	0xc02d7d1c838ecc56	-14.744358168775005
79	0xc02e8810a4ebfae7	-15.26575198536507
80	0xc02f991b0d101b4f	-15.799034507957598
81	0xc030582608d54a92	-16.34433036048228
82	0xc030e6d9fe751ed1	-16.901763824075548
83	0xc03178b186abcf71	-17.47145883268917
84	0xc0320db4bad7a3cd	-18.053538968702743
85	0xc032a5ebae5e13e8	-18.648127458542064
86	0xc033415e6e98ff60	-19.25534716830532
87	0xc033e01502c3ef38	-19.875320599399146
88	0xc03482176be964aa	-20.508169884186522
89	0xc035276da4d03741	-21.154016781648583
90	0xc035d01fa1e9047f	-21.812982673062375
91	0xc0367c35513bb359	-22.485188557696663
92	0xc0372bb69a550dd1	-23.17075504852784
93	0xc037deab5e34730b	-23.86980236797812
94	0xc038951b7739a421	-24.582450343678037
95	0xc0394f0eb912ae25	-25.308818404255494
96	0xc03a0c8cf0a9f399	-26.049025575153426
97	0xc03acd9de41457d0	-26.8031904744783
98	0xc03b9249527f8e89	-27.57143130888156
99	0xc03c5a96f420923a	-28.353865869476273
100	0xc03d268e7a224362	-29.150611527791064
101	0xc03df6378e943357	-29.961785231763624
102	0xc03ec999d4599cf2	-30.787503501775923
103	0xc03fa0bce7188d84	-31.627882426733336
104	0xc0403dd42d94a042	-32.48303766018991
105	0xc040ad31dec2d82e	-33.353084416521924
106	0xc0411e7b49dcaf5c	-34.23813746715197
107	0xc04191b42cbdddb6	-35.13831099768451
108	0xc04206e3b2b1a9f9	-36.05382379221914
109	0xc0427e4b1712b693	-36.98666656888704
110	0xc042f857d3d7d120	-37.94018028295454
111	0xc043757ecad1342d	-38.917931892538355
112	0xc043f63b18f32cb2	-39.92367851136932
113	0xc0447b0f41c115ea	-40.961403102188186
114	0xc0450486086f699e	-42.035340361023586
115	0xc045933365ff96bb	-43.150006055640425
116	0xc04627b5a01caaf9	-44.31023026847647
117	0xc046c2b686b8b857	-45.52119525928054
118	0xc04764ecdf933092	-46.78847880064963
119	0xc0480f1e083ca234	-48.11810400925279
120	0xc048c21fd8ed64e9	-49.5165969046737
121	0xc0497edad4b05479	-50.991053186510676
122	0xc04a464cb6143653	-52.54921604144024
123	0xc04b198b6af108b3	-54.19956719178426
124	0xc04bf9bf4587092d	-55.95114964574382
125	0xc04ce7dec24a6384	-57.811485563585876
126	0xc04de4c6e9e03dbc	-59.78732036065364
127	0xc04ef15746b72a1f	-61.88547595923978
128	0xc0500738f916cb8e	-64.11285235620582
129	0xc0509e7da3005dd4	-66.47641825710099
130	0xc0513eecc378c530	-68.983200900974
131	0xc051e8fa4420d288	-71.64027503209411
132	0xc0529d1aa42a9ed1	-74.45475105440279
133	0xc0535bc2c3f28fc7	-77.43376253783855
134	0xc0542567af77ac07	-80.58445345579831
135	0xc054fa7e6af7c9a8	-83.91396593282718
136	0xc055db7bfc67ee1e	-87.42944250249317
137	0xc056c8d57361f0db	-91.13802799763236
138	0xc057c2ffa321c88f	-95.04685285853542
139	0xc058ca6f45d3a2b9	-99.16304155032675
140	0xc059df9963f06391	-103.49373720622522
141	0xc05b02f41a4270be	-108.0461488388855
142	0xc05c34f7e4b94f82	-112.82763021561371
143	0xc05d76219b82f72f	-117.8458012370072
144	0xc05ec6f553c53ad1	-123.10872358570784
145	0xc060140128be0b8b	-128.6251414977854
146	0xc060ccf4132c8dd6	-134.40479429914438
147	0xc0618eae797d8f03	-140.45879816554233
148	0xc062599a3fa02421	-146.80007916715206
149	0xc0632e33c2fe6d52	-153.44381856625347
150	0xc0640d0d18a08847	-160.40784865716907
151	0xc064f6d04200b7e7	-167.7129220975905
152	0xc065ec3fbf312e4f	-175.38278159719127
153	0xc066ee35253a452e	-183.44398747807412
154	0xc067fd9dc71ad357	-191.92550997962346
155	0xc0691b75d6717800	-200.85813448106637
156	0xc06a48c26d00b947	-210.27373361722331
157	0xc06b868ab55ee226	-220.20443218738473
158	0xc06cd5d02fa08987	-230.6816633353703
159	0xc06e3786219853b3	-241.73512344123228
160	0xc06fac88d93ffed7	-253.39170515536418
161	0xc0709acba258f05e	-265.6747153734376
162	0xc07169ab6da70524	-278.6043526195738
163	0xc072433a3db4dabd	-292.2017190041186
164	0xc07327fc913636f7	-306.4991619222414
165	0xc07418e5ae63f606	-321.5560745148399
166	0xc075178d66b56157	-337.4720217785993
167	0xc0762630bf978fb8	-354.38690146640465
168	0xc07747169b96f28a	-372.443019475592
169	0xc078780e1c69093d	-391.5034450629208
170	0xc079b44715c115e6	-411.26735473083534
171	0xc07af892b5f5dfb2	-431.5358180622526
172	0xc07c42ea92eaf717	-452.18226901801376
173	0xc07d9201c83ba6d5	-473.12543509770813
174	0xc07ee4ff21470f4a	-494.31228759534554
175	0xc0801da8eea316f2	-515.707486414087
176	0xc080ca4b81949709	-537.2868682488053
177	0xc08178446b2db998	-559.0334075519813
178	0xc082277a3b4836c7	-580.9346833841054
179	0xc082d7d9a279fa37	-602.981266930531
180	0xc08389534e4c7f23	-625.1656766868877
181	0xc0843bda7ee65868	-647.4816873546342
182	0xc084ef641179e4f5	-669.9238614581105
183	0xc085a3e5d4dc0746	-692.4872224034996
184	0xc08659560d639469	-715.167017724959
185	0xc0870fab16cd1966	-737.9585395835281
186	0xc087c6db18caf08a	-760.8569808821351
187	0xc0887edbc699cd9f	-783.8573123947025
188	0xc08937a224420f42	-806.9541707192332
189	0xc089f1224da28788	-830.1417496392833
190	0xc08aab4f3c4a81e6	-853.4136892147915
191	0xc08b661a89b82f07	-876.7629579915382
192	0xc08c21742be56fc0	-900.1817243504265
193	0xc08cdd4a2a3b2c28	-923.661213362012
194	0xc08d998849183737	-947.1915456668711
195	0xc08e5617aa1d75c4	-970.7615549375118
196	0xc08f12de5f6ca96e	-994.3585804452139
197	0xc08fcfbeefffea0d	-1017.9682312005331
198	0xc090464be59db5e5	-1041.5741181032438
199	0xc090a4a154f01088	-1065.1575505743112
200	0xc09102c9ed4dd6c3	-1088.6971943056421
201	0xc09160acbc549f03	-1112.1686871740392
202	0xc091be2dd2aa93fe	-1135.5447489407375
203	0xc0921b2e8a420328	-1158.795449286883
204	0xc092778cfafedd6d	-1181.8876762221
205	0xc092d323bd2fdd42	-1204.7849013785167
206	0xc0932dc9ce2312b0	-1227.4470754127651
207	0xc09387527b5aa672	-1249.8305486835566
208	0xc093df8d589f6196	-1271.8880333808243
209	0xc0943646423d94b9	-1293.5686120626472
210	0xc0948b456cc2c942	-1314.8177977023447
211	0xc094de4f838be0c2	-1335.5776502471858
212	0xc0952f25d7639689	-1355.7869544563894
213	0xc0957d869e57a17f	-1375.3814634029693
214	0xc095c92d45c5fa25	-1394.2942114767004
215	0xc09611d2d7734b1a	-1412.4559000029171
216	0xc096572e723ee092	-1429.795357687432
217	0xc09698f5d6bf709f	-1446.240077010392
218	0xc096d6de07bf28f8	-1461.7168264263873
219	0xc097109bfe2d59fc	-1476.1523367963955
220	0xc09745e56fb220ee	-1489.47405889822
221	0xc0977671a69e6246	-1501.6109871623498
222	0xc097a1fa697a79c9	-1512.4945429932434
223	0xc097c83ceffaf550	-1522.0595092022158
224	0xc097e8fae2a79253	-1530.2450052435931
225	0xc09803fb6208f7e7	-1536.9954911614711
226	0xc098190c102c9d40	-1542.2617804499605
227	0xc09828021631aa68	-1546.0020377884157
228	0xc09830bb2f92c427	-1548.1827986652586
229	0xc098331ea9849844	-1548.7799435346542
230	0xc0982f1e52b95c0f	-1547.7796124422491
231	0xc09824b7585925b3	-1545.179047959257
232	0xc09813f30b45ba5c	-1540.9873476881976
233	0xc097fce788d32be5	-1535.2261078830281
234	0xc097dfb84241f809	-1527.9299402530326
235	0xc097bc965e5d1ff6	-1519.1468443442113
236	0xc09793c0f04a8a4d	-1508.9384166380798
237	0xc0976584fc827495	-1497.3798694976479
238	0xc097323d3af7ee0a	-1484.559795259384
239	0xc096fa51518d0963	-1470.5794126545886
240	0xc096be32cd8bdc0e	-1455.5496122220097
241	0xc0967e423118c33d	-1439.5646404141582
242	0xc0963a5ce41bce1f	-1422.5907139153057
243	0xc095f2e44560f514	-1404.7229209088882
244	0xc095aa0e67138471	-1386.5140650796495
245	0xc095612fa6016bcc	-1368.2965316984219
246	0xc09554ae13f11318	-1365.1699979465393
247	0xc09548298abdd90b	-1362.0405683196757
248	0xc0953ba2824d3a86	-1358.9087001864405
249	0xc095375fe611b395	-1357.8436510816439
250	0xc095331d1cef99f1	-1356.7784306943615
251	0xc095316cc1718e58	-1356.356206678689
252	0xc09530bfcea2669c	-1356.1873116850975
253	0xc0953012db61f061	-1356.0184150031057
254	0xc09529514b0fc168	-1354.32938789957
255	0xc094e5d6da3fbcb7	-1337.4598169287617

position_z f8 [1864]
0	0x0000000000000000	0.0
1	0x3fe00721b29bf392	0.5008705604992534
2	0x401674fb8a64d2af	5.614240801242587
3	0x4025d6174f94a908	10.918146597764022
4	0x403069b57589a7d1	16.412925096614178
5	0x403619525d803196	22.09891304378251
6	0x403bf9f86a92817c	27.976446781890886
7	0x404105ded07189ca	34.04586225074634
8	0x4044275bfee0a56e	40.307494983377964
9	0x4047617ebbccfcec	46.76168010243586
10	0x404ab451fef5795d	53.408752317295445
11	0x404e1fe0bc9b95c0	60.24904592129633
12	0x4050d21af2bede0f	67.28289478911778
13	0x4052a0ae3368f780	74.51063237429298
14	0x40547baf95206026	81.93259170686414
15	0x405663248af04b5a	89.54910539118046
16	0x405857128618a16f	97.36050560384113
17	0x405a577ef60bf2bb	105.36712409178556
18	0x405c646f486d939a	113.56929217053258
19	0x405e7de8e90fe20b	121.96734072257111
20	0x406051f8a0f95ab8	130.56160019590402
21	0x40616b46dda0fc83	139.35240060274745
22	0x40628ae1ddaa38d5	148.34007151838765
23	0x4063b0cc535557b5	157.52494208019712
24	0x4064dd08eff715c6	166.90734098681259
25	0x40660f9a63f849c2	176.48759649747632
26	0x406748835ed5a0ba	186.26603643154323
27	0x406887c68f1f7160	196.24298816815553
28	0x4069cd66a279a69e	206.418778646087
29	0x406b1966459bc1cc	216.79373436375897
30	0x406c6bc82450f4bb	227.36818137942996
31	0x406dc48ee97853e5	238.1424453115607
32	0x406f23bd3f052106	249.11685133935697
33	0x407044aae6ff972f	260.2917242034918
34	0x4070faad9f41ad73	271.6673882070092
35	0x4071b3e81be213dc	283.24416721641114
36	0x4072705bb0053373	295.0223846629298
37	0x40733009ae5b020d	307.0023635439873
38	0x4073f2f3691f738f	319.1844264248438
39	0x4074b91a321af85a	331.56889544043736
40	0x4075827f5aa308eb	344.15609229741557
41	0x40764f24339abee4	356.94633827636267
42	0x40771f0a0d737b8b	369.9399542342223
43	0x4077f232382d9bed	383.1372606069188
44	0x4078c89e03593ab7	396.5385774121782
45	0x4079a24ebe16fff1	410.14422425255094
46	0x407a7f45b718feae	423.95452031863795
47	0x407b5f843ca3a0d5	437.9697843925217
48	0x407c430b9c8ea120	452.19033485140426
49	0x407d29dd2446136c	466.61648967145334
50	0x407e13fa20cb7b75	481.2485664318586
51	0x407f0163deb6f222	496.0868823190996
52	0x407ff21baa385974	511.13175413142676
53	0x40807311678c4f9b	526.3834982835573
54	0x4080eebd4c5d8748	541.8424308115873
55	0x40816c12290f5843	557.5088673781214
56	0x4081eb10a2efddca	573.3831232776222
57	0x40826bb95f1c8935	589.4655134419796
58	0x4082ee0d0282e8f9	605.7563524463031
59	0x4083720c31e17758	622.255954514937
60	0x4083f7b791c870c6	638.9646335277
61	0x40847f0ffa316e92	655.8828014242047
62	0x40850816dee233ef	673.0111673042392
63	0x408592cce0020d84	690.3500366363883
64	0x40861f328b25a9a8	707.8996794645691
65	0x4086ad486c63cb06	725.6603629871686
66	0x40873d0f0e4f5c4b	743.6323515129128
67	0x4087ce86f9f1913c	761.8159064171264
68	0x408861b0b6c415f7	780.2112860984042
69	0x4088f68ccaab4d0c	798.8187459357155
70	0x40898d1bb9f09d3f	817.6385382459629
71	0x408a255e073ccfa2	836.6709122420182
72	0x408abf5433927ed0	855.9161139912558
73	0x408b5afebe489807	875.3743863746066
74	0x408bf85e2504eee0	895.0459690461539
75	0x408c9772e3b6e46e	914.9310983932935
76	0x408d383d7492227c	935.0300074974798
77	0x408ddabe50096bb3	955.3429260955803
78	0x408e7ef5ecc98168	975.8700805418603
79	0x408f24e4bfb41fd5	996.6116937706198
80	0x408fcc8b3bdb117d	1017.5679852595055
81	0x40903af4e93dad41	1038.7391709935184
82	0x40909080797c3e51	1060.1254634297404
83	0x4090e6e8856bea59	1081.7270714628014
84	0x40913e2d42de091d	1103.5442003911078
85	0x4091964ee6b06504	1125.5770518838553
86	0x4091ef4da4cb1239	1147.825823948848
87	0x40924929b01e53fc	1170.2907109011421
88	0x4092a3e33aa0908c	1192.971903332541
89	0x4092ff7a754c53fb	1215.8695880819566
90	0x40935bef901e6252	1238.983948206664
91	0x4093b942ba13d95a	1262.315162954465
92	0x4094177421286269	1285.8634077367844
93	0x40947683f2547485	1309.6288541027182
94	0x4094d672598ba740	1333.6116697140533
95	0x4095373f81bb169c	1357.8120183212804
96	0x409598eb94c7d84f	1382.2300597406172
97	0x4095fb76bb8d82be	1406.8659498320626
98	0x40965ee11ddcc5fb	1431.7198404785001
99	0x4096c32ae27a1724	1456.7918795658707
100	0x409728542f1c6e66	1482.08221096443
101	0x40978e5d286c17fb	1507.5909745111119
102	0x4097f545f201986b	1533.3183059930113
103	0x40985d0eae64a462	1559.2643371320087
104	0x4098c5b77f0b2c5c	1585.4291955705476
105	0x40992f4084587c73	1611.8130048585851
106	0x409999a9dd9c7093	1638.4158844417295
107	0x409a04f3a7d18b59	1665.2379448643972
108	0x409a711dfa5fb1bc	1692.2792754127722
109	0x409ade28daf6be3a	1719.5398977807622
110	0x409b4c1441954396	1747.0197814295293
111	0x409bbae021856303	1774.7188778726274
112	0x409c2a8c69afb5ce	1802.6371219114985
113	0x409c9b1903adc495	1830.7744280959353
114	0x409d0c85d2fc571a	1859.1306876590884
115	0x409d7ed2b40b4061	1887.705764938168
116	0x409df1ff7b239565	1916.4994931755002
117	0x409e660bf31aefbe	1945.5116695603206
118	0x409edaf7dbc80cd4	1974.74204933718
119	0x409f50c2e82a1f3e	2004.190338762433
120	0x409fc76cbc304cda	2033.856186632815
121	0x40a01f7a7504e83b	2063.7391740354046
122	0x40a05bad7770532e	2093.8388018704927
123	0x40a0984f176c0471	2124.154475570242
124	0x40a0d55efa3939cf	2154.685502804095
125	0x40a112dcc72ff72b	2185.431207178995
126	0x40a150c8234bd94b	2216.390894289279
127	0x40a18f20aaab8b6b	2247.563802109498
128	0x40a1cde5f00fda92	2278.9490971521673
129	0x40a20d177c72e5e8	2310.5458713441512
130	0x40a24cb4cea5a4e0	2342.3531390918506
131	0x40a28cbd5af52c7f	2374.369834577257
132	0x40a2cd308ad8fcec	2406.594809323191
133	0x40a30e0dbcab3d4d	2439.0268300545054
134	0x40a34f54436afb7c	2471.6645768577564
135	0x40a3910366a31a8c	2504.506642434111
136	0x40a3d31a72c6a390	2537.5516569208776
137	0x40a41598c159151d	2570.798350128009
138	0x40a4587da1b30738	2604.2453742929756
139	0x40a49bc857693746	2637.8912918930027
140	0x40a4df7819930851	2671.734570116773
141	0x40a5238c11934159	2705.773571588256
142	0x40a56803591b6fab	2740.006539208776
143	0x40a5acdcf70a6deb	2774.4315722712686
144	0x40a5f217daae3cca	2809.0465902756887
145	0x40a637b2d4de951c	2843.849280315115
146	0x40a67dac8e62a54a	2878.837023813893
147	0x40a6c4037b2fefd9	2914.0067992191584
148	0x40a70ab5ca5adff7	2949.3550594709773
149	0x40a751c15316a742	2984.8775870398686
150	0x40a799237fd9b9db	3020.569334796846
151	0x40a7e0d9397c8471	3056.4242667113945
152	0x40a828ded4a0cb9a	3092.4352159737145
153	0x40a87130038e61c5	3128.5937771314952
154	0x40a8b9c7cdf00b9a	3164.890243054787
155	0x40a902a08f04f4cd	3201.313591151126
156	0x40a94bb3fac628a5	3237.8515226292243
157	0x40a994fb2b6d5a73	3274.4905656979477
158	0x40a9de6eb9e2821d	3311.2162619384603
159	0x40aa2806e3748ec5	3348.0134540962486
160	0x40aa71bbbc265e9d	3384.8666698446746
161	0x40aabb85616d30c1	3421.7605089303984
162	0x40ab055bfd226806	3458.6796656372053
163	0x40ab4f3718e9c3bf	3495.6076119471977
164	0x40ab990b7f68b505	3532.5224564286204
165	0x40abe2c76e37c5c4	3569.389512770549
166	0x40ac2c4e58750d59	3606.1530186251443
167	0x40ac75766490744f	3642.7312359945277
168	0x40acbe0ec88c3849	3679.028873807784
169	0x40ad062b4c03aa80	3715.08456431824
170	0x40ad4e135f471abc	3751.0378362865576
171	0x40ad95fab1510f42	3786.9896340685964
172	0x40adde0401fe87f1	3823.00782771501
173	0x40ae26466fe137df	3859.1375723248198
174	0x40ae6ed16af04973	3895.4090190019283
175	0x40aeb7af631f8afb	3931.84255312511
176	0x40af00e788403db1	3968.4522113871867
177	0x40af4a7ee9938eea	4005.2478757965046
178	0x40af94792df411a3	4042.2366787215738
179	0x40afded90a4e4fb6	4079.423906752806
180	0x40b014d0473a8a1e	4116.813586863251
181	0x40b03a68abb60b27	4154.408870103572
182	0x40b06036584fac36	4192.2122850223
183	0x40b08639d4fdba30	4230.2259062366065
184	0x40b0ac739356eba2	4268.451466972854
185	0x40b0d2e3f37c579b	4306.890434047115
186	0x40b0f98b475603a6	4345.544057250872
187	0x40b12069d4a5688b	4384.413400972388
188	0x40b1477fd6449d5a	4423.4993632206115
189	0x40b16ecd7ccb9680	4462.802685474628
190	0x40b19652eec159bc	4502.323955616386
191	0x40b1be10487196fa	4542.063605403289
192	0x40b1e6059b7573e5	4582.021903363032
193	0x40b20e32edf6ff30	4622.198943555166
194	0x40b2369839b0a4c4	4662.5946302797565
195	0x40b25f356aa45753	4703.208658477134
196	0x40b2880a5d80577f	4744.040489217149
197	0x40b2b116dda0ff71	4785.089319288601
198	0x40b2da5aa2973a7d	4826.354043437747
199	0x40b303d54d11c53f	4867.833207235962
200	0x40b32d8662fb6462	4909.524947845466
201	0x40b3576d4a8f71a6	4951.426918950316
202	0x40b38189f660f08b	4993.538915690161
203	0x40b3abdd7d3cb7dc	5035.86519221772
204	0x40b3d66906d24fc8	5078.410260338285
205	0x40b4012dc89cf21c	5121.178842362508
206	0x40b42c2cf5ce613d	5164.175625704517
207	0x40b45767b12198e5	5207.405046558216
208	0x40b482defb3c330f	5250.871021044221
209	0x40b4ae939d839906	5294.57662222372
210	0x40b4da86116387f5	5338.523702831929
211	0x40b506b664256bf8	5382.7124656094165
212	0x40b5332417a109bc	5427.140985550763
213	0x40b55fce003e7c6d	5471.804691224458
214	0x40b58cb220f6d32f	5516.695815493163
215	0x40b5b9cd863a23cb	5561.8028293931375
216	0x40b5e71c20dda4fa	5607.109876492288
217	0x40b61498a26f99c5	5652.596228575746
218	0x40b6423c5c862fb8	5698.2357868067265
219	0x40b66fff24ce036c	5743.99665534576
220	0x40b69dd73fc0748a	5789.840816524937
221	0x40b6cbb953fcbc30	5835.7239377936785
222	0x40b6f998683c4f9e	5881.5953405088785
223	0x40b72765edbf5514	5927.398158987304
224	0x40b75511d8d568af	5973.0697148686
225	0x40b7828ac8cf61f8	6018.542126618784
226	0x40b7afbe405d5375	6063.743169625163
227	0x40b7dc98eef35c88	6108.59739609727
228	0x40b8090709893a5b	6153.027489258525
229	0x40b834f4b20275d2	6196.955841211095
230	0x40b8604e6b90f275	6240.30632882995
231	0x40b88b0198f90aba	6283.0062404299915
232	0x40b8b4fd010c7a24	6324.988297252483
233	0x40b8de3154f46dea	6366.192702557406
234	0x40b90691b34a9399	6406.569142018351
235	0x40b92e142291c187	6446.078652486561
236	0x40b954b1fd5a7ff6	6484.695272117844
237	0x40b97a684a345892	6522.407382270454
238	0x40b99f37f92deafa	6559.218645925395
239	0x40b9c325ff28572f	6595.148424645696
240	0x40b9e63b4723db62	6630.231554261265
241	0x40ba088595d6edea	6664.521817620358
242	0x40ba2a3aa68476b4	6698.229103354435
243	0x40ba4bfe7e9cbc03	6731.994119449521
244	0x40ba6e0ecc41e122	6766.0578042196885
245	0x40ba90091db50074	6800.035609543429
246	0x40ba95d0d5b4fec2	6805.815760910222
247	0x40ba9b94f362e8eb	6811.581838781228
248	0x40baa1558228cb7a	6817.3340173241395
249	0x40baa349479269e9	6819.286248350961
250	0x40baa53ca7c8bbc2	6821.236935182418
251	0x40baa60277911186	6822.009636942652
252	0x40baa651930fe99a	6822.3186502404515
253	0x40baa6a0abdb142b	6822.627622311043
254	0x40baa9b70f554e06	6825.715077716397
255	0x40bac86031f97152	6856.375762548605
