yeonu/results_6dof/SCUD-B_45.0deg_20251219_204614.npz (npz, 11569 bytes, 22 tensors)

time f8 [52]
00000000: 0000 0000 0000 0000 7b14 ae47 e17a 843f
00000010: 295c 8fc2 f528 bc3f e27a 14ae 47e1 ca3f
00000020: d8a3 703d 0ad7 d33f 3e0a d7a3 703d da3f
00000030: 52b8 1e85 eb51 e03f 85eb 51b8 1e85 e33f
00000040: b81e 85eb 51b8 e63f eb51 b81e 85eb e93f
00000050: 1e85 eb51 b81e ed3f 295c 8fc2 f528 f03f
00000060: c3f5 285c 8fc2 f13f 5d8f c2f5 285c f33f
00000070: f728 5c8f c2f5 f43f 91c2 f528 5c8f f63f
00000080: 2b5c 8fc2 f528 f83f c5f5 285c 8fc2 f93f
00000090: 5f8f c2f5 285c fb3f f928 5c8f c2f5 fc3f
000000a0: 93c2 f528 5c8f fe3f 16ae 47e1 7a14 0040
000000b0: e37a 14ae 47e1 0040 b047 e17a 14ae 0140
000000c0: 7d14 ae47 e17a 0240 4ae1 7a14 ae47 0340
000000d0: 17ae 47e1 7a14 0440 e47a 14ae 47e1 0440
000000e0: b147 e17a 14ae 0540 7e14 ae47 e17a 0640
000000f0: 4be1 7a14 ae47 0740 18ae 47e1 7a14 0840
00000100: e57a 14ae 47e1 0840 b247 e17a 14ae 0940
00000110: 7f14 ae47 e17a 0a40 4ce1 7a14 ae47 0b40
00000120: 19ae 47e1 7a14 0c40 e67a 14ae 47e1 0c40
00000130: b347 e17a 14ae 0d40 8014 ae47 e17a 0e40
00000140: 4de1 7a14 ae47 0f40 0dd7 a370 3d0a 1040
00000150: 733d 0ad7 a370 1040 d9a3 703d 0ad7 1040
00000160: 3f0a d7a3 703d 1140 a570 3d0a d7a3 1140
00000170: 0bd7 a370 3d0a 1240 713d 0ad7 a370 1240
00000180: d7a3 703d 0ad7 1240 3d0a d7a3 703d 1340
00000190: a370 3d0a d7a3 1340 0300 0000 0000 1440
0.0 0.01 0.11 0.21000000000000002 0.31000000000000005 0.41000000000000003 0.51 0.61
0.71 0.8099999999999999 0.9099999999999999 1.01 1.11 1.2100000000000002 1.3100000000000003 1.4100000000000004
1.5100000000000005 1.6100000000000005 1.7100000000000006 1.8100000000000007 1.9100000000000008 2.0100000000000007 2.1100000000000008 2.210000000000001
2.310000000000001 2.410000000000001 2.510000000000001 2.610000000000001 2.7100000000000013 2.8100000000000014 2.9100000000000015 3.0100000000000016
3.1100000000000017 3.2100000000000017 3.310000000000002 3.410000000000002 3.510000000000002 3.610000000000002 3.710000000000002 3.8100000000000023
3.9100000000000024 4.0100000000000025 4.110000000000002 4.210000000000002 4.310000000000001 4.410000000000001 4.510000000000001 4.61
4.71 4.81 4.909999999999999 5.000000000000003

position_x f8 [52]
00000000: 0000 0000 0000 0000 b400 959b 54ec 813f
00000010: 80fe e8f9 cf5b b93f 76b4 388a 90e3 c83f
00000020: b35c 7079 15e0 d23f b4db e240 13a2 d93f
00000030: 73a3 db71 fd5b e03f 56b6 64a5 0311 e43f
00000040: 644f 7c7e 3af0 e73f 8329 1e0e c1f9 eb3f
00000050: e28b 9898 db16 f03f 6a61 5dc7 1e46 f23f
00000060: f214 f4ca ba8a f43f 127f f5bd c0e4 f63f
00000070: c399 121d 4254 f93f 20b4 53c6 50d9 fb3f
00000080: a389 7af7 fe73 fe3f 7af3 46a6 2f92 0040
00000090: ac18 335f 42f5 0140 c898 9250 4163 0340
000000a0: baa9 4c51 36dc 0440 9648 4664 2b60 0640
000000b0: 50a3 7fb7 2aef 0740 6697 27a3 3e89 0940
000000c0: 6169 a5a8 712e 0b40 99db 9871 cede 0c40
000000d0: 9ccd d0ce 5f9a 0e40 0748 9c5b 9830 1040
000000e0: fa0d 5e23 a619 1140 39af 91de 5e08 1240
000000f0: c266 723e c8fc 1240 f7bd f704 e8f6 1340
00000100: c76f 3604 c4f6 1440 9850 cba8 63fc 1540
00000110: c968 179e cd07 1740 469e c381 0719 1840
00000120: 0f6e 1bf4 1630 1940 b71e f196 014d 1a40
00000130: 5372 7e0c cd6f 1b40 e11b 42f6 7e98 1c40
00000140: afeb 4bbc 1ac7 1d40 5d9d f947 7cfb 1e40
00000150: 02e4 fde9 af1a 2040 c335 6acd 3dba 2040
00000160: 17b7 8dd7 3f5c 2140 e09e 40d2 8a00 2240
00000170: de29 9e12 f0a6 2240 ebb8 233f 3d4f 2340
00000180: f09b 2b14 3cf9 2340 8b41 da1c b2a4 2440
00000190: d07d 3764 6051 2540 8c65 db17 9ded 2540
0.0 0.008751545904147263 0.09905719615289321 0.19444472073647362 0.2949269948889636 0.4005172856954531 0.5112292503155075 0.6270769338932023
0.7480747671529397 0.8742375636805239 1.0055805168892609 1.142119196671127 1.2838695457333498 1.4308478756210588 1.5830708633089763 1.7405555483958395
1.9033193270812283 2.0713799467470695 2.2447555005520226 2.423464421724109 2.607525477554387 2.796957763094791 2.9917806945635803 3.192014002462133
3.3976777244071603 3.6087921976827144 3.825378051516692 4.047456199086816 4.275047829261434 4.508174398080706 4.746857619984157 4.991119458790755
5.240982118437336 5.4964739202588575 5.757620306185523 6.0244426990171345 6.296962560819806 6.575201376406475 6.859180636613547 7.148921821389167
7.4444379254663735 7.74559128247287 8.052123367540847 8.363752764906968 8.680174575852602 9.001059122455842 9.326050359541963 9.654764149771344
9.986786489795094 10.321671392099935 10.658938533567294 10.964089150935955

position_y f8 [52]
00000000: 0000 0000 0000 0000 00c8 5e24 549e bcbe
00000010: b8f8 e036 9bfb 2bbf 8bc2 b7d8 2158 4abf
00000020: 0ad6 5bf7 c5a0 5dbf 5583 6df2 c8b8 6abf
00000030: ae90 ac6d ab4c 75bf f883 760a 235e 7fbf
00000040: 643b 2039 fbda 85bf df3e 669f af3c 8dbf
00000050: 1121 e360 69f3 92bf eadf c6f3 07f6 97bf
00000060: ff30 e1ca 8caf 9dbf 1403 a963 aa14 a2bf
00000070: 61c6 1594 5fb6 a5bf 3878 2dbb 95c1 a9bf
00000080: cfb8 02e3 fd3a aebf 4051 f44c a593 b1bf
00000090: 2267 0df8 9745 b4bf b0ec 95ba b135 b7bf
000000a0: c53d 9c1a 4e66 babf a8a4 ee5a c9d9 bdbf
000000b0: 0153 bb3c 40c9 c0bf 7ee9 b996 68c9 c2bf
000000c0: 71a2 caf2 8cee c4bf 9376 f8e2 dc39 c7bf
000000d0: b3f6 eb52 88ac c9bf a899 c386 bf47 ccbf
000000e0: 19cf d919 b30c cfbf 203f bcfe 49fe d0bf
000000f0: bcce bcbb 498c d2bf ee49 6a90 f130 d4bf
00000100: 2d0e 0c72 daec d5bf ae4a 3407 9fc0 d7bf
00000110: dc45 6678 d9ac d9bf e8c7 fbfe 22b2 dbbf
00000120: 0aa5 efe1 14d1 ddbf 9b1e 6339 2405 e0bf
00000130: ed7b 3285 2b2f e1bf 01c1 e602 ed66 e2bf
00000140: a0a6 c01d b2ac e3bf 1cc9 79b2 8d00 e5bf
00000150: ad5c d935 6662 e6bf bdcf 4a76 16d2 e7bf
00000160: 3cd5 f34e 6f4f e9bf 80e0 a6ce 36da eabf
00000170: 3f88 04d7 2772 ecbf 8d34 ba88 f116 eebf
00000180: b991 0c2b 35c8 efbf 4fa6 042b c3c2 f0bf
00000190: e6cc fcc1 35a7 f1bf 405e 1e96 8b79 f2bf
0.0 -1.7057938221762443e-06 -0.0002134921045939314 -0.0008039632097603539 -0.001808350874339284 -0.003261940455033511 -0.005200070993655865 -0.007658135298158612
-0.010671580010265642 -0.014275905658706232 -0.01850666669705087 -0.023399471525152572 -0.028989982493201612 -0.03531391588740554 -0.04240702326468405 -0.05030506048090938
-0.05904382129789242 -0.06865914467590972 -0.07918691450086304 -0.09066305928529306 -0.10312355184236484 -0.116604408931965 -0.13114169087807429 -0.14677150115660348
-0.1635299859529087 -0.181453333688229 -0.20057777451431988 -0.22093957977558643 -0.242575061438054 -0.26552057148454544 -0.28981250127547376 -0.3154872808746906
-0.34258137833987484 -0.37113166526357133 -0.4011748958374406 -0.4327476015160969 -0.4658863264472336 -0.5006276245921585 -0.5370080567844276 -0.5750641876857402
-0.6148310261825891 -0.65631756647625 -0.6995116283168464 -0.7443954763789332 -0.7909466306725004 -0.8391374622506333 -0.8889350127758532 -0.940300719304689
-0.9931894150545794 -1.0475494079968433 -1.103322751773527 -1.1546741355904402

position_z f8 [52]
00000000: 0000 0000 0000 0000 bf0c e136 2a0f e0bf
00000010: a09b 54a4 7aee 16c0 2a2f d3a0 7bb3 26c0
00000020: 761b 396f ea5a 31c0 8500 8be7 37bf 37c0
00000030: 2c0f 7955 b986 3ec0 eef6 5fc7 c0d8 42c0
00000040: d000 2891 d19f 46c0 4569 ef2b 9898 4ac0
00000050: ae7d bc97 1dc3 4ec0 022b 4558 b58f 51c0
00000060: b031 0917 c4d6 53c0 0028 cb51 bf36 56c0
00000070: 781a d53f abaf 58c0 db94 ff05 8c41 5bc0
00000080: 5119 97b6 65ec 5dc0 97e4 a028 1e58 60c0
00000090: e7a0 72e1 89c6 61c0 fc57 c6f2 7741 63c0
000000a0: 388e 2740 eac8 64c0 25fa 9aa3 e25c 66c0
000000b0: ece7 91ed 62fd 67c0 6cbd dde4 6caa 69c0
000000c0: 78a0 a346 0264 6bc0 af40 50c6 242a 6dc0
000000d0: 72c6 8b0d d6fc 6ec0 48f4 16de 0b6e 70c0
000000e0: 1f15 19b4 f563 71c0 7e21 d64e 2960 72c0
000000f0: 1159 5e6f a762 73c0 ddbf c2d1 706b 74c0
00000100: 3998 0f2d 867a 75c0 ba0a 7892 e98f 76c0
00000110: 2614 7654 9cab 77c0 8175 f0c3 9ecd 78c0
00000120: cf1a 3823 f1f5 79c0 a81d aca5 9324 7bc0
00000130: 292c 5e6f 8659 7cc0 a662 b794 c994 7dc0
00000140: f762 3f1a 5dd6 7ec0 f0be 407b 200f 80c0
00000150: 85aa 9e88 3ab6 80c0 cc2c bea0 7c60 81c0
00000160: fe30 9ea6 e60d 82c0 555c 8c74 78be 82c0
00000170: 31be fadb 3172 83c0 9fdb 55a5 1229 84c0
00000180: 8814 db8f 1ae3 84c0 f45e 6f51 49a0 85c0
00000190: 1752 7696 9e60 86c0 2bab 2a66 6910 87c0
0.0 -0.5018511840684353 -5.732889716781671 -11.350552583484006 -17.355139686052517 -23.746946784435313 -30.526265470557675 -37.693383142335605
-45.24858297780304 -53.19214390935898 -61.52434059814128 -70.24544340853393 -79.35571838281498 -88.85542721595266 -98.74482723055723 -109.02417135199669
-119.69370808368446 -130.75368148254776 -142.20433113468536 -154.0458921312237 -166.27859504438106 -178.90266590374918 -191.9183261728025 -205.32579272564487
-219.1252778240048 -233.31698909448957 -247.9011295061096 -262.8778973480844 -278.24748620794156 -294.0100849499212 -310.1658776936975 -326.7150437934304
-343.6577578171887 -360.9945244492661 -378.72566648602003 -396.8512610810213 -415.37137147823245 -434.2860466693187 -453.595321052419 -473.2992140925875
-493.39773010979064 -513.890860086276 -534.7785808940686 -556.0608534676953 -577.7376224859906 -599.8088160482099 -622.274345358781 -645.1341044147156
-668.3879696956292 -692.0357998562672 -716.0774354213526 -738.0514643987166

u f8 [52]
00000000: a669 0774 81ec eb3f 014b 6d67 0716 ec3f
00000010: 42a3 bc52 d4b5 ed3f f47f 7ded af56 ef3f
00000020: 1fa1 ef98 517c f03f 0124 5888 db4d f13f
00000030: 856c ca37 fa1f f23f 3b9f 9e13 b2f2 f23f
00000040: baa4 cd80 07c6 f33f add7 0bdc fe99 f43f
00000050: 04c5 e378 9c6e f53f b53a d1a0 e443 f63f
00000060: 48d8 5c92 db19 f73f 16f8 4a80 85f0 f73f
00000070: 70a2 b093 e6c7 f83f f874 1ae8 02a0 f93f
00000080: 2024 5389 de78 fa3f 646a fb73 7d52 fb3f
00000090: bd5e ae94 e32c fc3f dfe6 27c7 1408 fd3f
000000a0: 387b 6dd5 14e4 fd3f d07f f976 e7c0 fe3f
000000b0: 4965 e94f 909e ff3f b469 1778 893e 0040
000000c0: 7f09 6269 39ae 0040 5af9 71ae 591e 0140
000000d0: 0cb2 a2ee eb8e 0140 2082 adc5 f1ff 0140
000000e0: c366 4bc3 6c71 0240 dc14 d96a 5ee3 0240
000000f0: 2e4e fd32 c855 0340 a69b 5185 abc8 0340
00000100: 51cf 538d 0f3c 0440 b68b d6f6 1ab0 0440
00000110: 4700 3aae 9c24 0540 dc4b f210 9599 0540
00000120: a0e2 9565 040f 0640 a47c 8fdb ea84 0640
00000130: 212a d98a 48fb 0640 a01f bc73 1d72 0740
00000140: 27c7 d888 6ee8 0740 65ce 6eb0 f859 0840
00000150: ffae 0cc6 fec5 0840 098e 7d5b 092c 0940
00000160: 7aba dc68 9a8b 0940 d7eb d1f7 2be4 0940
00000170: f45a 1661 2f35 0a40 4c10 f2a7 0c7e 0a40
00000180: 712d c8be 21be 0a40 f7de 73d1 c0f4 0a40
00000190: 81ce 7585 2f21 0b40 0eda e492 d13f 0b40
0.8726203218641799 0.8776890773827689 0.9284459701494614 0.9793319357377173 1.0303512548508207 1.0815081907223887 1.1328069857907235 1.1842518583670898
1.2358469992998793 1.2875965686375637 1.339504692292679 1.3915754587102758 1.443812915543747 1.496221066612184 1.548803879655818 1.6015652720009808
1.6545091022728755 1.7076391726065134 1.7609592254502069 1.8144729403997457 1.8681839310663246 1.9220957419820373 1.9762118455458497 2.030535639013772
2.085070441536288 2.139819491246425 2.194785942401955 2.2499728625846416 2.30538322996003 2.3610199306009303 2.4168857558777495 2.4729833999185358
2.5293265382005434 2.585988930151383 2.6428769694757963 2.69999135245733 2.7573326050154066 2.8149010804332466 2.8726969573520056 2.9307202379022357
2.988492077937639 3.0439313682380083 3.0966773483868333 3.146502222794656 3.193165606723878 3.236411987394131 3.2759692749926845 3.311547576975533
3.3428378014411284 3.3695083964811334 3.3912039209915865 3.4061614490594883

v f8 [52]
00000000: 0000 0000 0000 0000 9616 0c26 4d61 26bf
00000010: f3b9 b825 5f46 60bf c501 d21c a862 70bf
00000020: 9534 6fa1 3c72 79bf b4d7 6f96 5fa9 81bf
00000030: df1a a597 8502 87bf 2d5a 32b6 02c5 8cbf
00000040: d49d 1bfa a678 91bf 4b19 a474 f1c3 94bf
00000050: f7ee 28db a044 98bf 6532 187c f7fa 9bbf
00000060: 06f4 7ddc 39e7 9fbf 5836 06f5 d604 a2bf
00000070: 8f18 9a0d 3f31 a4bf 3794 1a7a ef78 a6bf
00000080: fe6b 8fec 0bdc a8bf 6f2c fb0d b95a abbf
00000090: 3210 9878 1cf5 adbf 59c5 e358 ae55 b0bf
000000a0: 5fd9 da91 d0be b1bf 61f8 580b 0936 b3bf
000000b0: 2f30 1f55 6cbb b4bf 3bc0 eb66 0f4f b6bf
000000c0: 33ee ba9c 07f1 b7bf 6ebd e5b2 6aa1 b9bf
000000d0: 147f 1fc2 4e60 bbbf e237 533b ca2d bdbf
000000e0: a0ec 61e3 f309 bfbf 3978 6167 717a c0bf
000000f0: 67ae 832e 5777 c1bf 08f2 201a b77b c2bf
00000100: 2de2 a2b9 a287 c3bf 7ca6 16e1 4b9b c4bf
00000110: 9bf9 c60f 8fb6 c5bf a00b bd02 77d9 c6bf
00000120: 7e2c e06a 0e04 c8bf 88e4 19e9 5f36 c9bf
00000130: e4d5 760a 7670 cabf ca23 4144 5bb2 cbbf
00000140: 097d 9f14 44fa ccbf 6e7e 7b88 0d40 cebf
00000150: b450 63fd eb81 cfbf 1046 1c2c 495f d0bf
00000160: a5fa 15d2 51fa d0bf 3bc9 ec08 5991 d1bf
00000170: 5c8b 4729 9f23 d2bf b6f2 0ba2 4ab0 d2bf
00000180: 2555 d2a3 5936 d3bf 3c5b 7334 e3b4 d3bf
00000190: 53f8 41d2 f62a d4bf 8b1c 7b63 308d d4bf
0.0 -0.00017074648624075946 -0.0019866808268240665 -0.004000336351169091 -0.006212460363667867 -0.00862383535239162 -0.011235278787933676 -0.014047642884446787
-0.017061814322827676 -0.020278713936045006 -0.023699296356638446 -0.02732454962647281 -0.03115549476887127 -0.03519317379969483 -0.039438219461815575 -0.043891414313556636
-0.04855382216165792 -0.05342653556507392 -0.05851067516417209 -0.06380738897475648 -0.06931785164747371 -0.07504326369323301 -0.08098485067529347 -0.08714386236874898
-0.0935215718881686 -0.10011927478421054 -0.10693828811008316 -0.1139799494587517 -0.12124561597186068 -0.12873666332137804 -0.13645448466501195 -0.14440048957648366
-0.15257677139540374 -0.16098927012108166 -0.16963375349400853 -0.17851150163377572 -0.18762378901041993 -0.19697188264743581 -0.2065570403189404 -0.21638050873505527
-0.22638751036627294 -0.23632973827533327 -0.2461523997541285 -0.25581578548107675 -0.2652782966251073 -0.2744963252217933 -0.2834241774673296 -0.2920099813925775
-0.3001922702618052 -0.307915497990894 -0.3151223233506972 -0.3211174937718588

w f8 [52]
00000000: 24f1 b776 06ff 4840 942a 773c 7930 4940
00000010: 1cb7 7e2e 2c1f 4b40 5aab 269d 420e 4d40
00000020: d33b 2e38 bbfd 4e40 734f 9756 ca76 5040
00000030: 4b4f ced3 e66e 5140 be35 6568 3267 5240
00000040: 5fd3 f467 ac5f 5340 b8ce 0625 5458 5440
00000050: f2d8 16f1 2851 5540 fef8 931c 2a4a 5640
00000060: a2ec e1f6 5643 5740 cd9f 5ace ae3c 5840
00000070: 3fba 4ff0 3036 5940 1a44 0ca9 dc2f 5a40
00000080: c661 d643 b129 5b40 d927 f10a ae23 5c40
00000090: a087 9e47 d21d 5d40 f654 2142 1d18 5e40
000000a0: 2f66 bf41 8e12 5f40 5ce7 6146 9206 6040
000000b0: b19a 40b4 ef83 6040 6023 aa0c 5f01 6140
000000c0: 6b22 53f1 df7e 6140 37da 7703 72fc 6140
000000d0: 9a94 dde3 147a 6240 9418 d432 c8f7 6240
000000e0: 1f30 3790 8b75 6340 883e 709b 5ef3 6340
000000f0: 9fe7 77f3 4071 6440 3cc8 d736 32ef 6440
00000100: 1556 fb2e 376d 6540 b601 f2ac 70eb 6540
00000110: c2d8 6480 b169 6640 9447 cd8b f8e7 6640
00000120: a731 6daa 4466 6740 32fb 55b0 94e4 6740
00000130: d882 706a e762 6840 5656 869e 3be1 6840
00000140: cde4 361a 905f 6940 0f18 16d6 e3dd 6940
00000150: 4dad 108e 355c 6a40 2a73 c5f2 83da 6a40
00000160: 24ea 0eae cd58 6b40 ca65 1b63 11d7 6b40
00000170: 1221 7bae 4d55 6c40 f63d 2e26 81d3 6c40
00000180: 476b b259 aa51 6d40 efcd 0fd2 c7cf 6d40
00000190: 9bb6 e411 d84d 6e40 5c99 048a 40bf 6e40
49.992384757819565 50.37869983500164 54.243535816071216 58.111407894021525 61.98227598435883 65.85609974647905 69.7328385843986 73.61245164760382
77.49489783200032 81.3801357809524 85.2681238864059 89.15882029009296 93.0521828848164 96.94816931581518 100.84673698221103 104.74784303853849
108.65144439635978 112.557497725967 116.46595945817398 120.3767857862002 124.2899326676495 128.20535582658601 132.1230107557108 136.04285271864046
139.9648367522926 143.88891766937897 147.8150500610107 151.7431882994175 155.6732865407839 159.60529872820575 163.53917859476948 167.47487966675715
171.41298626984704 175.35750434176379 179.30291766831039 183.24909010022805 187.19588204695648 191.14315048974237 195.09074899649454 199.03852773893112
202.9863406250137 206.9340620452426 210.88153746850222 214.8286069733088 218.77510741150866 222.7208724532232 226.665732613074 230.609515276257
234.55204472396346 238.49314215742876 242.4326257197434 245.97662831209425

phi f8 [52]
00000000: 0000 0000 0000 0000 5b58 5944 d136 22bf
00000010: 3db6 dc50 910a 59bf 5af0 8ff1 66e6 67bf
00000020: 7833 8dcd 62a3 71bf 4296 a228 3153 77bf
00000030: 0eb0 8860 9d02 7dbf 7a09 1326 d358 81bf
00000040: 5e3e 6461 2530 84bf 8eff 12ce 4407 87bf
00000050: 8b13 2fd8 30de 89bf c491 fdeb e8b4 8cbf
00000060: 6e75 f975 6c8b 8fbf f017 6a71 dd30 91bf
00000070: 491d bbcf e99b 92bf 4ad4 7f0c db06 94bf
00000080: d05b 64de b071 95bf 5a30 31fc 6adc 96bf
00000090: 1974 cb1c 0947 98bf c436 35f7 8ab1 99bf
000000a0: 33bd 8d42 f01b 9bbf bdc8 11b6 3886 9cbf
000000b0: 56de 1b09 64f0 9dbf 6f8d 24f3 715a 9fbf
000000c0: 4d5b e115 3162 a0bf f8e8 5535 1a17 a1bf
000000d0: 9a1a da33 f4cb a1bf dcac 67ed be80 a2bf
000000e0: fe10 083e 7a35 a3bf 8c8f d401 26ea a3bf
000000f0: ec6a f614 c29e a4bf ce01 a753 4e53 a5bf
00000100: 7bf1 2f9a ca07 a6bf fd37 ebc4 36bc a6bf
00000110: 2e56 43b0 9270 a7bf 9d71 b338 de24 a8bf
00000120: 5676 c73a 19d9 a8bf 8038 1c93 438d a9bf
00000130: e295 5f1e 5d41 aabf 3d97 50b9 65f5 aabf
00000140: d6cc f210 bfa8 abbf 4413 da70 d058 acbf
00000150: 8c4c c544 5a05 adbf b758 ce55 51ae adbf
00000160: 58fa 571d ac53 aebf 9e78 2484 63f5 aebf
00000170: ebd3 5458 7393 afbf 236a 1f67 ed16 b0bf
00000180: 8ffd e586 4e62 b0bf d50e ece6 e0ab b0bf
00000190: 69e4 a5ff aaf3 b0bf 73bc 55e9 c832 b1bf
0.0 -0.00013896278885522608 -0.0015283984279891437 -0.002917481481288714 -0.00430620760819244 -0.00569457247380495 -0.00708257174896333 -0.008470201110303267
-0.00985745624032502 -0.011244332827459205 -0.012630826566132366 -0.014016933156832397 -0.01540264830617374 -0.016787967726962394 -0.01817288713826074 -0.01955740226545214
-0.02094150884030538 -0.022325202601038853 -0.023708479292384597 -0.025091334665652068 -0.02647376447879175 -0.027855764496458536 -0.029237330490074896 -0.030618458237893827
-0.03199914352506159 -0.03337938214368025 -0.03475916989286994 -0.03613850257883097 -0.037517376014905665 -0.03889578602163998 -0.04027372842684493 -0.041651199065657715
-0.04302819378060271 -0.044404708421652096 -0.0457807388462864 -0.047156280919554684 -0.04853133051413454 -0.049905883510391824 -0.051279935796440204 -0.052653483268200386
-0.05402180749788392 -0.05536509873949183 -0.05668146218763423 -0.0579705636256888 -0.059232119161596486 -0.06046591747348028 -0.061671833546291875 -0.06284984367031447
-0.06400004189889884 -0.06512265813585867 -0.06621807805449155 -0.0671811647095966

theta f8 [52]
00000000: a3e2 ba39 7eda f83f 4f78 59d6 7dda f83f
00000010: 5a77 8fed 79da f83f 90bf 13f8 75da f83f
00000020: 86a5 e7f5 71da f83f eb81 0ce7 6dda f83f
00000030: 86b1 83cb 69da f83f 3395 4ea3 65da f83f
00000040: e591 6e6e 61da f83f 9e10 e52c 5dda f83f
00000050: 717e b3de 58da f83f 804c db83 54da f83f
00000060: f7ef 5d1c 50da f83f 0de2 3ca8 4bda f83f
00000070: 00a0 7927 47da f83f 13ab 159a 42da f83f
00000080: 8c88 1200 3eda f83f b3c1 7159 39da f83f
00000090: cde3 34a6 34da f83f 1c80 5de6 2fda f83f
000000a0: dd2b ed19 2bda f83f 4380 e540 26da f83f
000000b0: 781a 485b 21da f83f 989b 1669 1cda f83f
000000c0: b1a8 526a 17da f83f beea fd5e 12da f83f
000000d0: a70e 1a47 0dda f83f 3cc5 a822 08da f83f
000000e0: 36c3 abf1 02da f83f 31c1 24b4 fdd9 f83f
000000f0: ac7b 156a f8d9 f83f 06b3 7f13 f3d9 f83f
00000100: 792b 65b0 edd9 f83f 1cad c740 e8d9 f83f
00000110: dd03 a9c4 e2d9 f83f 7fff 0a3c ddd9 f83f
00000120: 9773 efa6 d7d9 f83f 8c37 5805 d2d9 f83f
00000130: 9226 4757 ccd9 f83f a71f be9c c6d9 f83f
00000140: 4ec9 da15 c2d9 f83f 82e1 ec13 c4d9 f83f
00000150: 0e67 0c3f cdd9 f83f fdd8 73df ddd9 f83f
00000160: 1248 5142 f6d9 f83f cd22 72ba 16da f83f
00000170: de59 c6a0 3fda f83f 2d87 ed54 71da f83f
00000180: b42d cf3d acda f83f 031f 3fca f0da f83f
00000190: d52f af71 3fdb f83f b01e b849 8fdb f83f
1.5533430342749532 1.5533426640536339 1.5533389358237941 1.553335160304389 1.5533313375147784 1.5533274674745552 1.5533235502035452 1.553319585721806
1.553315574049628 1.553311515207532 1.5533074092162702 1.5533032560968252 1.5532990558704094 1.553294808558465 1.5532905141826632 1.5532861727649034
1.5532817843273135 1.5532773488922487 1.5532728664822912 1.55326833712025 1.5532637608291602 1.553259137632282 1.553254467553101 1.5532497506153273
1.553244986842895 1.5532401762599615 1.5532353188909072 1.5532304147603346 1.5532254638930687 1.5532204663141551 1.5532154220488605 1.553210331122672
1.5532051935612954 1.5532000093906566 1.5531947786368996 1.5531895013263861 1.5531841774856951 1.5531788071416228 1.5531733903211813 1.5531679270515981
1.5531636098572394 1.553165510018602 1.553174253733633 1.553190110074467 1.5532133665587975 1.553244331649853 1.553283336664769 1.5533307378286267
1.5533869184899745 1.5534522915131113 1.5535273018640414 1.5536034469277347

psi f8 [52]
00000000: 0000 0000 0000 0000 24a2 3834 b67f 29bf
00000010: 7ea8 3f14 7687 61bf 1e21 046f 28bb 70bf
00000020: 2375 ace3 44b2 78bf d623 e2b5 8754 80bf
00000030: 31d2 a285 c34f 84bf 7008 3d63 d54a 88bf
00000040: ceb8 fdd0 bc45 8cbf 873b ada8 3c20 90bf
00000050: 19f5 7833 851d 92bf ec1e 46ca b71a 94bf
00000060: 96c9 8d2e d417 96bf de51 8d9d d914 98bf
00000070: 7a28 a847 b411 9abf e6cd f5e6 570e 9cbf
00000080: bf4c c9ea c30a 9ebf f7cc 67e1 7b03 a0bf
00000090: 4f32 886f 7901 a1bf 7172 f757 5aff a1bf
000000a0: 8354 1553 1efd a2bf c330 7019 c5fa a3bf
000000b0: d255 c563 4ef8 a4bf 4e6d 01eb b9f5 a5bf
000000c0: c2df 4068 07f3 a6bf e337 d094 36f0 a7bf
000000d0: 1285 2c2a 47ed a8bf 39bd 03e2 38ea a9bf
000000e0: dd1d 3576 0be7 aabf 988c d1a0 bee3 abbf
000000f0: bdf6 1b1c 52e0 acbf 58b0 89a2 c5dc adbf
00000100: 74d2 c2ee 18d9 aebf 9798 a2bb 4bd5 afbf
00000110: cbde 1be2 ae68 b0bf d06b e261 a7e6 b0bf
00000120: cb59 e03a 8f64 b1bf c957 eb4a 66e2 b1bf
00000130: 658a f36f 2c60 b2bf 51b8 0388 e1dd b2bf
00000140: 733e 9036 175b b3bf 768c 312d 01d6 b3bf
00000150: b48f 613c 794e b4bf ae78 2ca6 7dc4 b4bf
00000160: 3608 62bb 0d38 b5bf 1154 bd62 2aa9 b5bf
00000170: 0ea7 616f d617 b6bf f2b5 dab6 0284 b6bf
00000180: f1d9 06cc 7eed b6bf dc44 9c74 4854 b7bf
00000190: 0ba6 917c 64b8 b7bf 701b d9f1 3a10 b8bf
0.0 -0.0001945409695605231 -0.0021397882683134575 -0.004084737724277225 -0.006029385661148442 -0.007973728407039287 -0.00991776229452865 -0.011861483660713129
-0.013804888847257859 -0.01574797420044718 -0.017690736071235145 -0.01963317081529585 -0.021575274793073605 -0.02351703666802673 -0.02545816123350917 -0.02739846560639405
-0.029337941365451977 -0.031276580109897915 -0.03321437345957589 -0.035151313055142526 -0.03708739055824941 -0.03902259765172424 -0.04095692603975078 -0.042890367448047514
-0.04482291362404524 -0.04675455633706329 -0.04868528737848456 -0.05061509856192931 -0.05254398172342765 -0.054471928721590845 -0.056398931437781276 -0.05832498177628115
-0.060250071664459975 -0.062174193052940634 -0.06409733791576426 -0.06601949825055375 -0.06794066607867603 -0.06986083344540285 -0.07177999242007045 -0.07369813509623781
-0.07560868341556119 -0.077484200986463 -0.07932241176746296 -0.08112321192718028 -0.0828865606763721 -0.08461251173623931 -0.08630123347543536 -0.08795182193963294
-0.08956139069673676 -0.0911298069661543 -0.09265735665544399 -0.09399765400403992

p f8 [52]
00000000: 0000 0000 0000 0000 0000 0000 0000 0000
00000010: 0000 0000 0000 0000 0000 0000 0000 0000
00000020: 0000 0000 0000 0000 0000 0000 0000 0000
00000030: 0000 0000 0000 0000 0000 0000 0000 0000
00000040: 0000 0000 0000 0000 0000 0000 0000 0000
00000050: 0000 0000 0000 0000 0000 0000 0000 0000
00000060: 0000 0000 0000 0000 0000 0000 0000 0000
00000070: 0000 0000 0000 0000 0000 0000 0000 0000
00000080: 0000 0000 0000 0000 0000 0000 0000 0000
00000090: 0000 0000 0000 0000 0000 0000 0000 0000
000000a0: 0000 0000 0000 0000 0000 0000 0000 0000
000000b0: 0000 0000 0000 0000 0000 0000 0000 0000
000000c0: 0000 0000 0000 0000 0000 0000 0000 0000
000000d0: 0000 0000 0000 0000 0000 0000 0000 0000
000000e0: 0000 0000 0000 0000 0000 0000 0000 0000
000000f0: 0000 0000 0000 0000 0000 0000 0000 0000
00000100: 0000 0000 0000 0000 0000 0000 0000 0000
00000110: 0000 0000 0000 0000 0000 0000 0000 0000
00000120: 0000 0000 0000 0000 0000 0000 0000 0000
00000130: 0000 0000 0000 0000 0000 0000 0000 0000
00000140: 0000 0000 0000 0000 0000 0000 0000 0000
00000150: 0000 0000 0000 0000 0000 0000 0000 0000
00000160: 0000 0000 0000 0000 0000 0000 0000 0000
00000170: 0000 0000 0000 0000 0000 0000 0000 0000
00000180: 0000 0000 0000 0000 0000 0000 0000 0000
00000190: 0000 0000 0000 0000 0000 0000 0000 0000
0.0 0.0 0.0 0.0 0.0 0.0 0.0 0.0
0.0 0.0 0.0 0.0 0.0 0.0 0.0 0.0
0.0 0.0 0.0 0.0 0.0 0.0 0.0 0.0
0.0 0.0 0.0 0.0 0.0 0.0 0.0 0.0
0.0 0.0 0.0 0.0 0.0 0.0 0.0 0.0
0.0 0.0 0.0 0.0 0.0 0.0 0.0 0.0
0.0 0.0 0.0 0.0

q f8 [52]
00000000: 365e 0ffd d965 03bf 365e 0ffd d965 03bf
00000010: 365e 0ffd d965 03bf 365e 0ffd d965 03bf
00000020: 365e 0ffd d965 03bf 365e 0ffd d965 03bf
00000030: 365e 0ffd d965 03bf 365e 0ffd d965 03bf
00000040: 365e 0ffd d965 03bf 365e 0ffd d965 03bf
00000050: 365e 0ffd d965 03bf 365e 0ffd d965 03bf
00000060: 365e 0ffd d965 03bf 365e 0ffd d965 03bf
00000070: 365e 0ffd d965 03bf 365e 0ffd d965 03bf
00000080: 365e 0ffd d965 03bf 365e 0ffd d965 03bf
00000090: 365e 0ffd d965 03bf 365e 0ffd d965 03bf
000000a0: 365e 0ffd d965 03bf 365e 0ffd d965 03bf
000000b0: 365e 0ffd d965 03bf 365e 0ffd d965 03bf
000000c0: 365e 0ffd d965 03bf 365e 0ffd d965 03bf
000000d0: 365e 0ffd d965 03bf 365e 0ffd d965 03bf
000000e0: 365e 0ffd d965 03bf 365e 0ffd d965 03bf
000000f0: 365e 0ffd d965 03bf 365e 0ffd d965 03bf
00000100: 365e 0ffd d965 03bf 365e 0ffd d965 03bf
00000110: 365e 0ffd d965 03bf 365e 0ffd d965 03bf
00000120: 365e 0ffd d965 03bf 365e 0ffd d965 03bf
00000130: 365e 0ffd d965 03bf 365e 0ffd d965 03bf
00000140: a007 4b2f 17ea ce3e f905 4341 8890 123f
00000150: 74d0 98c4 8b6a 223f 391c e360 57e8 2b3f
00000160: 2d43 fc56 30e4 323f 0028 eeeb 0009 383f
00000170: ff1e 67cd a066 3d3f 4b2a 112f b880 413f
00000180: 7f71 aa30 1a6f 443f 2837 7e03 0f81 473f
00000190: 30b9 bbdd 69b9 4a3f aab9 10ac b2c2 4d3f
-3.699847696453063e-05 -3.699847696453063e-05 -3.699847696453063e-05 -3.699847696453063e-05 -3.699847696453063e-05 -3.699847696453063e-05 -3.699847696453063e-05 -3.699847696453063e-05
-3.699847696453063e-05 -3.699847696453063e-05 -3.699847696453063e-05 -3.699847696453063e-05 -3.699847696453063e-05 -3.699847696453063e-05 -3.699847696453063e-05 -3.699847696453063e-05
-3.699847696453063e-05 -3.699847696453063e-05 -3.699847696453063e-05 -3.699847696453063e-05 -3.699847696453063e-05 -3.699847696453063e-05 -3.699847696453063e-05 -3.699847696453063e-05
-3.699847696453063e-05 -3.699847696453063e-05 -3.699847696453063e-05 -3.699847696453063e-05 -3.699847696453063e-05 -3.699847696453063e-05 -3.699847696453063e-05 -3.699847696453063e-05
-3.699847696453063e-05 -3.699847696453063e-05 -3.699847696453063e-05 -3.699847696453063e-05 -3.699847696453063e-05 -3.699847696453063e-05 -3.699847696453063e-05 -3.699847696453063e-05
3.6852856005473107e-06 7.081824907386587e-05 0.0001405044188672631 0.00021291796332986878 0.0002882593171174449 0.0003667475938803344 0.000448621996295348 0.0005341433844788327
0.0006235959893561709 0.0007172892865001433 0.0008155600475825749 0.0009082195684920098

r f8 [52]
00000000: f0d2 f7dd d14f 36bf f0d2 f7dd d14f 36bf
00000010: f0d2 f7dd d14f 36bf f0d2 f7dd d14f 36bf
00000020: f0d2 f7dd d14f 36bf f0d2 f7dd d14f 36bf
00000030: f0d2 f7dd d14f 36bf f0d2 f7dd d14f 36bf
00000040: f0d2 f7dd d14f 36bf f0d2 f7dd d14f 36bf
00000050: f0d2 f7dd d14f 36bf f0d2 f7dd d14f 36bf
00000060: f0d2 f7dd d14f 36bf f0d2 f7dd d14f 36bf
00000070: f0d2 f7dd d14f 36bf f0d2 f7dd d14f 36bf
00000080: f0d2 f7dd d14f 36bf f0d2 f7dd d14f 36bf
00000090: f0d2 f7dd d14f 36bf f0d2 f7dd d14f 36bf
000000a0: f0d2 f7dd d14f 36bf f0d2 f7dd d14f 36bf
000000b0: f0d2 f7dd d14f 36bf f0d2 f7dd d14f 36bf
000000c0: f0d2 f7dd d14f 36bf f0d2 f7dd d14f 36bf
000000d0: f0d2 f7dd d14f 36bf f0d2 f7dd d14f 36bf
000000e0: f0d2 f7dd d14f 36bf f0d2 f7dd d14f 36bf
000000f0: f0d2 f7dd d14f 36bf f0d2 f7dd d14f 36bf
00000100: f0d2 f7dd d14f 36bf f0d2 f7dd d14f 36bf
00000110: f0d2 f7dd d14f 36bf f0d2 f7dd d14f 36bf
00000120: f0d2 f7dd d14f 36bf f0d2 f7dd d14f 36bf
00000130: f0d2 f7dd d14f 36bf f0d2 f7dd d14f 36bf
00000140: 00eb 3c68 dce7 35bf b05b b5b7 e73a 35bf
00000150: 3012 1b89 0986 34bf f743 874d 3ec9 33bf
00000160: 5469 4558 8c04 33bf cdbe 7a80 0138 32bf
00000170: e988 258c b363 31bf cd4d 6a97 c087 30bf
00000180: edaf 90f0 9e48 2fbf 0906 9b3b 2073 2dbf
00000190: 7a73 a9d3 778f 2bbf 9df1 10ae 7fd0 29bf
-0.00034045098979555623 -0.00034045098979555623 -0.00034045098979555623 -0.00034045098979555623 -0.00034045098979555623 -0.00034045098979555623 -0.00034045098979555623 -0.00034045098979555623
-0.00034045098979555623 -0.00034045098979555623 -0.00034045098979555623 -0.00034045098979555623 -0.00034045098979555623 -0.00034045098979555623 -0.00034045098979555623 -0.00034045098979555623
-0.00034045098979555623 -0.00034045098979555623 -0.00034045098979555623 -0.00034045098979555623 -0.00034045098979555623 -0.00034045098979555623 -0.00034045098979555623 -0.00034045098979555623
-0.00034045098979555623 -0.00034045098979555623 -0.00034045098979555623 -0.00034045098979555623 -0.00034045098979555623 -0.00034045098979555623 -0.00034045098979555623 -0.00034045098979555623
-0.00034045098979555623 -0.00034045098979555623 -0.00034045098979555623 -0.00034045098979555623 -0.00034045098979555623 -0.00034045098979555623 -0.00034045098979555623 -0.00034045098979555623
-0.00033425456080109217 -0.0003239455906700007 -0.00031316502382264504 -0.00030191203179891164 -0.0002901880873388458 -0.0002779964129144663 -0.0002653420780430864 -0.0002522320932396266
-0.00023867550069789305 -0.0002246834608766043 -0.00021026933412118446 -0.00019694861023989994

mass f8 [52]
00000000: 0000 0000 00e4 b640 9eec eb00 40e3 b640
00000010: ce2a 230a c0db b640 fe68 5a13 40d4 b640
00000020: 2ea7 911c c0cc b640 5ee5 c825 40c5 b640
00000030: 8e23 002f c0bd b640 be61 3738 40b6 b640
00000040: ee9f 6e41 c0ae b640 1ede a54a 40a7 b640
00000050: 4e1c dd53 c09f b640 7e5a 145d 4098 b640
00000060: ae98 4b66 c090 b640 ded6 826f 4089 b640
00000070: 0e15 ba78 c081 b640 3e53 f181 407a b640
00000080: 6e91 288b c072 b640 9ecf 5f94 406b b640
00000090: ce0d 979d c063 b640 fe4b cea6 405c b640
000000a0: 2e8a 05b0 c054 b640 5ec8 3cb9 404d b640
000000b0: 8e06 74c2 c045 b640 be44 abcb 403e b640
000000c0: ee82 e2d4 c036 b640 1ec1 19de 402f b640
000000d0: 4eff 50e7 c027 b640 7e3d 88f0 4020 b640
000000e0: ae7b bff9 c018 b640 deb9 f602 4111 b640
000000f0: 0ef8 2d0c c109 b640 3e36 6515 4102 b640
00000100: 6e74 9c1e c1fa b540 9eb2 d327 41f3 b540
00000110: cef0 0a31 c1eb b540 fe2e 423a 41e4 b540
00000120: 2e6d 7943 c1dc b540 5eab b04c 41d5 b540
00000130: 8ee9 e755 c1cd b540 be27 1f5f 41c6 b540
00000140: ee65 5668 c1be b540 1ea4 8d71 41b7 b540
00000150: 4ee2 c47a c1af b540 7e20 fc83 41a8 b540
00000160: ae5e 338d c1a0 b540 de9c 6a96 4199 b540
00000170: 0edb a19f c191 b540 3e19 d9a8 418a b540
00000180: 6e57 10b2 c182 b540 9e95 47bb 417b b540
00000190: ced3 7ec4 c173 b540 5f25 cacc 016d b540
5860.0 5859.250014062183 5851.750154684019 5844.250295305856 5836.750435927692 5829.250576549528 5821.750717171364 5814.2508577932
5806.7509984150365 5799.251139036873 5791.751279658709 5784.251420280545 5776.751560902381 5769.251701524217 5761.751842146054 5754.25198276789
5746.752123389726 5739.252264011562 5731.752404633398 5724.2525452552345 5716.752685877071 5709.252826498907 5701.752967120743 5694.253107742579
5686.753248364415 5679.253388986252 5671.753529608088 5664.253670229924 5656.75381085176 5649.253951473596 5641.7540920954325 5634.254232717269
5626.754373339105 5619.254513960941 5611.754654582777 5604.254795204613 5596.75493582645 5589.255076448286 5581.755217070122 5574.255357691958
5566.755498313794 5559.2556389356305 5551.755779557467 5544.255920179303 5536.756060801139 5529.256201422975 5521.756342044811 5514.256482666648
5506.756623288484 5499.25676391032 5491.756904532156 5485.007031091808

V f8 [52]
00000000: 0000 0000 0000 4940 0a53 7dbe 7331 4940
00000010: e0b4 c287 3020 4b40 d78f a701 510f 4d40
00000020: 8c63 47d5 d3fe 4e40 3da5 a3d5 5b77 5040
00000030: c82e b095 7d6f 5140 8dde 077e ce67 5240
00000040: b698 2fe1 4d60 5340 4424 df10 fb58 5440
00000050: 7262 f35d d551 5540 4b7e 6418 dc4a 5640
00000060: 74f3 3e8f 0e44 5740 dea7 9e10 6c3d 5840
00000070: 1690 abe9 f336 5940 a77e 9766 a530 5a40
00000080: 24da 9cd2 7f2a 5b40 c608 fe77 8224 5c40
00000090: 756d 05a0 ac1e 5d40 dbdb 0593 fd18 5e40
000000a0: bc6f 5b98 7413 5f40 645c 367b 0807 6040
000000b0: fc17 56f9 6884 6040 e1f6 cc68 db01 6140
000000c0: 98cd 626b 5f7f 6140 594c 68a2 f4fc 6140
000000d0: a62b b8ae 9a7a 6240 9870 b830 51f8 6240
000000e0: f3c7 5bc8 1776 6340 45f7 2215 eef3 6340
000000f0: 6e63 1eb6 d371 6440 6eac ef49 c8ef 6440
00000100: 6989 4d9a d06d 6540 438f a879 0dec 6540
00000110: 33b2 07b6 516a 6640 8225 f531 9ce8 6640
00000120: 881c c3c8 eb66 6740 11c4 924e 3fe5 6740
00000130: 6e2d 5c90 9563 6840 b975 f753 ede1 6840
00000140: a89c 2858 4560 6940 c8ce bf54 9cde 6940
00000150: 5d55 9cfa f05c 6a40 e3a6 adf3 41db 6a40
00000160: 8bab ffe2 8d59 6b40 6f9b cb64 d3d7 6b40
00000170: e67e 890e 1156 6c40 76f6 026f 45d4 6c40
00000180: 6b49 670e 6f52 6d40 e4b7 606e 8cd0 6d40
00000190: 560b 2b0a 9c4e 6e40 22ab 2d71 03c0 6e40
50.0 50.3863447296081 54.25148102767139 58.11965962106449 61.990839633806075 65.86498013478281 69.7420400829825 73.62197829025736
77.50475339553927 81.39032384673288 85.27864788787863 89.1696835500126 93.06338864467199 96.95972075933193 100.85863725427802 104.76009526056679
108.66405167882527 112.57046317871126 116.47928619890247 120.39047694751882 124.30399140290587 128.21978531472553 132.13781420531438 136.05803337127784
139.98039788529854 143.90486259814023 147.83138214083482 151.75991092704203 155.69040315557467 159.62281281308438 163.5570936769031 167.49319931803933
171.43171420234583 175.3766449253254 179.32247449401038 183.26906679039172 187.21628225429254 191.1639778963586 195.11200731280718 199.06022070247653
203.00846488887805 206.95658338034104 210.9044163754833 214.85180076519381 218.7985701554829 222.7445548989012 226.6895821271384 230.6334757860056
234.57605667279435 238.51714247598932 242.4565478172978 246.00042017860056

gamma f8 [52]
00000000: a3e2 ba39 7eda f83f 6fd6 b710 a1da f83f
00000010: 7fd3 bc59 e1db f83f 2c4f a38e f5dc f83f
00000020: ef63 73cd e5dd f83f 4871 944e b8de f83f
00000030: 61b6 dcea 71df f83f f1ac 8b77 16e0 f83f
00000040: 936f d406 a9e0 f83f a6dd 1016 2ce1 f83f
00000050: bdbe 6baf a1e1 f83f 9dbd cd82 0be2 f83f
00000060: 9aa7 96f8 6ae2 f83f 3e7d dd3f c1e2 f83f
00000070: 994d 6a59 0fe3 f83f c042 4220 56e3 f83f
00000080: d3b1 6050 96e3 f83f 0c76 0d8c d0e3 f83f
00000090: 420a 2360 05e4 f83f 29a1 8147 35e4 f83f
000000a0: 6f3a ddad 60e4 f83f 3296 09f2 87e4 f83f
000000b0: 5cba de67 abe4 f83f fba7 ca59 cbe4 f83f
000000c0: 8a4d 200a e8e4 f83f 604d 30b4 01e5 f83f
000000d0: ec8a 358d 18e5 f83f 9568 1dc5 2ce5 f83f
000000e0: 000c 3287 3ee5 f83f f6c2 abfa 4de5 f83f
000000f0: 01ab 2d43 5be5 f83f 8af9 3081 66e5 f83f
00000100: 8bdc 9acf 6fe5 f83f a2c7 2038 77e5 f83f
00000110: 98c8 faeb 7ce5 f83f 1361 5a02 81e5 f83f
00000120: 7762 aa90 83e5 f83f c8db bdaa 84e5 f83f
00000130: 7952 f962 84e5 f83f c91a 77ca 82e5 f83f
00000140: c249 f26d 82e5 f83f ddc4 1ed4 8de5 f83f
00000150: 3198 2720 a6e5 f83f 55fc d4b8 cbe5 f83f
00000160: d33d 360d ffe5 f83f a0d7 fc96 40e6 f83f
00000170: 9092 4edb 90e6 f83f 3e7d a96b f0e6 f83f
00000180: d222 dde6 5fe7 f83f 2d9c 1afa dfe7 f83f
00000190: 7c4f 1d62 71e8 f83f 0c23 aaba 03e9 f83f
1.5533430342749532 1.5533762600947758 1.5536817078948102 1.5539451190752045 1.554174234907119 1.5543749875569848 1.5545519995024721 1.5547089261770533
1.5548486964025627 1.5549736844967383 1.5550858356836408 1.5551867589491402 1.5552777967918474 1.5553600783094477 1.5554345600874966 1.5555020580397212
1.5555632724527768 1.5556188078693394 1.5556691890093508 1.5557148736207387 1.5557562629288915 1.555793710192472 1.5558275277541247 1.5558579928861025
1.555885352664378 1.5559098280544603 1.5559316173536741 1.555950899105061 1.5559678345750854 1.5559825698693976 1.5559952377467996 1.5560059591803985
1.5560148343627442 1.5560218994619182 1.5560273378328358 1.5560312358775874 1.5560336733816749 1.5560347241969215 1.5560344568413298 1.5560329350279736
1.5560325903685315 1.5560434614129044 1.5560666328469888 1.5561024875639948 1.5561514392937752 1.5562139413791343 1.5562904898335184 1.5563816266583923
1.5564879434697798 1.5566100854573606 1.5567487557027269 1.5568883220277625

chi f8 [52]
00000000: 0000 0000 0000 0000 24a2 3834 b67f 29bf
00000010: 7ea8 3f14 7687 61bf 1e21 046f 28bb 70bf
00000020: 2375 ace3 44b2 78bf d623 e2b5 8754 80bf
00000030: 31d2 a285 c34f 84bf 7008 3d63 d54a 88bf
00000040: ceb8 fdd0 bc45 8cbf 873b ada8 3c20 90bf
00000050: 19f5 7833 851d 92bf ec1e 46ca b71a 94bf
00000060: 96c9 8d2e d417 96bf de51 8d9d d914 98bf
00000070: 7a28 a847 b411 9abf e6cd f5e6 570e 9cbf
00000080: bf4c c9ea c30a 9ebf f7cc 67e1 7b03 a0bf
00000090: 4f32 886f 7901 a1bf 7172 f757 5aff a1bf
000000a0: 8354 1553 1efd a2bf c330 7019 c5fa a3bf
000000b0: d255 c563 4ef8 a4bf 4e6d 01eb b9f5 a5bf
000000c0: c2df 4068 07f3 a6bf e337 d094 36f0 a7bf
000000d0: 1285 2c2a 47ed a8bf 39bd 03e2 38ea a9bf
000000e0: dd1d 3576 0be7 aabf 988c d1a0 bee3 abbf
000000f0: bdf6 1b1c 52e0 acbf 58b0 89a2 c5dc adbf
00000100: 74d2 c2ee 18d9 aebf 9798 a2bb 4bd5 afbf
00000110: cbde 1be2 ae68 b0bf d06b e261 a7e6 b0bf
00000120: cb59 e03a 8f64 b1bf c957 eb4a 66e2 b1bf
00000130: 658a f36f 2c60 b2bf 51b8 0388 e1dd b2bf
00000140: 733e 9036 175b b3bf 768c 312d 01d6 b3bf
00000150: b48f 613c 794e b4bf ae78 2ca6 7dc4 b4bf
00000160: 3608 62bb 0d38 b5bf 1154 bd62 2aa9 b5bf
00000170: 0ea7 616f d617 b6bf f2b5 dab6 0284 b6bf
00000180: f1d9 06cc 7eed b6bf dc44 9c74 4854 b7bf
00000190: 0ba6 917c 64b8 b7bf 701b d9f1 3a10 b8bf
0.0 -0.0001945409695605231 -0.0021397882683134575 -0.004084737724277225 -0.006029385661148442 -0.007973728407039287 -0.00991776229452865 -0.011861483660713129
-0.013804888847257859 -0.01574797420044718 -0.017690736071235145 -0.01963317081529585 -0.021575274793073605 -0.02351703666802673 -0.02545816123350917 -0.02739846560639405
-0.029337941365451977 -0.031276580109897915 -0.03321437345957589 -0.035151313055142526 -0.03708739055824941 -0.03902259765172424 -0.04095692603975078 -0.042890367448047514
-0.04482291362404524 -0.04675455633706329 -0.04868528737848456 -0.05061509856192931 -0.05254398172342765 -0.054471928721590845 -0.056398931437781276 -0.05832498177628115
-0.060250071664459975 -0.062174193052940634 -0.06409733791576426 -0.06601949825055375 -0.06794066607867603 -0.06986083344540285 -0.07177999242007045 -0.07369813509623781
-0.07560868341556119 -0.077484200986463 -0.07932241176746296 -0.08112321192718028 -0.0828865606763721 -0.08461251173623931 -0.08630123347543536 -0.08795182193963294
-0.08956139069673676 -0.0911298069661543 -0.09265735665544399 -0.09399765400403992

launch_angle f8 []
00000000: 0000 0000 0080 4640
45.0

duration f8 []
00000000: 0300 0000 0000 1440
5.000000000000003

alpha f8 [52]
00000000: 0000 0000 0000 0000 6cd1 0f2f 2f9d 01bf
00000010: e04f c2d5 c276 36bf 82e1 7c7c b4fc 43bf
00000020: 3f46 f35d bc9e 4bbf 1f72 bd1f 9e29 51bf
00000030: 086b 1364 7d20 54bf f8f9 5ef4 50c3 56bf
00000040: 05b9 7697 611e 59bf cf20 34af a43b 5bbf
00000050: e92f 01e1 4223 5dbf 6a73 c4c9 fbdb 5ebf
00000060: 1f45 6f71 b835 60bf 3461 3641 2feb 60bf
00000070: 9132 5be1 6390 61bf 1d5a 2f59 0c27 62bf
00000080: a08d 529c a0b0 62bf 72b2 6837 652e 63bf
00000090: 3ee9 4cdc 73a1 63bf 1519 4248 c20a 64bf
000000a0: 9c23 1de0 276b 64bf 68de 2b48 62c3 64bf
000000b0: 86c8 3f2d 1914 65bf 8ac5 1868 e15d 65bf
000000c0: 09b2 499b 3fa1 65bf 1443 c564 aade 65bf
000000d0: 7189 f836 8c16 66bf 83b1 46e9 4449 66bf
000000e0: 2894 910c 2b77 66bf 1389 030e 8da0 66bf
000000f0: a9a9 5e30 b2c5 66bf 0009 8d62 dbe6 66bf
00000100: 5b24 626b 3e04 67bf 760c 35b2 ee1d 67bf
00000110: 3d76 89a3 4e34 67bf d228 c39e 8c47 67bf
00000120: 47c0 dd75 d357 67bf 7578 48cb 4a65 67bf
00000130: 4ccd 5764 1770 67bf 8d44 f671 5b78 67bf
00000140: 78e8 002f b080 67bf 9ab6 c663 8093 67bf
00000150: c146 6236 c2b1 67bf 76b0 46c2 b2db 67bf
00000160: 1482 ebc9 9511 68bf 18a6 6915 b953 68bf
00000170: 0c64 7110 75a2 68bf 1d21 ec77 2dfe 68bf
00000180: 6e3c ea1b 5267 69bf 7053 fab6 5fde 69bf
00000190: 1b4d 3fdc e063 6abf b5b7 08e4 e1e8 6abf
0.0 -3.359604114186701e-05 -0.00034277207101607136 -0.0006099587708155304 -0.0008428973923406204 -0.0010475200824294829 -0.0012284492989269053 -0.0013893404552472993
-0.001533122352934736 -0.001662169289206306 -0.0017784264673705813 -0.0018835028523149452 -0.0019787409214379183 -0.002065269750982557 -0.0021440459048334766 -0.0022158852748177652
-0.0022814881254633185 -0.002341458977090754 -0.002396322527059485 -0.0024465365004885478 -0.002492502099731243 -0.002534572560190008 -0.002573060201023716 -0.0026082422707751117
-0.0026403658214830855 -0.0026696517944987484 -0.0026962984627669153 -0.0027204843447263274 -0.0027423706820166767 -0.0027621035552424316 -0.002779815697939021 -0.0027956280577267067
-0.0028096408014488933 -0.002821890071261597 -0.002832559195936195 -0.0028417345512013826 -0.0028494958959797453 -0.002855917055298691 -0.002861066520148425 -0.0028650079763755166
-0.0028689805112920817 -0.002877951394302536 -0.002892379113355798 -0.0029123774895279354 -0.0029380727349777123 -0.0029696097292812966 -0.0030071531687494487 -0.003050888829765465
-0.0031010249798054034 -0.0031577939442492473 -0.0032214538386853404 -0.0032848751000278073

beta f8 [52]
00000000: 0000 0000 0000 0000 0000 0000 0000 0000
00000010: 0000 0000 0000 0000 0000 0000 0000 0000
00000020: 0000 0000 0000 0000 0000 0000 0000 0000
00000030: 0000 0000 0000 0000 0000 0000 0000 0000
00000040: 0000 0000 0000 0000 0000 0000 0000 0000
00000050: 0000 0000 0000 0000 0000 0000 0000 0000
00000060: 0000 0000 0000 0000 0000 0000 0000 0000
00000070: 0000 0000 0000 0000 0000 0000 0000 0000
00000080: 0000 0000 0000 0000 0000 0000 0000 0000
00000090: 0000 0000 0000 0000 0000 0000 0000 0000
000000a0: 0000 0000 0000 0000 0000 0000 0000 0000
000000b0: 0000 0000 0000 0000 0000 0000 0000 0000
000000c0: 0000 0000 0000 0000 0000 0000 0000 0000
000000d0: 0000 0000 0000 0000 0000 0000 0000 0000
000000e0: 0000 0000 0000 0000 0000 0000 0000 0000
000000f0: 0000 0000 0000 0000 0000 0000 0000 0000
00000100: 0000 0000 0000 0000 0000 0000 0000 0000
00000110: 0000 0000 0000 0000 0000 0000 0000 0000
00000120: 0000 0000 0000 0000 0000 0000 0000 0000
00000130: 0000 0000 0000 0000 0000 0000 0000 0000
00000140: 0000 0000 0000 0000 0000 0000 0000 0000
00000150: 0000 0000 0000 0000 0000 0000 0000 0000
00000160: 0000 0000 0000 0000 0000 0000 0000 0000
00000170: 0000 0000 0000 0000 0000 0000 0000 0000
00000180: 0000 0000 0000 0000 0000 0000 0000 0000
00000190: 0000 0000 0000 0000 0000 0000 0000 0000
0.0 0.0 0.0 0.0 0.0 0.0 0.0 0.0
0.0 0.0 0.0 0.0 0.0 0.0 0.0 0.0
0.0 0.0 0.0 0.0 0.0 0.0 0.0 0.0
0.0 0.0 0.0 0.0 0.0 0.0 0.0 0.0
0.0 0.0 0.0 0.0 0.0 0.0 0.0 0.0
0.0 0.0 0.0 0.0 0.0 0.0 0.0 0.0
0.0 0.0 0.0 0.0

mach f8 [52]
00000000: d3d2 d2d2 d2d2 c23f 02ba bbdd 0ef8 c23f
00000010: 78d0 c8f6 906c c43f ea08 5d1f 5ee1 c53f
00000020: 7ed5 4a55 7556 c73f 5f83 0b96 d5cb c83f
00000030: d9ac 66de 7d41 ca3f d703 362a 6db7 cb3f
00000040: b2a0 3b74 a22d cd3f 21bb 04b6 1ca4 ce3f
00000050: 4a74 ea73 6d0d d03f 63aa 4b00 eec8 d03f
00000060: b820 ea7a 8f84 d13f b9d2 d45d 5140 d23f
00000070: 200f 6322 33fc d23f cfd1 3241 34b8 d33f
00000080: 66cb 2732 5474 d43f 86f1 6a6c 9230 d53f
00000090: 947c 6a66 eeec d53f 233f da95 67a9 d63f
000000a0: 1548 b46f fd65 d73f 5ac4 3968 af22 d83f
000000b0: 1218 f4f2 7cdf d83f 7a28 b682 659c d93f
000000c0: 36d2 9d89 6859 da3f 0e88 1579 8516 db3f
000000d0: 9117 d6c1 bbd3 db3f 7591 e8d3 0a91 dc3f
000000e0: 4154 a81e 724e dd3f 2038 c510 f10b de3f
000000f0: 00db 4518 87c9 de3f b20c 8aa2 3387 df3f
00000100: e3d3 acf2 7e22 e03f c350 e5a6 8b81 e03f
00000110: d831 6ce6 9de0 e03f 502e 52da b43f e13f
00000120: f48d 38a6 cf9e e13f 7669 5668 edfd e13f
00000130: b3a0 7e39 0d5d e23f 0abf 262d 2ebc e23f
00000140: 63e5 6f51 4f1b e33f 301a 3faf 6f7a e33f
00000150: 857f 3f4a 8ed9 e33f 4b20 e320 aa38 e43f
00000160: d52c 6c2c c297 e43f 42ae f960 d5f6 e43f
00000170: e0b3 94ad e255 e53f 5077 3efc e8b4 e53f
00000180: 8776 ff31 e713 e63f 6c81 f72e dc72 e63f
00000190: 38b7 6ece c6d1 e63f 3be1 a0be 2927 e73f
0.14705882352941177 0.1481951315576709 0.15956317949315113 0.17094017535607203 0.18232599892295903 0.19372052980818474 0.2051236473028897 0.2165352302654628
0.22795515704570374 0.2393833054315673 0.25081955261140776 0.2622637751470959 0.27371584895491763 0.2851756492921527 0.29664305074787656 0.30811792723696113
0.3196001519965449 0.3310895975844449 0.3425861358791249 0.3540896380809377 0.365599974714429 0.37711701563154565 0.38864063001563054 0.4001706863861113
0.41170705260381923 0.42324959587688304 0.43479818276716126 0.4463526791971824 0.4579129504575726 0.4694788612149541 0.4810502755203032 0.49262705681776275
0.5042109241245466 0.5158136615450747 0.5274190426294423 0.5390266670305639 0.550636124277331 0.5622469938128194 0.5738588450376682 0.5854712373602251
0.597083720261406 0.6086958334715913 0.6203071069867155 0.6319170610740995 0.6435252063396556 0.6551310438202977 0.6667340650798188 0.6783337523117812
0.6899295784493952 0.7015210072823215 0.7131074935802877 0.7235306475841193
