yeonu/results_6dof/SCUD-B_45.0deg_20251219_205544.npz (npz, 741179 bytes, 22 tensors)

time f8 [7054]
00000000: 0000 0000 0000 0000 7b14 ae47 e17a 843f
00000010: 295c 8fc2 f528 bc3f e27a 14ae 47e1 ca3f
00000020: d8a3 703d 0ad7 d33f 3e0a d7a3 703d da3f
00000030: 52b8 1e85 eb51 e03f 85eb 51b8 1e85 e33f
00000040: b81e 85eb 51b8 e63f eb51 b81e 85eb e93f
00000050: 1e85 eb51 b81e ed3f 295c 8fc2 f528 f03f
00000060: c3f5 285c 8fc2 f13f 5d8f c2f5 285c f33f
00000070: f728 5c8f c2f5 f43f 91c2 f528 5c8f f63f
00000080: 2b5c 8fc2 f528 f83f c5f5 285c 8fc2 f93f
00000090: 5f8f c2f5 285c fb3f f928 5c8f c2f5 fc3f
000000a0: 93c2 f528 5c8f fe3f 16ae 47e1 7a14 0040
000000b0: e37a 14ae 47e1 0040 b047 e17a 14ae 0140
000000c0: 7d14 ae47 e17a 0240 4ae1 7a14 ae47 0340
000000d0: 17ae 47e1 7a14 0440 e47a 14ae 47e1 0440
000000e0: b147 e17a 14ae 0540 7e14 ae47 e17a 0640
000000f0: 4be1 7a14 ae47 0740 18ae 47e1 7a14 0840
00000100: e57a 14ae 47e1 0840 b247 e17a 14ae 0940
00000110: 7f14 ae47 e17a 0a40 4ce1 7a14 ae47 0b40
00000120: 19ae 47e1 7a14 0c40 e67a 14ae 47e1 0c40
00000130: b347 e17a 14ae 0d40 8014 ae47 e17a 0e40
00000140: 4de1 7a14 ae47 0f40 0dd7 a370 3d0a 1040
00000150: 733d 0ad7 a370 1040 d9a3 703d 0ad7 1040
00000160: 3f0a d7a3 703d 1140 a570 3d0a d7a3 1140
00000170: 0bd7 a370 3d0a 1240 713d 0ad7 a370 1240
00000180: d7a3 703d 0ad7 1240 3d0a d7a3 703d 1340
00000190: a370 3d0a d7a3 1340 09d7 a370 3d0a 1440
000001a0: 6f3d 0ad7 a370 1440 d5a3 703d 0ad7 1440
000001b0: 3b0a d7a3 703d 1540 a170 3d0a d7a3 1540
000001c0: 07d7 a370 3d0a 1640 6d3d 0ad7 a370 1640
000001d0: d3a3 703d 0ad7 1640 390a d7a3 703d 1740
000001e0: 9f70 3d0a d7a3 1740 05d7 a370 3d0a 1840
000001f0: 6b3d 0ad7 a370 1840 d1a3 703d 0ad7 1840
00000200: 370a d7a3 703d 1940 9d70 3d0a d7a3 1940
00000210: 03d7 a370 3d0a 1a40 693d 0ad7 a370 1a40
00000220: cfa3 703d 0ad7 1a40 350a d7a3 703d 1b40
00000230: 9b70 3d0a d7a3 1b40 01d7 a370 3d0a 1c40
00000240: 673d 0ad7 a370 1c40 cda3 703d 0ad7 1c40
00000250: 330a d7a3 703d 1d40 9970 3d0a d7a3 1d40
00000260: ffd6 a370 3d0a 1e40 653d 0ad7 a370 1e40
00000270: cba3 703d 0ad7 1e40 310a d7a3 703d 1f40
00000280: 9770 3d0a d7a3 1f40 7feb 51b8 1e05 2040
00000290: b21e 85eb 5138 2040 e551 b81e 856b 2040
000002a0: 1885 eb51 b89e 2040 4bb8 1e85 ebd1 2040
000002b0: 7eeb 51b8 1e05 2140 b11e 85eb 5138 2140
000002c0: e451 b81e 856b 2140 1785 eb51 b89e 2140
000002d0: 4ab8 1e85 ebd1 2140 7deb 51b8 1e05 2240
000002e0: b01e 85eb 5138 2240 e351 b81e 856b 2240
000002f0: 1685 eb51 b89e 2240 49b8 1e85 ebd1 2240
00000300: 7ceb 51b8 1e05 2340 af1e 85eb 5138 2340
00000310: e251 b81e 856b 2340 1585 eb51 b89e 2340
00000320: 48b8 1e85 ebd1 2340 7beb 51b8 1e05 2440
00000330: ae1e 85eb 5138 2440 e151 b81e 856b 2440
00000340: 1485 eb51 b89e 2440 47b8 1e85 ebd1 2440
00000350: 7aeb 51b8 1e05 2540 ad1e 85eb 5138 2540
00000360: e051 b81e 856b 2540 1385 eb51 b89e 2540
00000370: 46b8 1e85 ebd1 2540 79eb 51b8 1e05 2640
00000380: ac1e 85eb 5138 2640 df51 b81e 856b 2640
00000390: 1285 eb51 b89e 2640 45b8 1e85 ebd1 2640
000003a0: 78eb 51b8 1e05 2740 ab1e 85eb 5138 2740
000003b0: de51 b81e 856b 2740 1185 eb51 b89e 2740
000003c0: 44b8 1e85 ebd1 2740 77eb 51b8 1e05 2840
000003d0: aa1e 85eb 5138 2840 dd51 b81e 856b 2840
000003e0: 1085 eb51 b89e 2840 43b8 1e85 ebd1 2840
000003f0: 76eb 51b8 1e05 2940 a91e 85eb 5138 2940
00000400: dc51 b81e 856b 2940 0f85 eb51 b89e 2940
00000410: 42b8 1e85 ebd1 2940 75eb 51b8 1e05 2a40
00000420: a81e 85eb 5138 2a40 db51 b81e 856b 2a40
00000430: 0e85 eb51 b89e 2a40 41b8 1e85 ebd1 2a40
00000440: 74eb 51b8 1e05 2b40 a71e 85eb 5138 2b40
00000450: da51 b81e 856b 2b40 0d85 eb51 b89e 2b40
00000460: 40b8 1e85 ebd1 2b40 73eb 51b8 1e05 2c40
00000470: a61e 85eb 5138 2c40 d951 b81e 856b 2c40
00000480: 0c85 eb51 b89e 2c40 3fb8 1e85 ebd1 2c40
00000490: 72eb 51b8 1e05 2d40 a51e 85eb 5138 2d40
000004a0: d851 b81e 856b 2d40 0b85 eb51 b89e 2d40
000004b0: 3eb8 1e85 ebd1 2d40 71eb 51b8 1e05 2e40
000004c0: a41e 85eb 5138 2e40 d751 b81e 856b 2e40
000004d0: 0a85 eb51 b89e 2e40 3db8 1e85 ebd1 2e40
000004e0: 70eb 51b8 1e05 2f40 a31e 85eb 5138 2f40
000004f0: d651 b81e 856b 2f40 0985 eb51 b89e 2f40
00000500: 3cb8 1e85 ebd1 2f40 b8f5 285c 8f02 3040
00000510: 528f c2f5 281c 3040 ec28 5c8f c235 3040
00000520: 86c2 f528 5c4f 3040 205c 8fc2 f568 3040
00000530: baf5 285c 8f82 3040 548f c2f5 289c 3040
00000540: ee28 5c8f c2b5 3040 88c2 f528 5ccf 3040
00000550: 225c 8fc2 f5e8 3040 bcf5 285c 8f02 3140
00000560: 568f c2f5 281c 3140 f028 5c8f c235 3140
00000570: 8ac2 f528 5c4f 3140 245c 8fc2 f568 3140
00000580: bef5 285c 8f82 3140 588f c2f5 289c 3140
00000590: f228 5c8f c2b5 3140 8cc2 f528 5ccf 3140
000005a0: 265c 8fc2 f5e8 3140 c0f5 285c 8f02 3240
000005b0: 5a8f c2f5 281c 3240 f428 5c8f c235 3240
000005c0: 8ec2 f528 5c4f 3240 285c 8fc2 f568 3240
000005d0: c2f5 285c 8f82 3240 5c8f c2f5 289c 3240
000005e0: f628 5c8f c2b5 3240 90c2 f528 5ccf 3240
000005f0: 2a5c 8fc2 f5e8 3240 c4f5 285c 8f02 3340
00000600: 5e8f c2f5 281c 3340 f828 5c8f c235 3340
00000610: 92c2 f528 5c4f 3340 2c5c 8fc2 f568 3340
00000620: c6f5 285c 8f82 3340 608f c2f5 289c 3340
00000630: fa28 5c8f c2b5 3340 94c2 f528 5ccf 3340
00000640: 2e5c 8fc2 f5e8 3340 c8f5 285c 8f02 3440
00000650: 628f c2f5 281c 3440 fc28 5c8f c235 3440
00000660: 96c2 f528 5c4f 3440 305c 8fc2 f568 3440
00000670: caf5 285c 8f82 3440 648f c2f5 289c 3440
00000680: fe28 5c8f c2b5 3440 98c2 f528 5ccf 3440
00000690: 325c 8fc2 f5e8 3440 ccf5 285c 8f02 3540
000006a0: 668f c2f5 281c 3540 0029 5c8f c235 3540
000006b0: 9ac2 f528 5c4f 3540 345c 8fc2 f568 3540
000006c0: cef5 285c 8f82 3540 688f c2f5 289c 3540
000006d0: 0229 5c8f c2b5 3540 9cc2 f528 5ccf 3540
000006e0: 365c 8fc2 f5e8 3540 d0f5 285c 8f02 3640
000006f0: 6a8f c2f5 281c 3640 0429 5c8f c235 3640
00000700: 9ec2 f528 5c4f 3640 385c 8fc2 f568 3640
00000710: d2f5 285c 8f82 3640 6c8f c2f5 289c 3640
00000720: 395c 8fc2 f5a8 3640 ba8b bffd 4eaa 3640
00000730: a8d4 d366 a1ae 3640 8d75 ef0a 10af 3640
00000740: 7216 0baf 7eaf 3640 1018 97af 4ab0 3640
00000750: a043 eab3 ddb6 3640 ac12 d26b a2c1 3640
00000760: afbc c6a2 5dd1 3640 4956 603c f7ea 3640
00000770: e3ef f9d5 9004 3740 7d89 936f 2a1e 3740
00000780: 1723 2d09 c437 3740 b1bc c6a2 5d51 3740
00000790: 4b56 603c f76a 3740 6a2f 2c07 5b77 3740
000007a0: f62c fdd5 f578 3740 2a93 55b3 1679 3740
000007b0: 925f 066e 5879 3740 fa2b b728 9a79 3740
000007c0: 0a28 9f73 2b7c 3740 a4c1 380d c595 3740
000007d0: 3e5b d2a6 5eaf 3740 d8f4 6b40 f8c8 3740
000007e0: 728e 05da 91e2 3740 0c28 9f73 2bfc 3740
000007f0: a6c1 380d c515 3840 405b d2a6 5e2f 3840
0.0 0.01 0.11 0.21000000000000002 0.31000000000000005 0.41000000000000003 0.51 0.61
0.71 0.8099999999999999 0.9099999999999999 1.01 1.11 1.2100000000000002 1.3100000000000003 1.4100000000000004
1.5100000000000005 1.6100000000000005 1.7100000000000006 1.8100000000000007 1.9100000000000008 2.0100000000000007 2.1100000000000008 2.210000000000001
2.310000000000001 2.410000000000001 2.510000000000001 2.610000000000001 2.7100000000000013 2.8100000000000014 2.9100000000000015 3.0100000000000016
3.1100000000000017 3.2100000000000017 3.310000000000002 3.410000000000002 3.510000000000002 3.610000000000002 3.710000000000002 3.8100000000000023
3.9100000000000024 4.0100000000000025 4.110000000000002 4.210000000000002 4.310000000000001 4.410000000000001 4.510000000000001 4.61
4.71 4.81 4.909999999999999 5.009999999999999 5.1099999999999985 5.209999999999998 5.309999999999998 5.4099999999999975
5.509999999999997 5.609999999999997 5.709999999999996 5.809999999999996 5.909999999999996 6.009999999999995 6.109999999999995 6.209999999999995
6.309999999999994 6.409999999999994 6.509999999999994 6.609999999999993 6.709999999999993 6.8099999999999925 6.909999999999992 7.009999999999992
7.109999999999991 7.209999999999991 7.309999999999991 7.40999999999999 7.50999999999999 7.60999999999999 7.709999999999989 7.809999999999989
7.909999999999989 8.00999999999999 8.109999999999989 8.209999999999988 8.309999999999988 8.409999999999988 8.509999999999987 8.609999999999987
8.709999999999987 8.809999999999986 8.909999999999986 9.009999999999986 9.109999999999985 9.209999999999985 9.309999999999985 9.409999999999984
9.509999999999984 9.609999999999983 9.709999999999983 9.809999999999983 9.909999999999982 10.009999999999982 10.109999999999982 10.209999999999981
10.309999999999981 10.40999999999998 10.50999999999998 10.60999999999998 10.70999999999998 10.80999999999998 10.909999999999979 11.009999999999978
11.109999999999978 11.209999999999978 11.309999999999977 11.409999999999977 11.509999999999977 11.609999999999976 11.709999999999976 11.809999999999976
11.909999999999975 12.009999999999975 12.109999999999975 12.209999999999974 12.309999999999974 12.409999999999973 12.509999999999973 12.609999999999973
12.709999999999972 12.809999999999972 12.909999999999972 13.009999999999971 13.109999999999971 13.20999999999997 13.30999999999997 13.40999999999997
13.50999999999997 13.60999999999997 13.709999999999969 13.809999999999969 13.909999999999968 14.009999999999968 14.109999999999967 14.209999999999967
14.309999999999967 14.409999999999966 14.509999999999966 14.609999999999966 14.709999999999965 14.809999999999965 14.909999999999965 15.009999999999964
15.109999999999964 15.209999999999964 15.309999999999963 15.409999999999963 15.509999999999962 15.609999999999962 15.709999999999962 15.809999999999961
15.909999999999961 16.009999999999962 16.109999999999964 16.209999999999965 16.309999999999967 16.409999999999968 16.50999999999997 16.60999999999997
16.709999999999972 16.809999999999974 16.909999999999975 17.009999999999977 17.109999999999978 17.20999999999998 17.30999999999998 17.409999999999982
17.509999999999984 17.609999999999985 17.709999999999987 17.809999999999988 17.90999999999999 18.00999999999999 18.109999999999992 18.209999999999994
18.309999999999995 18.409999999999997 18.509999999999998 18.61 18.71 18.810000000000002 18.910000000000004 19.010000000000005
19.110000000000007 19.210000000000008 19.31000000000001 19.41000000000001 19.510000000000012 19.610000000000014 19.710000000000015 19.810000000000016
19.910000000000018 20.01000000000002 20.11000000000002 20.210000000000022 20.310000000000024 20.410000000000025 20.510000000000026 20.610000000000028
20.71000000000003 20.81000000000003 20.910000000000032 21.010000000000034 21.110000000000035 21.210000000000036 21.310000000000038 21.41000000000004
21.51000000000004 21.610000000000042 21.710000000000043 21.810000000000045 21.910000000000046 22.010000000000048 22.11000000000005 22.21000000000005
22.310000000000052 22.410000000000053 22.510000000000055 22.610000000000056 22.660000000000057 22.665267810119737 22.682150294033505 22.683838542424883
22.68552679081626 22.688639616382773 22.714320416158102 22.756384600436533 22.81783501960734 22.91783501960734 23.017835019607343 23.117835019607345
23.217835019607346 23.317835019607347 23.41783501960735 23.466232727324872 23.472501158056694 23.47300263251524 23.47400558143233 23.47500853034942
23.485038019520324 23.585038019520326 23.685038019520327 23.78503801952033 23.88503801952033 23.98503801952033 24.085038019520333 24.185038019520334

position_x f8 [7054]
00000000: 0000 0000 0000 0000 48cd d1aa 2a60 a63f
00000010: 058b c15f bda4 df3f 81eb 860c d20a ef3f
00000020: 137f 94a4 ab87 f73f 4bc1 1125 f3ef ff3f
00000030: 099a 4614 1d5f 0440 85bf adff 3cf9 0840
00000040: 5ed2 2b55 55c6 0d40 a9cf 02b7 3063 1140
00000050: edca 7efe adfc 1340 3b24 8687 9faf 1640
00000060: 9a82 1506 027c 1940 d739 18dc d161 1c40
00000070: 2492 df19 0b61 1f40 917e 51bf d43c 2140
00000080: 0096 843c d4d5 2240 9ffc dc93 817b 2440
00000090: a08b fc2c da2d 2640 d0b9 2448 dbec 2740
000000a0: ef9e 8cfe 81b8 2940 453f bb42 cb90 2b40
000000b0: 6915 e6e0 b375 2d40 55cf 537f 3867 2f40
000000c0: aa99 61cf aab2 3040 4210 6bcd 03b8 3140
000000d0: f94e 4055 a5c3 3240 57f5 3d70 8dd5 3340
000000e0: 3ac0 de15 baed 3440 e5fc f82b 290c 3640
000000f0: ece5 fd86 d830 3740 bce1 3aea c55b 3840
00000100: 289a 1c08 ef8c 3940 1ce4 7382 51c4 3a40
00000110: 296e bcea ea01 3c40 652c 65c2 b845 3d40
00000120: b777 1a7b b88f 3e40 5bd6 1177 e7df 3f40
00000130: 94b1 ab84 219b 4040 6064 0e3b 6449 4140
00000140: d5e2 8479 bafa 4140 f416 c7d3 22af 4240
00000150: 3aaf 9ad6 9b66 4340 698b fd07 2421 4440
00000160: 3ad6 50e7 b9de 4440 ddc5 84ed 5b9f 4540
00000170: eefc 448d 0863 4640 8485 2533 be29 4740
00000180: c85f d045 7bf3 4740 929d 3326 3ec0 4840
00000190: 4304 b02f 0590 4940 232e 48b8 ce62 4a40
000001a0: 6924 d010 9938 4b40 f56a 1d85 6211 4c40
000001b0: c976 375c 29ed 4c40 2988 88d8 ebcb 4d40
000001c0: 4ce1 0e38 a8ad 4e40 7652 8eb4 5c92 4f40
000001d0: 220a e1c1 033d 5040 7974 c76b 53b2 5040
000001e0: aabe 1a6f 1c29 5140 f4e1 7004 5ea1 5140
000001f0: 7757 cccc 171b 5240 c7d7 12d7 4896 5240
00000200: f057 3324 f012 5340 95c4 e9b2 0c91 5340
00000210: aae1 d47f 9d10 5440 4438 8c85 a191 5440
00000220: 3d0f b6bc 1714 5540 326b 1d1c ff97 5540
00000230: 7212 c898 561d 5640 7a91 0c26 1da4 5640
00000240: 943c a8b5 512c 5740 402b d537 f3b5 5740
00000250: 152a 609b 0041 5840 fc03 a0cd 78cd 5840
00000260: 5e69 a26d 5e5b 5940 9915 1072 bfea 5940
00000270: e1ed 614b ac7b 5a40 6cd4 9b11 360e 5b40
00000280: a099 228d 6ea2 5b40 8775 f73c 6838 5c40
00000290: 0fd3 5c5d 36d0 5c40 aefb eaee ec69 5d40
000002a0: 0af9 19be a005 5e40 7e3d 466b 67a3 5e40
000002b0: 69e3 3573 5743 5f40 3c96 2438 88e5 5f40
000002c0: 953f ae05 0945 6040 2e6d b11b 8798 6040
000002d0: 7294 5f85 4bed 6040 a023 b2f1 6343 6140
000002e0: 2b84 619d de9a 6140 d328 4759 caf3 6140
000002f0: 658b 1c91 364e 6240 4d7c 9b52 33aa 6240
00000300: ae5b 0455 d107 6340 aa0b 0f01 2267 6340
00000310: eaa5 4b79 37c8 6340 4e3b f8a2 242b 6440
00000320: e023 512f fd8f 6440 9ea6 61a5 d5f6 6440
00000330: 7804 5b6c c35f 6540 a937 78d6 dcca 6540
00000340: 2e00 752c 3938 6640 901f 9fb9 f0a7 6640
00000350: e3f0 88d8 1c1a 6740 e7b9 f2fe d78e 6740
00000360: be62 7fca 3d06 6840 3705 ab11 6b80 6840
00000370: ba1e 89f3 7dfd 6840 7c18 0ae8 957d 6940
00000380: 8880 12d1 d300 6a40 6612 6d0c 5a87 6a40
00000390: 3de9 a086 4c11 6b40 cd6b b5ce d09e 6b40
000003a0: c3b0 ed2a 0e30 6c40 3c3d 85ae 2dc5 6c40
000003b0: 3815 7850 5a5e 6d40 701b 6003 c1fb 6d40
000003c0: 8caf 71ce 909d 6e40 7353 a1e7 fa43 6f40
000003d0: 13dd fbce 32ef 6f40 2c2a 9d35 b74f 7040
000003e0: 2207 cd13 73aa 7040 7f6b 8089 ea07 7140
000003f0: 0402 3a80 3c68 7140 0d06 7454 89cb 7140
00000400: 6d5b 36e7 f231 7240 8e07 5cb0 9c9b 7240
00000410: f9f6 87d1 ab08 7340 1491 c729 4779 7340
00000420: d1e8 df69 97ed 7340 1650 4029 c765 7440
00000430: 1da7 92fb 02e2 7440 ca75 0988 7962 7540
00000440: 1770 c9b8 5be7 7540 4f58 21d9 dc70 7640
00000450: 986b 5c94 32ff 7640 cfbe 260d 9592 7740
00000460: 1a45 51f6 3e2b 7840 5a07 a1ab 6dc9 7840
00000470: cdf0 774a 616d 7940 e1de 1bca 5c17 7a40
00000480: 6dd1 5413 a6c7 7a40 ca5e 0d17 867e 7b40
00000490: fba4 90e3 483c 7c40 0f84 eeb7 3d01 7d40
000004a0: 3ea2 f914 b7cd 7d40 5727 3acb 0aa2 7e40
000004b0: 69ce 1305 927e 7f40 c9af 1ea6 d431 8040
000004c0: a723 c144 d8a8 8040 5b1a ce7e 8524 8140
000004d0: 85de e098 0fa5 8140 2a9d 276f ab2a 8240
000004e0: 43d4 d762 8fb5 8240 e9a7 b140 f345 8340
000004f0: 165a 581f 10dc 8340 f352 1834 2078 8440
00000500: 0bc9 7f9c 5e1a 8540 bcc3 f51a 07c3 8540
00000510: d092 3bc4 5572 8640 66b4 7e9b 8628 8740
00000520: e970 541a d5e5 8740 7366 a5a1 7baa 8840
00000530: 6a5b 36d0 b276 8940 7bff 1dbb b04a 8a40
00000540: f268 1604 a826 8b40 0a9a 37c9 c60a 8c40
00000550: cfc6 4969 35f7 8c40 8274 8717 15ec 8d40
00000560: 9767 ac48 7fe9 8e40 32ab 2daa 8aef 8f40
00000570: e6c1 6ee2 207f 9040 7254 5726 ce0a 9140
00000580: e930 18a8 be9a 9140 3026 89c2 d82e 9240
00000590: b679 9fcb f6c6 9240 3c3a 6741 e662 9340
000005a0: 1d50 3600 6702 9440 5521 5b86 2aa5 9440
000005b0: 246c fb49 d34a 9540 7b48 4726 f4f2 9540
000005c0: 075a 8de5 0f9d 9640 9305 1dee 9848 9740
000005d0: 1b65 3618 f1f4 9740 16af 89b3 69a1 9840
000005e0: f433 f4c2 434d 9940 27c5 3a75 b0f7 9940
000005f0: 2076 72e1 d19f 9a40 f9b7 920d bc44 9b40
00000600: 16be 4745 76e5 9b40 654a 82c6 fc80 9c40
00000610: 2d83 6ac8 4216 9d40 b251 3ee0 34a4 9d40
00000620: 566f 39c6 bb29 9e40 1e26 e77a bfa5 9e40
00000630: 5417 27cb 2a17 9f40 14fe bc2e ef7c 9f40
00000640: 04ff 78fa 08d6 9f40 5590 f4ed c110 a040
00000650: b5aa 90c8 3f2f a040 b38f c865 1a46 a040
00000660: a949 9714 fd54 a040 0ef3 cb95 a45b a040
00000670: 9275 ab88 e159 a040 052c 2db9 9a4f a040
00000680: 89dd 173f cf3c a040 82c2 5f5c 9821 a040
00000690: e7ff 6f11 56fc 9f40 e9c4 cb30 b2a5 9f40
000006a0: eaed 31da 2340 9f40 67a5 c341 c5cc 9e40
000006b0: 5576 b83a eb4c 9e40 fd4c 7827 23c2 9d40
000006c0: 561d 3b9b 2f2e 9d40 4fad 5ca4 0393 9c40
000006d0: 183f eabe bcf2 9b40 2161 0678 9b4f 9b40
000006e0: 3f3a 68d4 faab 9a40 aeab 4696 460a 9a40
000006f0: aee8 3589 f06c 9940 f718 9f04 65d6 9840
00000700: 8476 36df fe48 9840 8daa cc16 fbc6 9740
00000710: 4710 9977 6c52 9740 44b9 2194 2fed 9640
00000720: 2003 e110 d3c0 9640 b946 f796 67bc 9640
00000730: fed5 056a 92ae 9640 ea89 2b77 37ad 9640
00000740: ec23 93d3 ddab 9640 2014 0cf8 63a9 9640
00000750: 6156 53f0 a195 9640 c560 b611 e377 9640
00000760: ce84 3585 6a52 9640 0b06 05a1 1425 9640
00000770: d108 91b6 990b 9640 b618 23fb 2c06 9640
00000780: e9e2 00cb 9b14 9640 0c68 43a0 4c36 9640
00000790: a823 f268 406a 9640 9a77 04ae 8e89 9640
000007a0: 6586 4a67 e48d 9640 422b dae0 3d8e 9640
000007b0: 061a 0c23 f18e 9640 4d8e 63ca a48f 9640
000007c0: 215c ab60 be96 9640 2040 7b94 4fe5 9640
000007d0: 9b6b 8fa1 9240 9740 12ea d2c5 5ca6 9740
000007e0: 0a2b b939 6a14 9840 0685 3c48 6b88 9840
000007f0: d4d0 393b 1000 9940 5613 cf28 1479 9940
0.0 0.04370244345855184 0.4944299159162003 0.9700708622616362 1.4706226757916212 1.9960814903279978 2.5464421829267434 3.121698377122757
3.7218424467085205 4.34686552004488 4.996757484902202 5.67150699383006 6.371101470053555 7.095527113894113 7.844768909712489 8.618810633371398
9.417634860215003 10.241222973562172 11.089555173710153 11.962610487445005 12.860366778054837 13.782800755841558 14.729887989126569 15.701602915745449
16.697918855026423 17.71880802024703 18.764241531563105 19.834189429403832 20.928620688326397 22.047503231323294 23.190803944575165 24.35848869264167
25.550522334082558 26.76686873750087 28.007490797999854 29.272350454044858 30.561408704721284 31.874625627379242 33.21196039565544 34.57337129786242
35.95881575573518 37.36825034352469 38.80163080742791 40.25891208534342 41.74004832694159 43.2449929140382 44.77369848125987 46.32611693698985
47.90219948458213 49.5018966438321 51.12515827269137 52.77193358921456 54.442171193725535 56.13581909119049 57.8528247137852 59.59313494364353
61.356696135774285 63.14345414113352 64.95335432983896 66.78634161451363 68.6423604737453 70.52136336349196 72.42332763629189 74.3481958087933
76.29590706838621 78.2664000780954 80.25961299695214 82.27548350041712 84.31394880084277 86.3749456679623 88.45841044939314 90.56427909114237
92.69248715810164 94.84296985451965 97.01566204443982 99.21049824358482 101.4276384435702 103.6679349095415 105.93239101947212 108.22205009668113
110.537997516431 112.88136219182898 115.25331815781486 117.65508625934191 120.08793594871909 122.553187197298 125.05221252691776 127.58643916676459
130.15735134156117 132.76649269727335 135.4154688708109 138.10595021050267 140.83967465444707 143.61845077417692 146.44416099143123 149.31876497619888
152.24430323458859 155.2229008954867 158.2567717053892 161.34822224123712 164.49965635154422 167.71357983658248 170.9926053788838 174.33945773582425
177.75697920657825 181.2481353862645 184.8160212206486 188.46386668593843 192.19504284744283 196.01306994821945 199.9216249158979 203.9245491215878
208.02585652936637 212.2297422533331 216.54059153964945 220.96298919137772 225.50172945426866 230.16182638190537 234.94852469876946 239.86731117983754
244.92392656521076 250.1243780280016 255.47495221321205 260.982228864598 266.6530950554753 272.4947600380328 278.51477072390867 284.7210278064893
291.1218025325132 297.72575412701633 304.54194787131524 311.5798738284659 318.8494662043059 326.36112332460596 334.1257281998276 342.1546707505737
350.4598930233637 359.0539180090463 367.94984851934123 377.1613894952288 386.7028716253859 396.5892750063118 406.8362526593381 417.46015368353807
428.47804577953394 439.9077368280674 451.7677951479124 464.0775679890657 476.85719773781955 490.12763521877554 503.91064937340576 518.2288324735065
533.1055998887067 548.5651832677644 564.6326158111484 581.333708104595 598.6950127469685 616.7437757377021 635.5078722860806 655.015724363357
675.2961969359616 696.3784693909033 718.2918781904391 741.0657262705615 764.7290541264493 789.3103669092073 814.8373111960075 841.3362943976966
868.8320390463616 897.3470634788403 926.9010797275349 957.5102987844878 989.1871503323663 1021.9427074020261 1055.7821137719961 1090.7013181348125
1126.6861881046154 1163.7116795949514 1201.741011134914 1240.7248588685316 1280.600586746826 1321.2915281523794 1362.7063369068865 1404.7384272706975
1447.2655241094778 1490.1493458304074 1533.2354439257822 1576.353223944961 1619.316173377677 1661.9223221953232 1703.954961574993 1745.1836455273426
1785.3654986581582 1824.2468510015399 1861.5652176516116 1897.0516366708148 1930.4333733534054 1961.4369922749534 1989.791790591048 2015.2335767297818
2037.5087679772996 2056.378768580073 2071.6245770653136 2083.051557796041 2090.4942977216165 2093.821455357952 2092.9404958325404 2087.8021940342173
2078.404778238099 2064.797579758161 2047.0840508937779 2025.4240142668662 2000.0350120355092 1971.1926336831764 1939.229716188643 1904.534330253314
1867.5464905964523 1828.7535566788463 1788.6843220330247 1747.9018250462325 1706.9949508939314 1666.5689326326642 1627.2348984168307 1589.5986504420268
1554.2488983640515 1521.745204160604 1492.6059249797997 1467.2964635152175 1456.2061190755994 1455.1011618267933 1451.642982569872 1451.3041655352522
1450.9666274061847 1450.3476259124072 1445.408143331668 1437.9717472549976 1428.6040237772281 1417.2701454911173 1410.900110498584 1409.5439267619927
1413.1521415842528 1421.5748301059966 1434.562900336672 1442.3893356988906 1443.473050274327 1443.5604280556586 1443.735485257233 1443.9109283023456
1445.6859156393987 1465.3277148492707 1488.1431944283893 1513.5905983882299 1541.1037358219642 1570.1047677475158 1600.0158509286603 1630.2696869235565

position_y f8 [7054]
00000000: 0000 0000 0000 0000 c014 dc28 cfa5 85be
00000010: 1e8a 71e4 96eb f4be 5c09 bdeb 587a 13bf
00000020: 304f be80 2fad 25bf eeca bf75 1b5b 33bf
00000030: af80 488b 8f90 3ebf 2fe8 3d66 b94d 46bf
00000040: 605f 1e41 2ad0 4ebf a9bb 2f15 f570 54bf
00000050: b403 558b a84a 5abf 6022 03c3 2f7f 60bf
00000060: d3b7 b004 a74a 64bf ce21 7c09 568c 68bf
00000070: dea2 13c9 da48 6dbf 2fcf 1998 6a42 71bf
00000080: 6376 668e 7322 74bf e28d 142d da46 77bf
00000090: 1178 864e f1b1 7abf 28c0 ecbf 0c66 7ebf
000000a0: d20f ab9f c032 81bf 0794 df3c 5259 83bf
000000b0: cfde 9084 e6a7 85bf cf47 4239 a91f 88bf
000000c0: e25d 0592 c6c1 8abf ffe4 8139 6b8f 8dbf
000000d0: a40b 7f26 e244 90bf 23a0 b3ad ffd8 91bf
000000e0: c464 2d32 a584 93bf fae7 97eb 6948 95bf
000000f0: 98ac 0049 e524 97bf 64a0 5cf0 ae1a 99bf
00000100: 48fa 0dbe 5e2a 9bbf 158c 6ac4 8c54 9dbf
00000110: bb93 424b d199 9fbf f50b b467 62fd a0bf
00000120: 106e 1b01 003c a2bf 197c 8ee4 0d89 a3bf
00000130: ae0f 929e d8e4 a4bf 75d1 3dd5 ac4f a6bf
00000140: 549e 0148 d7c9 a7bf 9a56 6bcf a453 a9bf
00000150: 2a1d ed5c 62ed aabf c80c a4fa 5c97 acbf
00000160: 9369 1fcb e151 aebf 632a 9404 9f0e b0bf
00000170: 7104 c583 dffc b0bf 2652 6d18 d9f3 b1bf
00000180: 4044 a283 b2f3 b2bf f429 2892 92fc b3bf
00000190: 37be 571c a00e b5bf 73c8 0306 022a b6bf
000001a0: a413 5f3e df4e b7bf f3be e2bf 5e7d b8bf
000001b0: c8ea 3490 a7b5 b9bf 61c5 0fc0 e0f7 babf
000001c0: e4f9 286b 3144 bcbf f684 19b8 c09a bdbf
000001d0: cdf1 45d8 b5fb bebf 5f81 e303 9c33 c0bf
000001e0: 1b64 a946 b7ee c0bf 48a2 a685 40af c1bf
000001f0: c49c 8416 4c75 c2bf 8fa9 e3b2 ed40 c3bf
00000200: a505 1d0a 3912 c4bf a562 4fce 41e9 c4bf
00000210: a96e 3bb4 1bc6 c5bf 944c 1d73 daa8 c6bf
00000220: 52ce 85c4 9191 c7bf c773 3364 5580 c8bf
00000230: 5d31 eb0f 3975 c9bf 0d01 5187 5070 cabf
00000240: f340 c08b af71 cbbf 72e2 23e0 6979 ccbf
00000250: 0e6d ce48 9387 cdbf a5c6 978b 3f9c cebf
00000260: c3c4 f8de 70b7 cfbf 84de 5dd1 7f6c d0bf
00000270: 074f 5a5e 5900 d1bf eeaf f0b0 2797 d1bf
00000280: 3787 1582 cb30 d2bf b483 54a9 23cd d2bf
00000290: 7fea 621e 0d6c d3bf f2e9 ebfb 620d d4bf
000002a0: 39a3 a383 feb0 d4bf 945d ad23 b756 d5bf
000002b0: 4cd0 607d 62fe d5bf 85d6 796d d4a7 d6bf
000002c0: a131 bd15 df52 d7bf 9b3b 1ce8 52ff d7bf
000002d0: 1392 60b3 feac d8bf 85d4 67b1 af5b d9bf
000002e0: 158c f696 310b dabf 9239 28a5 4ebb dabf
000002f0: 9b56 81bc cf6b dbbf a3d1 a671 7c1c dcbf
00000300: 1f32 bd23 1bcd dcbf ce22 7014 717d ddbf
00000310: ac9c a181 422d debf 3356 bec0 52dc debf
00000320: 4471 b35b 648a dfbf acd3 bf97 9c1b e0bf
00000330: 5b34 2c46 4971 e0bf 04c5 acab 18c6 e0bf
00000340: 6e1a da16 eb19 e1bf efee a7c4 a06c e1bf
00000350: 0604 67f3 19be e1bf 41ef a2f5 360e e2bf
00000360: 08aa d445 d85c e2bf 8d85 a69c dea9 e2bf
00000370: c6f3 8906 2bf5 e2bf 90b1 a2f9 9e3e e3bf
00000380: e6fb 1f6c 1c86 e3bf f508 f5ea 85cb e3bf
00000390: 4104 e1b0 be0e e4bf 72db b5bd aa4f e4bf
000003a0: 6740 cced 2e8e e4bf 5566 9211 31ca e4bf
000003b0: 622c 2205 9803 e5bf f0a1 cac7 4b3a e5bf
000003c0: 0819 7893 356e e5bf 7953 e5f3 3f9f e5bf
000003d0: a9c0 7fdd 56cd e5bf f43d e8c3 67f8 e5bf
000003e0: 2b5b f9af 6120 e6bf 29c9 3b55 3545 e6bf
000003f0: c252 b126 d566 e6bf 3891 de6a 3585 e6bf
00000400: ad75 fb4e 4ca0 e6bf 4dc1 32f9 11b8 e6bf
00000410: 6a9e d899 80cc e6bf d1bd 807b 94dd e6bf
00000420: 18a5 dc11 4ceb e6bf 4f3c 4b07 a8f5 e6bf
00000430: b822 0349 abfc e6bf 914b ea11 5b00 e7bf
00000440: 9cf3 62f6 be00 e7bf b7eb c7e9 e0fd e6bf
00000450: 3e8b 913f cdf7 e6bf fe62 5aaf 92ee e6bf
00000460: bff8 4857 42e2 e6bf 3bd2 9bbc efd2 e6bf
00000470: 49b6 47ca b0c0 e6bf 7f6a 98cd 9dab e6bf
00000480: e8ff c470 d193 e6bf 717a 69b3 6879 e6bf
00000490: 8e46 d8e0 825c e6bf d07f 3684 413d e6bf
000004a0: a079 565a c81b e6bf ca3f 4441 3df8 e5bf
000004b0: 8cd4 7725 c8d2 e5bf 1ac2 a0ec 92ab e5bf
000004c0: 6819 fe5d c982 e5bf d921 3508 9958 e5bf
000004d0: 22be 9724 312d e5bf b0d2 c977 c200 e5bf
000004e0: eab7 b22f 7fd3 e4bf 9fe5 a4be 9aa5 e4bf
000004f0: 957a a2b3 4977 e4bf 21fa a08f c148 e4bf
00000500: bc80 a997 381a e4bf f9b8 aca3 e5eb e3bf
00000510: 26f8 dae9 ffbd e3bf 1716 49c6 be90 e3bf
00000520: 08cf a17e 5964 e3bf 14d3 9901 0739 e3bf
00000530: d22d d2a1 fd0e e3bf cd95 c9cb 72e6 e2bf
00000540: 3dbc 71b6 9abf e2bf 1948 f20d a89a e2bf
00000550: 1056 1898 cb77 e2bf 52e9 e7d1 3357 e2bf
00000560: e8b1 068d 0c39 e2bf 163f 259d 7e1d e2bf
00000570: 7427 4838 af04 e2bf a130 9c59 bfee e1bf
00000580: a155 9846 cbdb e1bf 25ea 0312 eacb e1bf
00000590: 7304 921f 2dbf e1bf 513e bfa9 9fb5 e1bf
000005a0: 18f1 e94b 46af e1bf 8ecd d392 1eac e1bf
000005b0: caa0 ef95 1eac e1bf 5de2 0d9c 34af e1bf
000005c0: 83ba 24ce 46b5 e1bf e3cf 12fb 32be e1bf
000005d0: 8a7c 556f cec9 e1bf f408 b9e3 e5d7 e1bf
000005e0: db1c 0a86 3de8 e1bf 6a85 c01e 91fa e1bf
000005f0: 0581 7a56 940e e2bf 81b4 ea1d f323 e2bf
00000600: 4598 8f3a 523a e2bf ae86 27fa 4f51 e2bf
00000610: 67d7 560e 8568 e2bf d32f 5c91 857f e2bf
00000620: d776 f933 e295 e2bf fe5d e593 29ab e2bf
00000630: 4bb5 2ab9 e9be e2bf 8840 d1b7 b1d0 e2bf
00000640: e72e 0a72 13e0 e2bf 4cac e475 a5ec e2bf
00000650: bccf 4af0 04f6 e2bf 2b9c bbad d7fb e2bf
00000660: 7dce ec1f cefd e2bf e67c 415e a5fb e2bf
00000670: 1a79 dd15 29f5 e2bf d4d6 1e5d 35ea e2bf
00000680: 06f8 7d5d b8da e2bf d7d0 50c6 b3c6 e2bf
00000690: f58d bffa 3dae e2bf ec8b 6eed 8291 e2bf
000006a0: a528 099d c470 e2bf 9d5a fd25 5b4c e2bf
000006b0: 1879 605f b424 e2bf fe04 25fb 52fa e1bf
000006c0: 4f10 7d24 cdcd e1bf 2524 759a ca9f e1bf
000006d0: cc92 7348 0271 e1bf 6db4 4962 3742 e1bf
000006e0: 1eb8 e00d 3614 e1bf b909 5ea9 cfe7 e0bf
000006f0: 0b49 7dc2 d6bd e0bf 56ed 50dd 1a97 e0bf
00000700: 723a ea40 6474 e0bf 8e7f 2168 7056 e0bf
00000710: 0ddc 05a2 f23d e0bf 56dc c27d d12b e0bf
00000720: b0b0 0f2e d728 e0bf c891 cf8b 132a e0bf
00000730: af5c c7bd 7131 e0bf 47db dda6 7032 e0bf
00000740: 0208 6819 6733 e0bf 8bd5 9f5a f734 e0bf
00000750: d579 a986 9c39 e0bf 08e1 bd02 4b32 e0bf
00000760: cd96 ec85 8826 e0bf 0827 95c1 9318 e0bf
00000770: 2934 baa7 e911 e0bf 14ab fa3e dd12 e0bf
00000780: aaf7 6f96 911b e0bf d0fe 41f6 ff2b e0bf
00000790: 1b89 9d5b f843 e0bf b425 bc5d 2e52 e0bf
000007a0: 96f3 e778 2454 e0bf f84d 74f1 4c54 e0bf
000007b0: 1c68 e404 9e54 e0bf 40e4 5844 ef54 e0bf
000007c0: fcb4 4dee 2458 e0bf 52bf bc87 967b e0bf
000007d0: 6496 0026 d2a4 e0bf 9151 601a 1dd3 e0bf
000007e0: 140e 1a56 ac05 e1bf 4f99 4e5c a93b e1bf
000007f0: e3aa 9dea 3674 e1bf 7f0d 2b54 75ae e1bf
0.0 -1.61287875881518e-07 -1.9951125321058143e-05 -7.430236558739672e-05 -0.00016537861699516534 -0.00029534740838170384 -0.00046638016218204353 -0.0006806521673603567
-0.0009403425522007507 -0.0012476342569660381 -0.0016047140064332334 -0.002013772282314627 -0.0024770032955734127 -0.002996604958642935 -0.003574778857558732 -0.004213730224012654
-0.004915667907338414 -0.00568280434643806 -0.006517355541658902 -0.007421541026630542 -0.008397583840071752 -0.00944771049757699 -0.010574150963392452 -0.011779138622191624
-0.013064910250860377 -0.014433705990301691 -0.01588776931727022 -0.017429347016246887 -0.019060689151363844 -0.02078404903839013 -0.022601683216788432 -0.024515851421853432
-0.026528816556942197 -0.028642844665807205 -0.03086020490504258 -0.033183169516654155 -0.03561401380076401 -0.03815501608846023 -0.04080845771480256 -0.04357662299199464
-0.04646179918273377 -0.04946627647374875 -0.05259234794953678 -0.055842309566310144 -0.05921846012616352 -0.06272310125147267 -0.06635853735953547 -0.07012707563746598
-0.07403102601735245 -0.07807270115169002 -0.0822544163890989 -0.08657848975033904 -0.09104724190463159 -0.09566299614629852 -0.10042807837173051 -0.10534481705669442
-0.11041554323399044 -0.11564259047147005 -0.12102829485042506 -0.12657499494435862 -0.1322850317981484 -0.13816076780246278 -0.14420462703239967 -0.15041896090344806
-0.15680611604515807 -0.16336844037757206 -0.17010828304670625 -0.17702799435446492 -0.18412992568811376 -0.19141642944933165 -0.19888985898286196 -0.20655256850478346
-0.21440691303042278 -0.2224552483019298 -0.23069993071553835 -0.2391433173757395 -0.24778567206661792 -0.25662227102245816 -0.2656463071264032 -0.2748507717067231
-0.2842282076218114 -0.2937707093824955 -0.30346992461605987 -0.31331705667221776 -0.32330286841765915 -0.33341768726446586 -0.3436514114757798 -0.3539935177899241
-0.364433070401697 -0.3749587313367841 -0.38555877225215446 -0.3962210876919204 -0.40693320982444564 -0.417682324682482 -0.42845528992379805 -0.4392386541251431
-0.4500186776174661 -0.4607813548650882 -0.47151243838602386 -0.4821974642048616 -0.49282177882357225 -0.5033705676893212 -0.5138288851318394 -0.5241816857361816
-0.534413857109781 -0.5445102539956376 -0.5544557336762643 -0.5642351911151097 -0.5738335956460228 -0.5832360324458691 -0.5924277427399083 -0.60139416462839
-0.6101209747138199 -0.6185941304213701 -0.6267999128978162 -0.6347249703675131 -0.6423563618173035 -0.6496816008759178 -0.6566886997474166 -0.6633662130525959
-0.669703281427048 -0.6756896747198048 -0.6813158346322058 -0.686572916632882 -0.6914528309815514 -0.6959482826917213 -0.7000528102604096 -0.7037608229916605
-0.707067636739955 -0.7099695078996234 -0.7124636654670671 -0.7145483410039849 -0.7162227963318939 -0.7174873487910051 -0.7183433938999633 -0.7187934255510858
-0.718841057990733 -0.7184910360368723 -0.7177492372105474 -0.7166226792206485 -0.7151195244585081 -0.7132490810168471 -0.7110218001159377 -0.7084492698225658
-0.7055442049531822 -0.7023204330578904 -0.698792876386692 -0.6949775297434773 -0.6908914341363932 -0.6865526461351632 -0.681980202846391 -0.6771940824165228
-0.672215159968613 -0.667065158872954 -0.6617665972425508 -0.6563427295319197 -0.6508174831012614 -0.6452153895872249 -0.6395615108957197 -0.6338813596010519
-0.6282008134985726 -0.6225460240146098 -0.6169433181273731 -0.6114190933955709 -0.6059997056276822 -0.6007113486544733 -0.5955799255911478 -0.5906309108947255
-0.5858892024388137 -0.581378962744796 -0.5771234484297469 -0.5731448268627821 -0.5694639925400766 -0.5661004132507255 -0.5630718325858042 -0.5603939771840666
-0.558080327874155 -0.5561418868886149 -0.554586946164035 -0.5534208598491636 -0.5526458246891108 -0.5522606723520072 -0.5522606781423971 -0.5526373908933909
-0.5533784891357104 -0.5544676688937183 -0.5558845686426974 -0.557604737063484 -0.5595996492346801 -0.5618367767930696 -0.5642797173532307 -0.566888388091357
-0.569619287850181 -0.5724258313968755 -0.5752587585509276 -0.578066619783835 -0.5807963385702476 -0.583393849238689 -0.5858048073329568 -0.5879753675635735
-0.5898530223216455 -0.5913874914744013 -0.5925316518027937 -0.5932424920291671 -0.5934820769820842 -0.5932185021337346 -0.592426817612963 -0.5910898989447682
-0.5891992403046522 -0.5867556451180701 -0.5837697884966803 -0.5802626263942989 -0.576265627584935 -0.5718208066926597 -0.5669805395916994 -0.5618071465652574
-0.5563722336451152 -0.5507557884931243 -0.5450450339381745 -0.5393330497441987 -0.5337171813059773 -0.5282972629504946 -0.5231736944790851 -0.5184454271870134
-0.5142079608793451 -0.5105516465955462 -0.5075619854459333 -0.5053489166520062 -0.5049854182848517 -0.5051362734489482 -0.50603568140186 -0.5061572322000324
-0.5062747474878508 -0.5064656038290861 -0.5070326452367292 -0.5061392835187073 -0.5047037711817325 -0.5030001431379967 -0.5021866107869118 -0.5023027639448139
-0.5033653200368822 -0.505371075603728 -0.5082971371996651 -0.5100318747292278 -0.5102712975927826 -0.5102905956177315 -0.510329255633454 -0.5103679976374522
-0.5107597975126335 -0.5150864268416433 -0.5201197378380127 -0.525770713344672 -0.5319425279307688 -0.538532905852472 -0.5454363424626901 -0.5525461810979521

position_z f8 [7054]
00000000: 0000 0000 0000 0000 b831 ebff 40f0 df3f
00000010: c886 4cd8 c45f 1640 8a5d 8a65 49c1 2540
00000020: c6bd 1bba f159 3040 66c0 1688 ee03 3640
00000030: 195e 9e54 b1de 3b40 b3bf b829 28f5 4040
00000040: ac5c 0ada 7013 4440 cfcd e0d0 3d4a 4740
00000050: f031 ab21 9a99 4a40 750c a3dd 9001 4e40
00000060: 0944 e289 16c1 5040 0378 63e8 bc8d 5240
00000070: 89b0 8a0f c166 5440 c4d9 6383 284c 5640
00000080: d9cf cdc6 f83d 5840 f90e 775b 373c 5a40
00000090: ec81 dac1 e946 5c40 d16f 3c79 155e 5e40
000000a0: d6c4 d3ff df40 6040 420c f568 f758 6140
000000b0: 5aa6 c9b5 5377 6240 8957 78a3 f79b 6340
000000c0: 5fda 85ee e5c6 6440 16bb d352 21f8 6540
000000d0: 1545 9f8b ac2f 6740 cb82 8053 8a6d 6840
000000e0: 3850 6964 bdb1 6940 8580 a477 48fc 6a40
000000f0: 0217 d545 2e4d 6c40 ea93 f586 71a4 6d40
00000100: 4255 57f2 1402 6f40 1c06 519f 0d33 7040
00000110: ada3 e990 43e8 7040 0209 9fa8 ada0 7140
00000120: af54 c540 4d5c 7240 a823 5bb3 231b 7340
00000130: e081 095a 32dd 7340 40e6 238e 7aa2 7440
00000140: 243a a8a8 fd6a 7540 8aec 3e02 bd36 7640
00000150: 2511 3bf3 b905 7740 858b 9ad3 f5d7 7740
00000160: 7a46 06fb 71ad 7840 ee77 d2c0 2f86 7940
00000170: 57f1 fe7b 3062 7a40 fb7c 3783 7541 7b40
00000180: 2f48 d42c 0024 7c40 bd5a dace d109 7d40
00000190: a31b fcbe ebf2 7d40 59e3 9952 4fdf 7e40
000001a0: ca9b c2de fdce 7f40 1637 1a5c fc60 8040
000001b0: 74bf ae99 20dc 8040 dc5b 2e52 ec58 8140
000001c0: 1850 812f 60d7 8140 6b22 69db 7c57 8240
000001d0: 7d16 81ff 42d9 8240 bbaf 3e45 b35c 8340
000001e0: 403b f255 cee1 8340 3ad4 ca0d 9568 8440
000001f0: 3513 eee2 08f1 8440 0709 127a 2a7b 8540
00000200: d870 8f65 fa06 8640 379e 4736 7994 8640
00000210: 8e3f 9e7b a723 8740 942d 73c3 85b4 8740
00000220: 0c49 1c9a 1447 8840 9867 5f8a 54db 8840
00000230: 6950 6c1d 4671 8940 91c9 d6da e908 8a40
00000240: c7b6 9048 40a2 8a40 604a e4ea 493d 8b40
00000250: 5049 6e44 07da 8b40 f6d9 18d6 7878 8c40
00000260: 626c 1012 9f18 8d40 01ed 6a40 7aba 8d40
00000270: 2da8 0c9f 0a5e 8e40 532d b167 5003 8f40
00000280: b42a c6cf 4baa 8f40 0342 1c84 7e29 9040
00000290: cdf7 9e1e b27e 9040 566c 0dcb c0d4 9040
000002a0: f51e 729a aa2b 9140 659e 1e9b 6f83 9140
000002b0: 5ff9 87d8 0fdc 9140 cfaa 205b 8b35 9240
000002c0: e3cd 2f28 e28f 9240 7e61 a541 14eb 9240
000002d0: 7e5d eba5 2147 9340 9256 b34f 0aa4 9340
000002e0: 4567 c035 ce01 9440 260e ad4a 6d60 9440
000002f0: a5a9 ac7c e7bf 9440 3932 48b5 3c20 9540
00000300: a3ca 15d9 6c81 9540 8fb4 6ac7 77e3 9540
00000310: 552d 075a 5d46 9640 3bab bb64 1daa 9640
00000320: efe6 06b5 b70e 9740 500f ac11 2c74 9740
00000330: 9076 403a 7ada 9740 32f7 afe6 a141 9840
00000340: 723d b7c6 a2a9 9840 d30d 5381 7c12 9940
00000350: e68b 23b4 2e7c 9940 1291 faf0 b8e6 9940
00000360: 67a3 99bb 1a52 9a40 636e c18b 53be 9a40
00000370: 3e80 abcc 622b 9b40 b12a 1fdc 4799 9b40
00000380: fd35 7209 0208 9c40 638b 7394 9077 9c40
00000390: face 3dac f2e7 9c40 52af ef6d 2759 9d40
000003a0: e67a 47e3 2dcb 9d40 bb4f 1f01 053e 9e40
000003b0: 28f8 c6a5 abb1 9e40 0c40 3897 2026 9f40
000003c0: 023f 2281 629b 9f40 f7de 63f9 b708 a040
000003d0: e33f 56ae 2344 a040 eb66 0687 f37f a040
000003e0: 2b1b 0d99 26bc a040 fdf7 7be6 bbf8 a040
000003f0: 8566 385c b235 a140 030a 30d0 0873 a140
00000400: 85f8 62ff bdb0 a140 d2c0 bf8b d0ee a140
00000410: 65dd ccf9 3e2d a240 90ca 1aae 076c a240
00000420: a482 79ea 28ab a240 97a5 ebca a0ea a240
00000430: 5e09 5142 6d2a a340 706b a117 8c6a a340
00000440: b38a f0f3 faaa a340 711b e760 b7eb a340
00000450: d158 f9af be2c a440 6485 42f4 0d6e a440
00000460: 661f cafc a1af a440 c4bd 3f4e 77f1 a440
00000470: 01dc 201c 8a33 a540 d5db 3a41 d675 a540
00000480: ee64 7a37 57b8 a540 e51e f80e 08fb a540
00000490: 2089 3164 e33d a640 b272 5b55 e380 a640
000004a0: 7e4d ba76 01c4 a640 4051 ebc5 3607 a740
000004b0: e823 089c 7b4a a740 738e 8d9e c78d a740
000004c0: 7ab4 ecae 11d1 a740 7b60 add8 4f14 a840
000004d0: c853 073e 7757 a840 ab3f d802 7c9a a840
000004e0: 423d dc35 51dd a840 8269 0fb8 e81f a940
000004f0: bbea 2022 3362 a940 a34f e2a7 1fa4 a940
00000500: 0235 a2f9 9be5 a940 0ec6 6623 9426 aa40
00000510: 1865 046a f266 aa40 6d15 1726 9fa6 aa40
00000520: 78b2 f29c 80e5 aa40 ea4e afd7 7a23 ab40
00000530: 6a13 8d78 6f60 ab40 9995 068f 3d9c ab40
00000540: e002 0b6b c1d6 ab40 e6e4 0370 d40f ac40
00000550: cf27 7ee8 4c47 ac40 32fd 8cdb fd7c ac40
00000560: 4914 4fc1 b6b0 ac40 0097 e2af 42e2 ac40
00000570: 73ef 49a0 6911 ad40 878b 015b f13d ad40
00000580: b14c 02b3 9d67 ad40 3f42 d6d0 308e ad40
00000590: 1ac0 658d 6bb1 ad40 b3e8 ecdd 0dd1 ad40
000005a0: 60be e551 d7ec ad40 02a1 87a3 8704 ae40
000005b0: 48ed 465b df17 ae40 4760 7d86 a026 ae40
000005c0: c834 1581 8f30 ae40 1125 b5d1 7335 ae40
000005d0: a957 8217 1935 ae40 0bdb 1608 502f ae40
000005e0: 8138 c87b ef23 ae40 4bd1 ca85 d512 ae40
000005f0: 4ab5 2595 e8fb ad40 5090 c99a 18df ad40
00000600: 10ea 7630 60bc ad40 d2a4 77bb c593 ad40
00000610: 0c66 8985 5c65 ad40 2df4 b6c5 4531 ad40
00000620: c2ae 4a92 b1f7 ac40 5fa6 81b4 dfb8 ac40
00000630: fd6e 3b56 2075 ac40 eecf 9481 d42c ac40
00000640: 9071 316a 6ee0 ab40 db55 f977 7190 ab40
00000650: cc3a 410b 723d ab40 5229 c0f2 14e8 aa40
00000660: bfca 5f8c 0e91 aa40 c92b e88a 2139 aa40
00000670: 6cc7 c95b 1de1 a940 5f08 e129 dc89 a940
00000680: ddc6 027c 4034 a940 e273 7570 32e1 a840
00000690: 3e1c 2f99 9c91 a840 85c2 c07f 6846 a840
000006a0: 17a4 38db 7a00 a840 8e5f e385 afc0 a740
000006b0: 9282 9244 d587 a740 a65e c674 a956 a740
000006c0: d107 98ba d32d a740 b926 4eca e10d a740
000006d0: cbb8 e66b 43f7 a640 ecb9 54d8 46ea a640
000006e0: d1d4 8590 15e7 a640 99f9 51cd b1ed a640
000006f0: ebef 28a5 f4fd a640 af0f ac00 8d17 a740
00000700: 10c6 8072 ff39 a740 9543 bf00 a764 a740
00000710: 42c9 b5e7 b696 a740 4f54 9d56 3dcf a740
00000720: f6c1 ce31 98ed a740 ca40 b780 ddf0 a740
00000730: 6aab 0d78 6ffb a740 6eb1 7bea 7ffc a740
00000740: 9490 83b1 90fd a740 f133 db81 88ff a740
00000750: 3320 dc69 ee0f a840 6c42 4976 5f2b a840
00000760: c25a 5e60 9654 a840 528e 87d9 cb99 a840
00000770: b1a8 9941 79e0 a840 0ab0 b8ec 3a27 a940
00000780: 70f6 fa5d aa6c a940 07e0 cdbe 65af a940
00000790: fc2a 8972 17ee a940 463f fb46 9b0a aa40
000007a0: 429a faaf 330e aa40 6a9d 0910 7d0e aa40
000007b0: f841 b3b2 0f0f aa40 6d44 4f2f a20f aa40
000007c0: 965c 69ff 5215 aa40 6c00 cb64 c04a aa40
000007d0: 1bbd 2821 9779 aa40 1677 5e58 29a1 aa40
000007e0: 2be5 991f f5c0 aa40 b781 c317 a4d8 aa40
000007f0: 3463 fe15 0ae8 aa40 9f81 1a1b 23ef aa40
0.0 0.4990389346319506 5.593524341269308 10.877513096943193 16.351344711087016 22.015358453325824 27.869893349327047 33.91528817673625
40.151881461200304 46.580011472480344 53.20001622065672 60.01223345242844 67.01700064750925 74.21465501512289 81.60553349059968 89.18997273207702
96.96830911730594 104.9408787405663 113.10801740969299 121.47006064321546 130.02734366761314 138.7802014146892 147.72896851906518 156.8739793157986
166.21556783812682 175.75406781533883 185.4898126707782 195.42313551997935 205.55436916893973 215.88384611253073 226.41189853304974 237.13885829891598
248.06505696351275 259.1908257641787 270.516495621351 282.0423971378624 293.76886059839575 305.6962159690979 317.824792897356 330.15492071173867
342.686928422105 355.4211447198837 368.3578979785255 381.49751625413074 394.84032728625573 408.3866584988999 422.1368370016766 436.0911895911701
450.2500427524819 464.6137226609679 479.18255518417044 493.9568658839467 508.9369800187966 524.1232225463925 539.5159181263139 555.1153911229881
570.9219656088417 586.9359653676632 603.1577138981808 619.5875344178561 636.2257498668987 653.0727802129761 670.1293390845882 687.3957406434064
704.8722640234291 722.559185561672 740.4567787516733 758.5653141973767 776.8850595674317 795.4162795499315 814.1592358076133 833.1141869335426
852.2813884073047 871.661092551727 891.2535484901546 911.0590021077649 931.077671173389 951.3096931794718 971.7551861752341 992.414260276981
1013.2870173913748 1034.373550836114 1055.6739449347253 1077.188274583566 1098.9166047889132 1120.8589901718308 1143.0154744382814 1165.3860898117307
1187.9708564252294 1210.7697816696887 1233.7828594947637 1257.010069658431 1280.451376920989 1304.106730178822 1327.9760615328353 1352.059285286012
1376.356296864026 1400.8669716522888 1425.5911637422007 1450.5287045787106 1475.6794015005541 1501.0430361637445 1526.619362838017 1552.408106564963
1578.4089611655477 1604.6215870835483 1631.0456090501916 1657.6806067610783 1684.5261062627776 1711.5815878127694 1738.8464838788054 1766.3201756353194
1794.0019891591503 1821.8911912969422 1849.9869851739481 1878.2885053110845 1906.7948123139154 1935.5048870937742 1964.4176245774233 1993.5318268574802
2022.8461957312543 2052.3593245706247 2082.0696894600856 2111.975639534057 2142.0753864379562 2172.3669928302975 2202.848359835162 2233.5172133457395
2264.3710890701645 2295.4073162005307 2326.6229995746858 2358.01500018809 2389.57991389961 2421.3140481605183 2453.2133965801177 2485.2736177867555
2517.490142361575 2549.858161184406 2582.372436325161 2615.0272541797476 2647.8163817561463 2680.7330188674114 2713.769745852333 2746.918466414771
2780.1703451393323 2813.515739206096 2846.9441237907304 2880.444010598899 2914.002858945808 2947.606978753727 2981.2414248031455 3014.8898815380467
3048.5345376940068 3082.1559499912523 3115.7328951158306 3149.2422092035026 3182.6586140465524 3215.9545292679113 3249.0998697554146 3282.0618277284825
3314.8046389283854 3347.289332591702 3379.4734650967985 3411.31083747994 3442.7511974184854 3473.7399267944174 3504.2177166067313 3534.1202318246474
3563.377769798375 3591.9149171082418 3619.650211279258 3646.4958156642033 3672.3569435798895 3697.1302481469465 3720.70630103157 3742.971397445948
3763.808006355154 3783.0953432994716 3800.710063152027 3816.5270837816292 3830.4205467028514 3842.264919508366 3851.936243263688 3859.3135260753656
3864.280281698888 3866.7262093169925 3866.549007485581 3863.6563117163073 3857.9677412575697 3849.4170363789067 3837.954262903576 3823.548055933825
3806.18786975486 3785.8861958874413 3762.6807063042706 3736.636274068171 3707.846819242318 3676.4369240298834 3642.5631578991874 3606.4150511268444
3568.2156539393545 3528.2216184537224 3486.7227421173357 3444.040914540333 3400.5284147200578 3356.5655129006814 3312.557340913385 3268.930007011673
3226.1259461276773 3184.5985142425498 3144.8058562013603 3107.2040996777964 3072.239953775435 3040.342818360724 3011.9165387901676 2987.330969046644
2966.9135329732458 2950.9409965917844 2939.6316825962617 2933.138369224258 2931.5421182462965 2934.847269593924 2942.9778225701207 2955.7753957528253
2972.9989204637313 2994.326177575111 3019.3572365577866 3047.619801441709 3062.7972550021905 3064.4326226488674 3069.717712809729 3070.2498358396615
3070.7826043237674 3071.76661572465 3079.965651396685 3093.6864493268567 3114.293703983859 3148.898143993495 3184.236828615038 3219.6150872912303
3254.332748262961 3287.6987213455172 3319.0457957138988 3333.303275920366 3335.1009519875815 3335.244262981859 3335.530660249522 3335.8167671938922
3338.6621048856277 3365.3757689893737 3388.795174859127 3408.5807523270005 3424.4787567226645 3436.320493802628 3444.019699048624 3447.5685661586026
