yeonu/results_6dof/SCUD-B_45.0deg_20251219_201043.npz (npz, 52498 bytes, 22 tensors)

time f8 [379]
0	0x0000000000000000	0.0
1	0x3f847ae147ae147b	0.01
2	0x3fbc28f5c28f5c29	0.11
3	0x3fe3851eb851eb85	0.61
4	0x3ff1c28f5c28f5c2	1.1099999999999999
5	0x3ff9c28f5c28f5c2	1.6099999999999999
6	0x4000e147ae147ae1	2.11
7	0x4004e147ae147ae1	2.61
8	0x4008e147ae147ae1	3.11
9	0x400ce147ae147ae1	3.61
10	0x401070a3d70a3d70	4.109999999999999
11	0x401270a3d70a3d70	4.609999999999999
12	0x401470a3d70a3d70	5.109999999999999
13	0x401670a3d70a3d70	5.609999999999999
14	0x401870a3d70a3d70	6.109999999999999
15	0x401a70a3d70a3d70	6.609999999999999
16	0x401c70a3d70a3d70	7.109999999999999
17	0x401e70a3d70a3d70	7.609999999999999
18	0x40203851eb851eb8	8.11
19	0x40213851eb851eb8	8.61
20	0x40223851eb851eb8	9.11
21	0x40233851eb851eb8	9.61
22	0x40243851eb851eb8	10.11
23	0x40253851eb851eb8	10.61
24	0x40263851eb851eb8	11.11
25	0x40273851eb851eb8	11.61
26	0x40283851eb851eb8	12.11
27	0x40293851eb851eb8	12.61
28	0x402a3851eb851eb8	13.11
29	0x402b3851eb851eb8	13.61
30	0x402c3851eb851eb8	14.11
31	0x402d3851eb851eb8	14.61
32	0x402e3851eb851eb8	15.11
33	0x402f3851eb851eb8	15.61
34	0x40301c28f5c28f5c	16.11
35	0x40309c28f5c28f5c	16.61
36	0x40311c28f5c28f5c	17.11
37	0x40319c28f5c28f5c	17.61
38	0x40321c28f5c28f5c	18.11
39	0x40329c28f5c28f5c	18.61
40	0x40331c28f5c28f5c	19.11
41	0x40339c28f5c28f5c	19.61
42	0x40341c28f5c28f5c	20.11
43	0x40349c28f5c28f5c	20.61
44	0x40351c28f5c28f5c	21.11
45	0x40359c28f5c28f5c	21.61
46	0x40361c28f5c28f5c	22.11
47	0x40369c28f5c28f5c	22.61
48	0x40371c28f5c28f5c	23.11
49	0x40379c28f5c28f5c	23.61
50	0x40381c28f5c28f5c	24.11
51	0x403897bf8625fdc4	24.59276617457887
52	0x4038a41b61632268	24.641042792036757
53	0x4038ad7cc3105325	24.67768496655039
54	0x4038bb315b8713fe	24.731221886137057
55	0x4038bdef139ed429	24.74192927005439
56	0x4038bf07c3a8543a	24.74621222362132
57	0x4038c13923bb545c	24.754778130755184
58	0x4038c36a83ce547e	24.76334403788905
59	0x4038d7119bb27edf	24.840112429693246
60	0x403932c2a83549bd	25.198282731065536
61	0x40396a62f4876168	25.415572436382178
62	0x403984334cf92405	25.51640778620278
63	0x4039c9e9e4ffe03d	25.78872519728633
64	0x403a398a68215b8d	26.224768169540358
65	0x403ab98a68215b8d	26.724768169540358
66	0x403b398a68215b8d	27.224768169540358
67	0x403bb98a68215b8d	27.724768169540358
68	0x403c398a68215b8d	28.224768169540358
69	0x403cb98a68215b8d	28.724768169540358
70	0x403d398a68215b8d	29.224768169540358
71	0x403db98a68215b8d	29.724768169540358
72	0x403e398a68215b8d	30.224768169540358
73	0x403eb98a68215b8d	30.724768169540358
74	0x403f398a68215b8d	31.224768169540358
75	0x403fb98a68215b8d	31.724768169540358
76	0x40401cc53410adc6	32.224768169540354
77	0x40405cc53410adc6	32.724768169540354
78	0x40409cc53410adc6	33.224768169540354
79	0x4040dcc53410adc6	33.724768169540354
80	0x40411cc53410adc6	34.224768169540354
81	0x40415cc53410adc6	34.724768169540354
82	0x40419cc53410adc6	35.224768169540354
83	0x4041dcc53410adc6	35.724768169540354
84	0x40421cc53410adc6	36.224768169540354
85	0x40425cc53410adc6	36.724768169540354
86	0x40429cc53410adc6	37.224768169540354
87	0x4042dcc53410adc6	37.724768169540354
88	0x40431cc53410adc6	38.224768169540354
89	0x40435cc53410adc6	38.724768169540354
90	0x40439cc53410adc6	39.224768169540354
91	0x4043dcc53410adc6	39.724768169540354
92	0x40441cc53410adc6	40.224768169540354
93	0x40445cc53410adc6	40.724768169540354
94	0x40449cc53410adc6	41.224768169540354
95	0x4044dcc53410adc6	41.724768169540354
96	0x40451cc53410adc6	42.224768169540354
97	0x40455cc53410adc6	42.724768169540354
98	0x40459cc53410adc6	43.224768169540354
99	0x4045dcc53410adc6	43.724768169540354
100	0x40461cc53410adc6	44.224768169540354
101	0x40465cc53410adc6	44.724768169540354
102	0x40469cc53410adc6	45.224768169540354
103	0x4046dcc53410adc6	45.724768169540354
104	0x40471cc53410adc6	46.224768169540354
105	0x40475cc53410adc6	46.724768169540354
106	0x40479cc53410adc6	47.224768169540354
107	0x4047dcc53410adc6	47.724768169540354
108	0x40481cc53410adc6	48.224768169540354
109	0x40485cc53410adc6	48.724768169540354
110	0x40489cc53410adc6	49.224768169540354
111	0x4048dcc53410adc6	49.724768169540354
112	0x40491cc53410adc6	50.224768169540354
113	0x40495cc53410adc6	50.724768169540354
114	0x40499cc53410adc6	51.224768169540354
115	0x4049dcc53410adc6	51.724768169540354
116	0x404a1cc53410adc6	52.224768169540354
117	0x404a5cc53410adc6	52.724768169540354
118	0x404a7939b2c833e0	52.94707331443328
119	0x404a7eea98ece84c	52.99153434341187
120	0x404a866cb16fa40c	53.05019205046855
121	0x404a8deec9f25fcc	53.108849757525235
122	0x404a9883586e467b	53.1915083445028
123	0x404aa317e6ea2d2a	53.274166931480366
124	0x404aa34582506a86	53.275558747544935
125	0x404aa357c0794fde	53.27611547397076
126	0x404aa37da73549c0	53.27727213003118
127	0x404aa3a38df143a2	53.278428786091595
128	0x404aa51bf995836b	53.28991622734505
129	0x404aad1a986705db	53.352374124817025
130	0x404ab35e32bf57e3	53.4013122019094
131	0x404ab9a1cd17a9eb	53.45025027900177
132	0x404ac13afd535ea3	53.509612718303536
133	0x404acf8ab310c52c	53.621420272053314
134	0x404ae554c13f6557	53.79164901347638
135	0x404b03581e096a0c	54.026126627537536
136	0x404b368808cb8088	54.426026439062355
137	0x404b768808cb8088	54.926026439062355
138	0x404bb68808cb8088	55.426026439062355
139	0x404bf68808cb8088	55.926026439062355
140	0x404c368808cb8088	56.426026439062355
141	0x404c768808cb8088	56.926026439062355
142	0x404cb68808cb8088	57.426026439062355
143	0x404cf68808cb8088	57.926026439062355
144	0x404d368808cb8088	58.426026439062355
145	0x404d768808cb8088	58.926026439062355
146	0x404db68808cb8088	59.426026439062355
147	0x404df68808cb8088	59.926026439062355
148	0x404e368808cb8088	60.426026439062355
149	0x404e768808cb8088	60.926026439062355
150	0x404eb68808cb8088	61.426026439062355
151	0x404ef68808cb8088	61.926026439062355
152	0x404f368808cb8088	62.426026439062355
153	0x404f768808cb8088	62.926026439062355
154	0x404fb68808cb8088	63.426026439062355
155	0x404ff68808cb8088	63.926026439062355
156	0x40501b440465c044	64.42602643906235
157	0x40503b440465c044	64.92602643906235
158	0x405042233049fb58	65.03339774346148
159	0x405049025c2e366c	65.1407690478606
160	0x40506410d6b15147	65.56352774921571
161	0x40508410d6b15147	66.06352774921571
162	0x4050a410d6b15147	66.56352774921571
163	0x4050b410d6b15147	66.81352774921571
164	0x4050c17cbd790f68	67.02323853323253
165	0x4050c832b0dcee78	67.12809392524093
166	0x4050c98a47f0e7e2	67.14906500364262
167	0x4050cae1df04e14c	67.1700360820443
168	0x4050cc397618dab6	67.19100716044599
169	0x4050ceb1d2ec5d8d	67.22960351069032
170	0x4050cf304be377b8	67.23732278073919
171	0x4050cf8a68e2fe15	67.24282285849797
172	0x4050d03413f232b1	67.25317858364248
173	0x4050d05602f53d37	67.25524972867139
174	0x4050d099e0fb5243	67.2593920187292
175	0x4050d0a39273a890	67.25998364729662
176	0x4050d0b6f564552a	67.26116690443146
177	0x4050d0c0aaf5d240	67.26175951009736
178	0x4050d0ca60874f56	67.26235211576326
179	0x4050d12b78363232	67.26827817242227
180	0x4050d4f6650b0eca	67.32753873901234
181	0x4050d8c151dfeb62	67.38679930560241
182	0x4050dc8c3eb4c7fa	67.44605987219248
183	0x4050e2f38ad1fa24	67.54611464028909
184	0x4050ebd0ea58e58b	67.68462618523897
185	0x4050fb6acdff2122	67.92839383997901
186	0x4051173e0ce4cbbb	68.36316225379316
187	0x4051373e0ce4cbbb	68.86316225379316
188	0x4051573e0ce4cbbb	69.36316225379316
189	0x4051773e0ce4cbbb	69.86316225379316
190	0x4051973e0ce4cbbb	70.36316225379316
191	0x4051b73e0ce4cbbb	70.86316225379316
192	0x4051d73e0ce4cbbb	71.36316225379316
193	0x4051f73e0ce4cbbb	71.86316225379316
194	0x4052173e0ce4cbbb	72.36316225379316
195	0x4052373e0ce4cbbb	72.86316225379316
196	0x4052573e0ce4cbbb	73.36316225379316
197	0x4052773e0ce4cbbb	73.86316225379316
198	0x4052973e0ce4cbbb	74.36316225379316
199	0x4052b73e0ce4cbbb	74.86316225379316
200	0x4052d73e0ce4cbbb	75.36316225379316
201	0x4052f73e0ce4cbbb	75.86316225379316
202	0x4053173e0ce4cbbb	76.36316225379316
203	0x4053373e0ce4cbbb	76.86316225379316
204	0x40534d36adbc6c59	77.2064623203345
205	0x40535d36adbc6c59	77.4564623203345
206	0x40536536adbc6c59	77.5814623203345
207	0x40536936adbc6c59	77.6439623203345
208	0x40536a310786bc10	77.6592425170677
209	0x40536b2b61510bc7	77.6745227138009
210	0x40536c25bb1b5b7e	77.6898029105341
211	0x40536d2014e5ab35	77.7050831072673
212	0x40536ea08c44cd9c	77.72854906767901
213	0x40536eee291d9982	77.73328616991606
214	0x40536efdaee28f16	77.73423359036346
215	0x40536f03e4648aeb	77.73461255854242
216	0x40536f0ae2fe6de1	77.73503947111705
217	0x40536f11e19850d7	77.73546638369167
218	0x40536f57d39b2e73	77.73973550943792
219	0x4053721347b7d68b	77.7824267669004
220	0x405372d8ba735a29	77.79447804703581
221	0x4053739e2d2eddc7	77.80652932717122
222	0x405374639fea6165	77.81858060730663
223	0x40537721bf32d9c4	77.86143474546321
224	0x40537ad67dd8e4d4	77.91934152775804
225	0x405380bc15640058	78.01147970929867
226	0x405388c36db8b23a	78.13692801510561
227	0x40539686baf6577f	78.35197328621688
228	0x4053ae017f4b0dad	78.71884138421474
229	0x4053ce017f4b0dad	79.21884138421474
230	0x4053ee017f4b0dad	79.71884138421474
231	0x40540e017f4b0dad	80.21884138421474
232	0x40542e017f4b0dad	80.71884138421474
233	0x40544e017f4b0dad	81.21884138421474
234	0x40546e017f4b0dad	81.71884138421474
235	0x40547ada957652ba	81.91959129862781
236	0x40547e0ea9d2cc67	81.96964498124872
237	0x40547f176db12634	81.98580496120195
238	0x40547f4c61aa6b5d	81.9890369571926
239	0x40547f57ce11d3de	81.9897341894243
240	0x40547f6ea6e0a4e0	81.9911286538877
241	0x40547f77ca669214	81.99168643967306
242	0x40547f7b7235bdc2	81.9919095539872
243	0x40547f7ce8889c08	81.99199879971286
244	0x40547f7fd52e5894	81.99217729116418
245	0x40547f82c1d41520	81.9923557826155
246	0x40547fa0004d7298	81.99414069712873
247	0x405480c4710b1948	82.01198984226096
248	0x40548c30d8739c28	82.19048129358328
249	0x4054ac30d8739c28	82.69048129358328
250	0x4054cc30d8739c28	83.19048129358328
251	0x4054ec30d8739c28	83.69048129358328
252	0x40550c30d8739c28	84.19048129358328
253	0x40552c30d8739c28	84.69048129358328
254	0x40554c30d8739c28	85.19048129358328
255	0x40556c30d8739c28	85.69048129358328

position_x f8 [379]
0	0x0000000000000000	0.0
1	0x3fc64243f854999b	0.1738972628165357
2	0x3fff0b6ae77b5bbf	1.9402874986896987
3	0x40270a1b95fb3bc7	11.519741713445809
4	0x403657fd6390f70a	22.34371015824494
5	0x40413462cadaa595	34.40926490474809
6	0x4047db2585786519	47.712082561289385
7	0x404f1f8bc0880eb2	62.246452394899634
8	0x405380568a560a81	78.00528200533337
9	0x4057beb9ef83c0e7	94.98009860865169
10	0x405c4a62b19ad4cb	113.16227378959881
11	0x4060914cac2230e7	132.54060942342696
12	0x4063233d3da4c6e9	153.10122568305022
13	0x4065da832c7ffddd	174.8285124301755
14	0x4068b68fe9e20db6	197.70506757880293
15	0x406bb6c5a19c4d4c	221.71162491348002
16	0x406eda768bac09be	246.82697089768584
17	0x40711072133d9d51	273.027850380594
18	0x4072c49f2d0f3df2	300.2888613315
19	0x407489512b3d64ac	328.5823166273283
20	0x40765e0be32ef376	357.877902205851
21	0x40784248088d319e	388.1425862803825
22	0x407a35732eef720c	419.34062093289754
23	0x407c36ef331956d4	451.4333983411609
24	0x407e461198d6890c	484.3792961483275
25	0x4080311219bfdae1	518.1338381756469
26	0x4081453896732770	552.6526307102595
27	0x40825f1f7721cb87	587.8903639450299
28	0x40837e63068b628f	623.7983523263409
29	0x4084a297ee44a517	660.3241849291688
30	0x4085cb4a989a0ea7	697.411423877308
31	0x4086f7fe8646bab6	734.9992795491914
32	0x4088282d972470f0	773.0222609374014
33	0x40895b4744e7418a	811.4097993914486
34	0x408a90afcee056d4	850.0858438040254
35	0x408bc7bf55aec652	888.9684251455567
36	0x408cffc0e5b2feba	927.9691881164538
37	0x408e37f16f0ac459	966.9928875771685
38	0x408f6f7ea957b146	1005.9368464327788
39	0x4090547c92b39a8a	1045.121653372104
40	0x4090f2ee03127c24	1084.7324335945386
41	0x409192b9bdb422ef	1124.6813877245256
42	0x4092337bed610794	1164.8710227166057
43	0x4092d4c6222c3d08	1205.1934897339106
44	0x4093761e93822775	1245.5298595749457
45	0x409416ff548c3633	1285.7493459613877
46	0x4094b6d57aa264d1	1325.7084756254228
47	0x409555003567f9f1	1365.2502037283232
48	0x4095f0cfd76c411b	1404.2029702105272
49	0x40968984ca3a9454	1442.3796776917488
50	0x40971e4e4198ad32	1479.57642210538
51	0x4097a96edf0ee7a4	1514.3582727745898
52	0x4097b7129a48d5ca	1517.7681666737067
53	0x4097c1640095a809	1520.347658480054
54	0x4097d06980b4e3b2	1524.1030300392126
55	0x4097d368a2d2de65	1524.852183623146
56	0x4097d49b4e41d958	1525.1516657151133
57	0x4097d700548336e8	1525.7503223898184
58	0x4097d964eeee166e	1526.3485676957312
59	0x4097eec3eed5a830	1531.6913407691864
60	0x4098502f5f7aca36	1556.0462626634521
61	0x409888b062128fa3	1570.1722491169137
62	0x4098a22f564b0291	1576.5462276192013
63	0x4098e4a2abf694e5	1593.1588591125849
64	0x409947460ee5ebda	1617.818416206856
65	0x4099ab89b66fcf95	1642.884485003514
66	0x409a00a44f7ed47a	1664.160459500998
67	0x409a44fd7120bd4f	1681.2475018611474
68	0x409a76e54f1d94ee	1693.7239346143865
69	0x409a94a56ec436a2	1701.1615553530069
70	0x409a9c813fa23a27	1703.1262193058008
71	0x409a8ca4a351af84	1699.1607792628647
72	0x409a6323e5d8f09c	1688.78505648583
73	0x409a1dfcc0e7749e	1671.4968296208312
74	0x4099bb17b3f5cd95	1646.7731474310615
75	0x40993849bf57eb0f	1614.072018979761
76	0x409893568fdd330d	1572.8345331728372
77	0x4097c9f327e292ea	1522.4874568369073
78	0x4096d9c9119f7bb5	1462.4463562888388
79	0x4095c07a644e35d5	1392.1195232601506
80	0x40947ba6e277399e	1310.912973273174
81	0x409308ff6d429199	1218.2494402314535
82	0x409166edd44e3ae6	1113.7322551940392
83	0x408f28d15ab6fbea	997.1022238059643
84	0x408b20c0b0e8f48a	868.0940874290111
85	0x4086b3796b875a02	726.4342871260017
86	0x4081debfaf285ec8	571.8435958055425
87	0x40792ce78a894f15	402.80652860294623
88	0x406a54f9e4f3d316	210.6555046808432
89	0xc0181e04d0a4f100	-6.029315242831444
90	0xc06edb76219e07fc	-246.85817032685725
91	0xc07ff49f9173748f	-511.2889570722554
92	0xc088f5169e01e68a	-798.6360435627441
93	0xc091504efa15f7c6	-1108.077125876663
94	0xc0967aa32ff0cf94	-1438.6593625666328
95	0xc09bf5380df8e170	-1789.3047407996746
96	0xc0a0dda11a2b950f	-2158.8146527881104
97	0xc0a3e3bf553b0a9d	-2545.8736971331077
98	0xc0a70a1b0273916e	-2949.0527530779864
99	0xc0aa4d9f709db4a8	-3366.8114060671833
100	0xc0adaaffe9c078bd	-3797.4998302600275
101	0xc0b08f5c39d8f0d2	-4239.36025768165
102	0xc0b252873719b06e	-4690.528184514593
103	0xc0b41d089252f111	-5149.033482726912
104	0xc0b5eccd35a776c2	-5612.801599947446
105	0xc0b7bfa7b0dcb487	-6079.655042451929
106	0xc0b99350ba7d10dc	-6547.315345589272
107	0xc0bb6567decab602	-7013.405743283687
108	0xc0bd33746abe3bd3	-7475.454753770452
109	0xc0befae6a19223c4	-7930.9009028756445
110	0xc0c05c8ca5c9245a	-8377.098809378385
111	0xc0c135a9d68a6bcf	-8811.326859762803
112	0xc0c20765fa58850a	-9230.7967024469
113	0xc0c2d05517ff2b75	-9632.664794822902
114	0xc0c38f05eb360190	-10014.046240568889
115	0xc0c44203fd0d2001	-10372.03116001189
116	0xc0c4e7da17875996	-10703.703843039268
117	0xc0c57f151cab5b1b	-11006.1649374194
118	0xc0c5bd416c2386da	-11130.511112633558
119	0xc0c5c94c8193ec8b	-11154.597704401493
120	0xc0c5d8fc0228e270	-11185.968815908971
121	0xc0c5e86fca4b35dc	-11216.873361016558
122	0xc0c5fdcfacdc1af1	-11259.622462762027
123	0xc0c612b661fbc22c	-11301.424865217028
124	0xc0c6130f6fbdb615	-11302.120597566516
125	0xc0c613330c5f1a67	-11302.398815048115
126	0xc0c6137d049629ee	-11302.976702471231
127	0xc0c613c6f6b40c17	-11303.55440378752
128	0xc0c616a4115331da	-11309.281778716413
129	0xc0c6260c7609a662	-11340.09735222458
130	0xc0c631ed8577bf6d	-11363.855635612936
131	0xc0c63da2a8009ede	-11387.270752027103
132	0xc0c64b9aca4f4291	-11415.209298999313
133	0xc0c6653784443c38	-11466.433723954586
134	0xc0c68a6e30e05ab7	-11540.860866588873
135	0xc0c6ba15333630e9	-11636.165625356562
136	0xc0c7015d7604b6ed	-11778.730164136237
137	0xc0c747f234ee1f4e	-11919.89224030045
138	0xc0c778dd3a79b2ba	-12017.728347027081
139	0xc0c7931b3a56f693	-12070.21271788635
140	0xc0c795cf6123f5eb	-12075.620151991918
141	0xc0c7804aa240fc92	-12032.583076594663
142	0xc0c752138df37655	-11940.152769501476
143	0xc0c70aee97061cee	-11797.863983883024
144	0xc0c6aae69f4142de	-11605.801735074663
145	0xc0c632558ec48142	-11364.668419421305
146	0xc0c5a1eca491f0a6	-11075.84877228022
147	0xc0c4fabc18af5d2c	-10741.469503326887
148	0xc0c43e399589a630	-10364.4498760282
149	0xc0c36e4503178d8a	-9948.539156860457
150	0xc0c28d2b1f285c3c	-9498.336888356243
151	0xc0c19da56f0fc034	-9019.292451828813
152	0xc0c0a2d73901c001	-8517.681427210571
153	0xc0bf408eca2a69ac	-8000.557772303389
154	0xc0bd33aec2641267	-7475.682653669827
155	0xc0bb276ebd5bcdf1	-6951.432576883105
156	0xc0b924b0e0a8c4b5	-6436.69092802813
157	0xc0b734ba511676cb	-5940.727799800875
158	0xc0b6cd963f48591f	-5837.5869031159955
159	0xc0b6688ad269da94	-5736.5422731550825
160	0xc0b4f3a97ca84607	-5363.662058369729
161	0xc0b36d708d6e4841	-4973.439658062592
162	0xc0b21bf094e58672	-4635.939771981548
163	0xc0b185bc16336511	-4485.734713756728
164	0xc0b110a5a209ad81	-4368.647003750667
165	0xc0b0d90228d23eaf	-4313.008435383133
166	0xc0b0ce1b1dd46ab1	-4302.1059239159085
167	0xc0b0c347034e23dc	-4291.277394183879
168	0xc0b0b885ba5811a8	-4280.522374634085
169	0xc0b0a4eb348b2c1a	-4260.918770502345
170	0xc0b0a1070758c3bd	-4257.027455852306
171	0xc0b09e42c2e1bb48	-4254.260786159728
172	0xc0b09910a2b43150	-4249.064982664146
173	0xc0b098072540ed01	-4248.027912195074
174	0xc0b095f4b2f57365	-4245.9558556944585
175	0xc0b095a8feca0e51	-4245.660137775893
176	0xc0b09511a192400f	-4245.068871632232
177	0xc0b094c5d888e8b6	-4244.772835308851
178	0xc0b0947a13371955	-4244.476855701146
179	0xc0b091852a67fd51	-4241.520178317399
180	0xc0b07443914f5945	-4212.263936003966
181	0xc0b05790c67544af	-4183.5655282299695
182	0xc0b03b69f5524ae2	-4155.413899558336
183	0xc0b00d1799a3233b	-4109.092188068486
184	0xc0af9ec357355af6	-4047.3815247224366
185	0xc0aed2522a9d382c	-3945.160481370074
186	0xc0ad896aba9891bf	-3780.708454864303
187	0xc0ac3ce63a3e2945	-3614.449663107431
188	0xc0ab136d3c7fbc0c	-3465.7133521954584
189	0xc0a9ff800a82edbf	-3327.7500801959245
190	0xc0a8f5685528f671	-3194.7037747193176
191	0xc0a7ebdb7946b084	-3061.92865963845
192	0xc0a6dc7abbc83ddb	-2926.2397139144427
193	0xc0a5c42ff8f80627	-2786.093696356536
194	0xc0a4a365e33be52d	-2641.698999282575
195	0xc0a37e1bb72c65fa	-2495.054131877373
196	0xc0a25bcfdb50a6ab	-2349.905970115991
197	0xc0a14748ac14521b	-2211.641937861464
198	0xc0a04e47993d7b4c	-2087.1398410046586
199	0xc09f02319777ecd0	-1984.5484293688096
200	0xc09de40b466ba073	-1913.0110108200722
201	0xc09d6956066f5d21	-1882.3340089226333
202	0xc09dba66fb901ce8	-1902.6005690114634
203	0xc09eff0750b84169	-1983.7571438589023
204	0xc0a03f3f7042ce90	-2079.623903358188
205	0xc0a0f7c0a1d2f6ef	-2171.876234619754
206	0xc0a162e4ce80da11	-2225.446887995357
207	0xc0a19c4929fd8fc2	-2254.142898486899
208	0xc0a1aab58a877d7e	-2261.354572519368
209	0xc0a1b9498a98b5a6	-2268.643635532545
210	0xc0a1c805422dc1ef	-2276.0102705287204
211	0xc0a1d6e8c38dd78f	-2283.4546169591554
212	0xc0a1ee13a865d8d5	-2295.0383941485584
213	0xc0a1f2cc50945654	-2297.399052272356
214	0xc0a1f3be810851b8	-2297.8720781898264
215	0xc0a1f41f6c25a843	-2298.0613719718835
216	0xc0a1f48ca1abfcb1	-2298.274670958134
217	0xc0a1f4f9df1fea67	-2298.4880304311405
218	0xc0a1f93ffa29895e	-2300.6249554615197
219	0xc0a224a8c55c9a88	-2322.329630750526
220	0xc0a23122a80cf2e0	-2328.5676883741835
221	0xc0a23db5b27ab02f	-2334.8548773136204
222	0xc0a24a61effaf09d	-2341.1912840288846
223	0xc0a2783f2b5d9c6d	-2364.123377728791
224	0xc0a2b836f55ecde7	-2396.1073407770486
225	0xc0a322c2de231c52	-2449.380601021964
226	0xc0a3bd56dfd92925	-2526.6696765768743
227	0xc0a4e03cef518f0d	-2672.1190133559344
228	0xc0a71d9c044a8ce2	-2958.804720239351
229	0xc0aaca5bef1514b5	-3429.1795584285524
230	0xc0af2ecbd6e21062	-3991.3981238026618
231	0xc0b2227823317a34	-4642.469287006697
232	0xc0b4ffffa4c2f4e2	-5375.998607811724
233	0xc0b825a1db55e1b8	-6181.632253043754
234	0xc0bb658ae16fae84	-7013.542502384287
235	0xc0bcb2844a4c11a7	-7346.516758684454
236	0xc0bd057c06f93b79	-7429.484481408138
237	0xc0bd204476353646	-7456.267428708792
238	0xc0bd259fb3a83e4f	-7461.62383510133
239	0xc0bd26c783c6afac	-7462.779354493989
240	0xc0bd29172379b21f	-7465.090385061251
241	0xc0bd2a03c98e05d6	-7466.01479423182
242	0xc0bd2a62725ac668	-7466.384557412566
243	0xc0bd2a884f782b4f	-7466.532462606977
244	0xc0bd2ad409b0b7fd	-7466.828272862357
245	0xc0bd2b1fc3efae20	-7467.124083499919
246	0xc0bd2e150d0e55c8	-7470.082230468695
247	0xc0bd4baaf06dc38f	-7499.667731151813
248	0xc0be73e5c57e9459	-7795.89754477617
249	0xc0c0da314fa27029	-8628.385242752805
250	0xc0c27aedfc6aa458	-9461.8592656424
251	0xc0c4127d5b9f0658	-10276.97935855684
252	0xc0c5970e8563388c	-11054.113445665942
253	0xc0c701eb118fb391	-11779.836473429374
254	0xc0c84de87f036f6f	-12443.81637614194
255	0xc0c97756078f5b1a	-13038.672105712398

position_y f8 [379]
0	0x0000000000000000	0.0
1	0xbeadadca8e3128a9	-8.844993114678819e-07
2	0xbf1c2184e5b9d806	-0.00010731099740177172
3	0xbf6b629beca3f9ef	-0.003342918910788521
4	0xbf86f1eaa51e341f	-0.01120360676193327
5	0xbf98680ba54aa6f6	-0.023834402049636126
6	0xbfa52c30152bc93a	-0.041352751335482954
7	0xbfb057e4007be392	-0.06384110462012263
8	0xbfb761f79e3358ea	-0.09133861172026383
9	0xbfbfb375225f0687	-0.12383205498829329
10	0xbfc4a3afb866b6cf	-0.1612453127285591
11	0xbfca0a0bab342066	-0.20343156680633284
12	0xbfd002ab425e7edb	-0.250162901700589
13	0xbfd3458c0f5cd240	-0.3011198186898447
14	0xbfd6c6c7d2da6e54	-0.3558826026071291
15	0xbfda7dbb7b39c46d	-0.41392409356837484
16	0xbfde5feb4781b67e	-0.4746044348056343
17	0xbfe1307bbf2c98da	-0.5371683820601689
18	0xbfe3394f2a5fac49	-0.6007457568752069
19	0xbfe54266bbabe9fd	-0.6643556275806187
20	0xbfe742e3302f3316	-0.7269149724103012
21	0xbfe9312a213ce21a	-0.7872515343834181
22	0xbfeb030ac02a0bfd	-0.8441213372428816
23	0xbfecaded30f863d5	-0.8962312656832362
24	0xbfee270bb73254f4	-0.9422663286265149
25	0xbfef63b3bff86429	-0.9809206723613261
26	0xbff02cc231f81df0	-1.0109273864671842
27	0xbff07f5ed4bb401f	-1.0310962972471385
28	0xbff0a54c368725ab	-1.0403558855053727
29	0xbff09acc4134d651	-1.0377924487232983
30	0xbff05cee404d6ba7	-1.0226881515325006
31	0xbfefd367eb2e72b2	-0.9945563882243589
32	0xbfee8063e0174446	-0.953172624280463
33	0xbfecc15222c81ef7	-0.8985987357454793
34	0xbfea992e0bdc9020	-0.8311987144156809
35	0xbfe80d7671edfe05	-0.7516433930576915
36	0xbfe5261ac98a13fc	-0.6609014450374384
37	0xbfe1ed43f44a2dab	-0.5602130671772348
38	0xbfdcddda7e54294c	-0.4510408624343156
39	0xbfd56c0902b62da6	-0.3347189451676179
40	0xbfcb3a6c21590bb0	-0.21272040966331707
41	0xbfb62aa42f4b7778	-0.08658815531404496
42	0x3fa5ba22e29ac8b8	0.042435732042024055
43	0x3fc63d2429688710	0.17374088308229618
44	0x3fd3b514aec42aba	0.30792729441661104
45	0x3fdcab2fc0483a4a	0.4479483964686649
46	0x3fe3411877633cd3	0.6016962367811182
47	0x3fe93e26207c5101	0.7888365396961775
48	0x3ff1011acc83a52e	1.0627696980321377
49	0x3ff9a62a76a79292	1.6030678400940457
50	0x400a7d37bbb95a0c	3.311141459077822
51	0x401fecc7cb42fa7a	7.981230903590239
52	0x402145c8fe712dd7	8.636299086871913
53	0x4022528e00236f52	9.161239628148596
54	0x4023f303fce501d7	9.97463980002878
55	0x402449e2d3b29083	10.14430867724173
56	0x40246cfb1d2787e5	10.212853346896688
57	0x4024b37ccae6f278	10.350561466876783
58	0x4024f953f94ed540	10.486968794701738
59	0x40274ad99eeb911f	11.646191564803813
60	0x402f8e10db9e21ba	15.77747236543006
61	0x4031376ab245d13b	17.216471807523003
62	0x40319c40de61fec7	17.61036481754743
63	0x40324f32f1af0766	18.309371094924607
64	0x4033029acc336ba6	19.010174524835428
65	0x40339f44cdd60edd	19.622143616447705
66	0x4034297caab8838b	20.162058515593838
67	0x4034aa7b951e74f9	20.665948219238064
68	0x40352550e508472c	21.14576560451603
69	0x40359b564483127b	21.606785089492842
70	0x40360d60059846dd	22.05224642722793
71	0x40367c21de1c233d	22.48489177882151
72	0x4036e84c0b50eb19	22.907410342460114
73	0x403752962597a3a9	23.322603559037507
74	0x4037bbbfcf2adef5	23.73339552685407
75	0x4038248cdd323250	24.142774414782536
76	0x40388dbf7a74494a	24.55370297755261
77	0x4038f811775b0162	24.969016513555637
78	0x4039642d74a36938	25.391318597693697
79	0x4039d2a84a068f4c	25.822880388833525
80	0x403a43faebcaef7c	26.265547501606747
81	0x403ab87e75a6e023	26.72067962001905
82	0x403b3057e488eb41	27.188841136386376
83	0x403bab812826e92e	27.669939527034494
84	0x403c29dad5519b9e	28.163495380805777
85	0x403cab1b6139d05f	28.66838653241609
86	0x403d2ecfba6442d2	29.182857179143703
87	0x403db4b845a5213e	29.70593676835528
88	0x403e3ec04679f0f7	30.2451213882168
89	0x403ecd44aca126e5	30.80182913717626
90	0x403f602c69dfbbb0	31.375677697298386
91	0x403ff74f33ef5b81	31.966052289902567
92	0x4040493aeba16e22	32.57211060888609
93	0x404098aef53a2ca2	33.19283929195923
94	0x4040e9de0ad2ac01	33.82708869253839
95	0x40413c9ef198c41c	34.47360057791977
96	0x404190c5ac293167	35.1310324860704
97	0x4041e624320c7a34	35.7979795990872
98	0x40423c8b1487ae28	36.47299439072623
99	0x404293ca124e529c	37.15460423302031
100	0x4042ebb09be793b7	37.84132717902633
101	0x4043440e4aecaed0	38.53168617779522
102	0x40439cb34e7e8d7d	39.22422200373965
103	0x4043f570cf681143	39.91750519353311
104	0x40444e194e5c5a41	40.61014728078272
105	0x4044a680fe9e4944	41.3008116028673
106	0x4044fe7e1f1e1f7d	41.98822392435884
107	0x404555e953afa7e3	42.67118307187027
108	0x4045ac9dff46001b	43.34857169073094
109	0x4046027a9ecb5954	44.01936707429073
110	0x4046576121435565	44.68265167033932
111	0x4046ab37329a336a	45.33762199906671
112	0x4046fde65942c624	45.98359218368958
113	0x40474f5b7e677b61	46.619979668167396
114	0x40479f8450285f0f	47.246225375855026
115	0x4047ee42e576c075	47.861416514381666
116	0x40483b23594fb064	48.46201626196924
117	0x404885f4d1ddae8a	49.046533807032645
118	0x4048a4ddaa2b96b3	49.288014670642404
119	0x4048aa3d1b6d746a	49.32998984188528
120	0x4048b01568b947e5	49.37565335318485
121	0x4048b29fba882dcc	49.39549953126297
122	0x40489ecfcc0d09db	49.24071646343847
123	0x40484bc297bfc614	48.59187600006058
124	0x404849ceeb295e62	48.57662715454059
125	0x40484905872df5ca	48.57048120254656
126	0x4048476051e0fd1b	48.55762694822098
127	0x404845bc606be3d4	48.54481129901947
128	0x4048365c780d770c	48.42469692857239
129	0x4047fb65bb3111ec	47.964042090377774
130	0x4047ea27aaf8e693	47.82933556702951
131	0x4047ebf882d70dca	47.8435214567249
132	0x4047f64a2a3e7997	47.92413833666358
133	0x404810d0b1cfd644	48.131368853075884
134	0x40483dc3e3a26023	48.4825405638551
135	0x40487d7c50efe2d6	48.980356328136324
136	0x4048eab460370629	49.83362963377687
137	0x404972bbaca3ec7d	50.89635236744014
138	0x4049f9f40390a3f6	51.95275921404384
139	0x404a80737ceb1ef5	53.00352441292299
140	0x404b065fcc474f77	54.04979852182344
141	0x404b8be37ab9fda8	55.092879620376436
142	0x404c112a5b301f9c	56.13410510873584
143	0x404c965eb0d0616e	57.17476473021348
144	0x404d1ba62f1be9eb	58.21600903380371
145	0x404da11ee9d87c1b	59.2587559039168
146	0x404e26dc8fca8afa	60.30360600843228
147	0x404eace668393e22	61.350781467390576
148	0x404f33369152861f	62.400102772993925
149	0x404fb9bae96c35e3	63.451016595685154
150	0x4050202bed59875c	64.50268110030214
151	0x4050637679603805	65.55410608669634
152	0x4050a6ad69456f43	66.60433418064808
153	0x4050e9c4d6abe8ad	67.65263907230356
154	0x40512cb7ac983263	68.69871058333369
155	0x40516f89fc19f0df	69.74279692204753
156	0x4051b24a488bd933	70.7857838979442
157	0x4051f511d3667b56	71.82921299942004
158	0x4052036c7e72e47d	72.05349694461798
159	0x405211a643bf4cd9	72.27577298814448
160	0x405247a251def063	73.11928221484554
161	0x4052835d4c698610	74.05256948761985
162	0x4052bb1b18f78750	74.92352890179359
163	0x4052d53995e743f4	75.33163974365726
164	0x4052ea730f28f44d	75.6632726573891
165	0x4052f558169a8bc2	75.83350148289085
166	0x4052f7c2c488c07e	75.87126267771416
167	0x4052fa72853466f3	75.91323976628682
168	0x4052fdb7b7a9d993	75.96433822237877
169	0x405307b0096adc72	76.12011943278938
170	0x40530a61b6131b68	76.16221382013248
171	0x40530c6c197af92f	76.19409787186736
172	0x4053108bfd5ac33d	76.25854429114857
173	0x4053116b2f8f94d2	76.2721671011125
174	0x40531336552138c0	76.30019119495682
175	0x40531379553381cd	76.30428056745514
176	0x405314006c0f996e	76.31252576373456
177	0x4053144431445e03	76.31666213680732
178	0x40531487764df64a	76.32076795209392
179	0x4053170d9989cb83	76.36020506340542
180	0x4053279cd933f174	76.61894826958252
181	0x40532d5ef5c4ce49	76.70892090052907
182	0x40533110c284e86e	76.7666479394845
183	0x4053366b2e68947a	76.85029182637109
184	0x40533d388e1686bc	76.95657684516749
185	0x40534837b1b7bb02	77.12839930479461
186	0x4053591dc24578b1	77.39244133743593
187	0x40536864270df13e	77.63111282693441
188	0x40537342906cf200	77.80093775405112
189	0x405379c55aee0869	77.90267060513874
190	0x40537bfd941f239b	77.93735220948149
191	0x40537a0194b6b8d0	77.90634649127901
192	0x405373ed1699394c	77.81134571994079
193	0x405369e112f02857	77.65436242535485
194	0x40535c037302f258	77.43771052634963
195	0x40534a7e8e072c80	77.16397429180688
196	0x405335802501d7ab	76.83594632320334
197	0x40531d381efc57e3	76.45655035632039
198	0x405301d780fec50a	76.02877831344463
199	0x4052e38ed9a533b7	75.55559388287553
200	0x4052c28c79ed73a8	75.03982399166728
201	0x40529efabbb53907	74.48405354211364
202	0x405278ff79cdec7f	73.89059300527332
203	0x405250c5d72c8d19	73.26207522726726
204	0x405233fd6951488b	72.8123420041831
205	0x40521ec209317f06	72.48059301217663
206	0x405215010934cd60	72.32818823009939
207	0x405212a087b2bdcb	72.29104797797406
208	0x40521349a7f5fe11	72.30137061140728
209	0x4052155dbff3a416	72.33384703438819
210	0x40521a2569858919	72.40853345909672
211	0x405221f2460bfa93	72.53041220826917
212	0x4052331349aad544	72.79805223162572
213	0x4052375a03516ced	72.86486895515164
214	0x4052383e8958e1df	72.87881692581094
215	0x4052389add63b079	72.88445219741142
216	0x40523903480b086a	72.8908252818816
217	0x4052396b338e13b2	72.89716805338574
218	0x40523d5ba90a2186	72.9587195013938
219	0x405259eac27f7f96	73.40495359850897
220	0x40525e14f7a2e959	73.47002974423721
221	0x405260828c0053f0	73.50796794921894
222	0x405261ebe93b8d19	73.53002386870902
223	0x40526368f7e93954	73.55328176284576
224	0x4052628d3ae3f697	73.53986999761615
225	0x40525f9f571e3f33	73.49410036042973
226	0x40525ad7d6d2c973	73.41942377648029
227	0x405251e4a1fcec6f	73.27957963656966
228	0x4052413b0344a15b	73.01922685339143
229	0x405227da498cead6	72.62269819985826
230	0x40520b2a0c6e3de8	72.17444144025615
231	0x4051eabb6072c1f2	71.66768656927869
232	0x4051c607e9164d04	71.09423281839196
233	0x40519c73981cf461	70.44455530955885
234	0x40516c577cfcda10	69.69283985798415
235	0x4051575e56ef786d	69.3651330317095
236	0x40515209537130ec	69.28181921056574
237	0x4051504ebea43edc	69.25480619468311
238	0x40514ff61faa39e2	69.24939719794887
239	0x40514fe3004b0bac	69.2482300503604
240	0x40514fbcc0535cf7	69.24589546338017
241	0x40514fad73152832	69.24496151987185
242	0x40514fa7541cd42e	69.24458792510333
243	0x40514fa4e1501dc2	69.24443848441936
244	0x40514f9ffbb1950c	69.24413959829343
245	0x40514f9b160d1338	69.2438407066046
246	0x40514f6a1c753c65	69.24085151146717
247	0x40514d7fe987dfd0	69.21093214291545
248	0x40513a33ac2f5d65	68.90940384507628
249	0x40510393479a613f	68.05586423946532
250	0x4050ce4b9b226e0a	67.2233646236638
251	0x40509d7a046dedde	66.46057234511633
252	0x405072070fd4f170	65.78168102069117
253	0x40504c79d41274cc	65.19493581583373
254	0x40502d9f123681d7	64.71283393214195
255	0x40501689c810dce4	64.35215951582683

position_z f8 [379]
0	0x0000000000000000	0.0
1	0x3fef8ad9004a20ad	0.9856991773276796
2	0x4025e37cf0e45861	10.944312599062131
3	0x404fc25b5dc84280	63.51841327932652
4	0x405e306615aac995	120.75623075178585
5	0x4066d64cb0bda3ae	182.6968616203207
6	0x406f2c2439cd1448	249.37942209295784
7	0x40740d7d25375984	320.8430530702683
8	0x4078d207e581f2d8	397.12692785988975
9	0x407de452ff1a0c9e	478.27026281524184
10	0x4081a28df32dc9d4	564.3193114831179
11	0x40847a82b183ab3d	655.3138151442178
12	0x40877a4aa2f218f6	751.2864436067455
13	0x408aa22593f1c6a8	852.2683485878706
14	0x408df24ffee82ec0	958.289060415198
15	0x4090b5816d70f340	1069.376394047591
16	0x40928639b7f230a5	1185.556365761012
17	0x40946b6998be8a11	1306.8531217357415
18	0x40966527d011f0d4	1433.288879661869
19	0x40987388f6ba4889	1564.8837536913654
20	0x409a969e275c6a22	1701.654447025278
21	0x409cce753281d1b4	1843.6144504818194
22	0x409f1b1976072cec	1990.7748643037003
23	0x40a0be49f40966d5	2143.1444399774578
24	0x40a1f975901afd06	2300.7296150621287
25	0x40a33f12ba457063	2463.5365773868266
26	0x40a48f2ea7f81989	2631.5911252528354
27	0x40a5e9deac73e8d6	2804.934909460232
28	0x40a74f396646a150	2983.612108428184
29	0x40a8bf569659887c	3167.6691158274753
30	0x40aa3a4f2ef511fc	3357.154655130811
31	0x40abc03d61b7e3a7	3552.1198861565967
32	0x40ad513cac4c379a	3752.6185020273088
33	0x40aeed69e39fbb7d	3958.7068147579544
34	0x40b04a719ead03a7	4170.443827451126
35	0x40b123e42ba229a7	4387.89129079358
36	0x40b2031d1e2502b7	4611.113741219676
37	0x40b2e82db35667ae	4840.178517723381
38	0x40b3d327df5ec708	5075.155752109138
39	0x40b4c40bc6c60e09	5316.046001795222
40	0x40b5badea1979583	5562.869653200151
41	0x40b6b7b13d228a72	5815.692339094925
42	0x40b7ba950edb0070	6074.582257926566
43	0x40b8c39c2da01dff	6339.610071189235
44	0x40b9d2d947e5b866	6610.848753316421
45	0x40bae85f96527865	6888.373387483972
46	0x40bc0442ca399ea6	7172.260898209794
47	0x40bd2696f71e9ab9	7462.589708245062
48	0x40be4f7075631c0d	7759.439291185711
49	0x40bf7ee3b21c4904	8062.889436500383
50	0x40c05a81a7d087c4	8373.0129337943
51	0x40c0f368bc395024	8678.818244136935
52	0x40c102df356a90ab	8709.743817635192
53	0x40c10ea10f7184cd	8733.258283796162
54	0x40c11fd6f7f87ab5	8767.67944246284
55	0x40c12349549a2859	8774.572894353581
56	0x40c124aa62a08099	8777.331134856026
57	0x40c1276caf68e8fb	8782.849103082428
58	0x40c12a2f3ee6e35e	8788.369107113856
59	0x40c142f726e443b4	8837.930874379213
60	0x40c1b7ab1164bb4f	9071.33646830698
61	0x40c1ff58e2ad0f0f	9214.694417602876
62	0x40c220d618674196	9281.672619730973
63	0x40c27bfde24d2508	9463.983468669016
64	0x40c31020dd3627e9	9760.256750840652
65	0x40c3bd4d49d17fd6	10106.603815257473
66	0x40c46e059caf6986	10460.043844152951
67	0x40c5224b627bdb54	10820.588942987531
68	0x40c5da1e483baabb	11188.236579378476
69	0x40c6957c93caf7e4	11562.973260279694
70	0x40c75462e3e58dc1	11944.772579855171
71	0x40c816cb068c1bd8	12333.586137307735
72	0x40c8dcab8da17432	12729.340259725319
73	0x40c9a5f7662c6701	13131.932805586142
74	0x40ca729d6a296844	13541.229802299415
75	0x40cb4287edaff356	13957.061941140953
76	0x40cc159c4881eb96	14379.220962753327
77	0x40ccebba5d684356	14807.455975563887
78	0x40cdc4bc210fe86f	15241.469758976453
79	0x40cea07512e8b46e	15680.91463955698
80	0x40cf7eb1a235f400	16125.38776277937
81	0x40d02f9c1c409ae0	16574.439224387403
82	0x40d0a0ebeaef8331	17027.686214330784
83	0x40d11333a2197360	17484.80676876323
84	0x40d1865ccc8dad70	17945.44998495042
85	0x40d1fa4ecaf35385	18409.23113711506
86	0x40d26eeebdbda745	18875.730330861425
87	0x40d2e3c1e9772397	19343.029874596363
88	0x40d35601ebd0b503	19800.030018021364
89	0x40d3c4cd8d066a73	20243.21173248668
90	0x40d42fbccc909bd0	20670.949985649262
91	0x40d4966897a62eac	21081.634255929544
92	0x40d4f86b4374688e	21473.675992109398
93	0x40d55561002b265b	21845.51563528772
94	0x40d5ace84335b45f	22195.629102159637
95	0x40d5fea22b4e08a6	22522.533893116422
96	0x40d64a32e159b6f6	22824.795004299805
97	0x40d68f41f907542a	23101.03082450122
98	0x40d6cd7ad40cd576	23349.91919251295
99	0x40d7048d0ab855a4	23570.20377930034
100	0x40d7342cdc406c25	23760.70094309388
101	0x40d75c13a8eb64f1	23920.307185028625
102	0x40d77c0077c07818	24048.007309071807
103	0x40d793b88906dcb1	24142.883363452453
104	0x40d7a307f65f8f57	24204.124412431698
105	0x40d7a9c260cb584e	24231.03715785621
106	0x40d7a7c3ac72aaaa	24223.057400385536
107	0x40d79cf0c98c1eda	24179.76230147374
108	0x40d78938894c589c	24100.883380018742
109	0x40d76c947d62bd20	23986.32015293569
110	0x40d74709e02cb5fe	23836.15430753491
111	0x40d718aa837fd936	23650.66427608692
112	0x40d6e195c3b38812	23430.34006965912
113	0x40d6a1f97c6c21fd	23175.898219140236
114	0x40d65a12fc92429d	22888.296665730526
115	0x40d60a2ff6d292ac	22568.749439852938
116	0x40d5b2af6bfab3de	22218.740965533878
117	0x40d554028c230b33	21840.039803276955
118	0x40d527bebdcc780f	21662.980334393735
119	0x40d51ebd0ad4f3f9	21626.95378612352
120	0x40d512c7738b80e0	21579.116427303175
121	0x40d506bbb6738251	21530.93301093794
122	0x40d4f59d1dcf8f00	21462.454944505356
123	0x40d4e453fd7a8e9f	21393.312346114424
124	0x40d4e4091f3bc315	21392.142531338224
125	0x40d4e3eb2be6132b	21391.674554365844
126	0x40d4e3acf0b32006	21390.70219114425
127	0x40d4e36eb367fb87	21389.729700084335
128	0x40d4e1041da2c085	21380.06430882264
129	0x40d4d3d2a9d66869	21327.29161606022
130	0x40d4c96bbc9286ad	21285.683384543914
131	0x40d4bef6777e96c9	21243.851043364764
132	0x40d4b233e95ce94f	21192.8111183432
133	0x40d499f3dcc17e4e	21095.81034886679
134	0x40d47480710c51d4	20946.006899909888
135	0x40d43fea7edb35af	20735.663992693353
136	0x40d3e3c37dffea5f	20367.054565409544
137	0x40d36cb7d8245194	19890.872567252794
138	0x40d2f23db37a54f9	19400.964079459172
139	0x40d2754ae1e51f25	18901.170037537016
140	0x40d1f6eb1f5eeb7f	18395.673789720513
141	0x40d1783fbc22b017	17888.995857879603
142	0x40d0fa7edc83b734	17385.98220913783
143	0x40d07ef2303e6b81	16891.784194569573
144	0x40d006f4fe272262	16411.828012260034
145	0x40cf27e2bbca34cf	15951.771355891977
146	0x40ce4eb8f2bd14c2	15517.444907794128
147	0x40cd8563689c848b	15114.776629986494
148	0x40ccced9477aa859	14749.697493869973
149	0x40cc2e03a3808b6b	14428.028427188945
150	0x40cba5acc73a6d62	14155.349829963121
151	0x40cb386daebf1f36	13936.856895342102
152	0x40cae89a5b86e8dc	13777.205918182088
153	0x40cab82de0ee1adb	13680.358426821816
154	0x40caa8b7289e063a	13649.430927041092
155	0x40cabb476ad90ac2	13686.557948236707
156	0x40caf0632ae485b4	13792.77474648026
157	0x40cb47f6362b85c3	13967.923528137506
158	0x40cb5f34f9c64965	14014.41387251457
159	0x40cb77831df8b5ed	14063.024352158385
160	0x40cbdd97aee41c68	14267.18502475154
161	0x40cc605a7586d775	14528.706711631015
162	0x40cce98b1573e5a3	14803.086592185142
163	0x40cd2f3662f7a4be	14942.424895244065
164	0x40cd69bc7da38757	15059.472584191402
165	0x40cd86f11e7ffff8	15117.883743286118
166	0x40cd8cc65577e1c3	15129.549483285175
167	0x40cd929ab5fbf7b1	15141.208678718513
168	0x40cd986e311b5776	15152.860873620706
169	0x40cda324a259ed6f	15174.286204567847
170	0x40cda548b1deb56b	15178.56792816027
171	0x40cda6cf1a7e4e99	15181.617996014002
172	0x40cda9adf7293d28	15187.359105257856
173	0x40cdaa40e762f4aa	15188.507061356988
174	0x40cdab66beef29d0	15190.802701850334
175	0x40cdab90b5de3ac7	15191.130550173473
176	0x40cdabe4a2feff2b	15191.786224245638
177	0x40cdac0eaaf0e36b	15192.11459170441
178	0x40cdac38b2a8b931	15192.442952242303
179	0x40cdaddcf34f723e	15195.726175242216
180	0x40cdbe425c5ac33c	15228.518443436937
181	0x40cdce9d9df87eca	15261.23138338271
182	0x40cddeed85d242e5	15293.855646402992
183	0x40cdfa5b5d2f0778	15348.71378124108
184	0x40ce2010e3c7273c	15424.131951231153
185	0x40ce61915ff4491f	15555.135740791038
186	0x40ced3257d96714c	15782.292895131417
187	0x40cf4fe815624bdf	16031.813152586981
188	0x40cfc6370b589157	16268.430033751456
189	0x40d01b5e3d7153ca	16493.472500163865
190	0x40d05177e2a5290d	16709.87320832261
191	0x40d0867a478f6405	16921.9106176831
192	0x40d0bbb976a5f340	17134.897866714047
193	0x40d0f2b56930a69d	17354.83454529067
194	0x40d12d0236f31f61	17588.034603863376
195	0x40d16c2f89e88b11	17840.742792259032
196	0x40d1b1b036db820e	18118.75334823323
197	0x40d1fec2fdde9c3e	18427.046744968968
198	0x40d2545c96bcf964	18769.446700328393
199	0x40d2b313a04c78ea	19148.306658857422
200	0x40d31b0f21e775c2	19564.23644434452
201	0x40d38bf8467406ff	20015.87930012401
202	0x40d404f06d6d5840	20499.756678901846
203	0x40d4848a11b3d6e9	21010.157330474733
204	0x40d4def9ea002d9c	21371.90490726904
205	0x40d521c34f7e0f5e	21639.051726832397
206	0x40d5435393d31bed	21773.305897500297
207	0x40d554216f13661d	21840.522404527397
208	0x40d5583d7e173bdd	21856.960820969067
209	0x40d55c59a1a4580d	21873.400490842807
210	0x40d56075d2139859	21889.84094705465
211	0x40d5649207937244	21906.281712400043
212	0x40d56ae1e6951f02	21931.529698639184
213	0x40d56c2816da73b0	21936.62639485643
214	0x40d56c69538fb058	21937.64572517606
215	0x40d56c836bd4726e	21938.05345641303
216	0x40d56ca0d13b6a3f	21938.5127705133
217	0x40d56cbe36a3a8ed	21938.97208491799
218	0x40d56de42cf9a74d	21943.565245068912
219	0x40d5795fb54c249a	21989.49544051718
220	0x40d57c9d69ed5f09	22002.459590285118
221	0x40d57fdb0c77e740	22015.422636009054
222	0x40d5831898baf44d	22028.38432191713
223	0x40d58e9d8e57fd1b	22074.461812970327
224	0x40d59e2b5c676ef6	22136.67751489483
225	0x40d5b6e0d73ff7f1	22235.513137809878
226	0x40d5d86830cec4a4	22369.627978984863
227	0x40d6116d8e580396	22597.711812976362
228	0x40d6709fb09165b3	22978.49515185291
229	0x40d6eba1332999d0	23470.51874771138
230	0x40d75af456fb3dce	23915.81780892406
231	0x40d7ba0e2492b611	24296.2209822443
232	0x40d8043da5c5a46f	24592.963242922382
233	0x40d835054fa91bc1	24788.08298709593
234	0x40d85b113aa0d71e	24940.26920338638
235	0x40d86b7dad45ef34	25005.96370075569
236	0x40d86fb048586d85	25022.754415614083
237	0x40d8710d75d1868b	25028.210316068067
238	0x40d871536d406572	25029.3035431853
239	0x40d8716286b74e04	25029.539472414195
240	0x40d87180bb349a48	25030.01142611567
241	0x40d8718cd0c8a860	25030.200243153027
242	0x40d87191a64ef0e4	25030.275775656934
243	0x40d87193955545a6	25030.305989568726
244	0x40d8719773687a9d	25030.366418952693
245	0x40d8719b51787f30	25030.42684757634
246	0x40d871c1fbc83884	25031.03099256057
247	0x40d87343bb61de2d	25037.05831190774
248	0x40d881fa7abbbe22	25095.91374105041
249	0x40d8a7bdacdc55c6	25246.963675578845
250	0x40d8c799f6e0cb28	25374.405693243403
251	0x40d8cf02d739a1cb	25404.044386299134
252	0x40d8b9c74a559d28	25319.113912013505
253	0x40d88b6844479456	25133.629167456493
254	0x40d8479bf663d935	24862.436913454167
255	0x40d7f22a2f8aa206	24520.659151705004
