yeonu/results_6dof/SCUD-B_45.0deg_20251219_201957.npz (npz, 57553 bytes, 22 tensors)

time f8 [414]
00000000: 0000 0000 0000 0000 7b14 ae47 e17a 843f
00000010: 295c 8fc2 f528 bc3f 85eb 51b8 1e85 e33f
00000020: c2f5 285c 8fc2 f13f c2f5 285c 8fc2 f93f
00000030: e17a 14ae 47e1 0040 e17a 14ae 47e1 0440
00000040: e17a 14ae 47e1 0840 e17a 14ae 47e1 0c40
00000050: 703d 0ad7 a370 1040 703d 0ad7 a370 1240
00000060: 703d 0ad7 a370 1440 703d 0ad7 a370 1640
00000070: 703d 0ad7 a370 1840 703d 0ad7 a370 1a40
00000080: 703d 0ad7 a370 1c40 703d 0ad7 a370 1e40
00000090: b81e 85eb 5138 2040 b81e 85eb 5138 2140
000000a0: b81e 85eb 5138 2240 b81e 85eb 5138 2340
000000b0: b81e 85eb 51b8 2340 aaef 4688 4c14 2440
000000c0: 8f84 8d31 7f1d 2440 b13a b8e1 b61f 2440
000000d0: d3f0 e291 ee21 2440 8c99 dc10 662b 2440
000000e0: c630 9d06 118a 2440 cec1 8640 c90c 2540
000000f0: e534 176d 68ae 2540 f408 6640 9e9a 2640
00000100: f408 6640 9e9a 2740 f408 6640 9e9a 2840
00000110: f408 6640 9e9a 2940 f408 6640 9e9a 2a40
00000120: f408 6640 9e9a 2b40 f408 6640 9e9a 2c40
00000130: f408 6640 9e9a 2d40 f408 6640 9e9a 2e40
00000140: f408 6640 9e9a 2f40 7a04 3320 4f4d 3040
00000150: 7a04 3320 4fcd 3040 7a04 3320 4f4d 3140
00000160: 7a04 3320 4fcd 3140 7a04 3320 4f4d 3240
00000170: 7a04 3320 4fcd 3240 7a04 3320 4f0d 3340
00000180: 9342 455c e613 3340 ac80 5798 7d1a 3340
00000190: c5be 69d4 1421 3340 7fd7 a09d 8a26 3340
000001a0: adea 86f3 bd29 3340 dbfd 6c49 f12c 3340
000001b0: 0911 539f 2430 3340 1eb5 b196 9d39 3340
000001c0: 204c f71f fc3a 3340 58a6 41f4 1f3e 3340
000001d0: ead2 771b 403e 3340 0e2c e469 803e 3340
000001e0: 9944 8840 953e 3340 af75 d0ed be3e 3340
000001f0: c5a6 189b e83e 3340 a191 ea5f 8940 3340
00000200: 8340 b3cf e549 3340 65ef 7b3f 4253 3340
00000210: a618 9f91 fa5d 3340 e93f 9358 dc71 3340
00000220: 3b63 03bc 7696 3340 a645 9263 d2d3 3340
00000230: c8e5 fd24 5626 3440 96c7 1506 9e48 3440
00000240: 4481 d7a1 2b4b 3440 000b beeb 5f4b 3440
00000250: f3d1 388e 954b 3440 4e50 00bd c14b 3440
00000260: a9ce c7eb ed4b 3440 37be 92bf a74d 3440
00000270: c319 8005 ea5e 3440 c319 8005 eade 3440
00000280: c319 8005 ea5e 3540 c319 8005 eade 3540
00000290: c319 8005 ea5e 3640 c319 8005 eade 3640
000002a0: c319 8005 ea5e 3740 c319 8005 eade 3740
000002b0: c319 8005 ea5e 3840 c319 8005 ea9e 3840
000002c0: b1f4 e464 1caa 3840 2a19 877a 0cb9 3840
000002d0: a33d 2990 fcc7 3840 cd76 be14 a1cf 3840
000002e0: c1be 5e52 a9d4 3840 b506 ff8f b1d9 3840
000002f0: a94e 9fcd b9de 3840 ff1e c9ee 4de4 3840
00000300: e1ae 34ef 20f0 3840 316e 8185 f2f2 3840
00000310: 681d 573a 87f6 3840 cadb d5f3 45f7 3840
00000320: 1135 ef18 6cf7 3840 588e 083e 92f7 3840
00000330: 0b8b 54ad e3f7 3840 096a 4c06 12fb 3840
00000340: c0da 827e 6e03 3940 8696 8590 9509 3940
00000350: 089f 5352 d213 3940 8cfd e79e 9a24 3940
00000360: 3e05 a451 f43f 3940 ae56 81d4 1571 3940
00000370: 0676 2d6f ffc7 3940 0676 2d6f ff47 3a40
00000380: 0676 2d6f ffc7 3a40 0676 2d6f ff47 3b40
00000390: 0676 2d6f ffc7 3b40 0676 2d6f ff47 3c40
000003a0: 0676 2d6f ffc7 3c40 0676 2d6f ff47 3d40
000003b0: 0676 2d6f ffc7 3d40 0676 2d6f ff47 3e40
000003c0: 0676 2d6f ff87 3e40 0676 2d6f ffc7 3e40
000003d0: 38ec 2821 b2d5 3e40 6a62 24d3 64e3 3e40
000003e0: 89ef abcd c7e4 3e40 db5b d892 9ee8 3e40
000003f0: 519c 9121 98e9 3e40 4536 cb6a 76ea 3e40
00000400: d87e 18f9 cfec 3e40 591b 0709 e8ec 3e40
00000410: 5b54 e428 18ed 3e40 5d8d c148 48ed 3e40
00000420: e33d d7ed e5ee 3e40 4687 3ac2 dff4 3e40
00000430: bc4d dce7 78fd 3e40 3214 7e0d 1206 3f40
00000440: 2400 a884 8117 3f40 5a2e 0fe3 5d32 3f40
00000450: 679b 0f2c 5c67 3f40 0015 ee03 f8ca 3f40
00000460: 800a f701 7c25 4040 800a f701 7c65 4040
00000470: 800a f701 7ca5 4040 800a f701 7ce5 4040
00000480: c9cb 7cf2 b6fb 4040 128d 02e3 f111 4140
00000490: 128d 02e3 f151 4140 128d 02e3 f191 4140
000004a0: 128d 02e3 f1d1 4140 128d 02e3 f111 4240
000004b0: 128d 02e3 f121 4240 77a4 7d1c a134 4240
000004c0: 5cd7 0fe5 b035 4240 801d 6cfb c037 4240
000004d0: 0d0c 3cd4 4a3d 4240 80d4 6cba 093f 4240
000004e0: f23f 8b5f 1a3f 4240 d616 c8a9 3b3f 4240
000004f0: baed 04f4 5c3f 4240 f781 b8dd 1b40 4240
00000500: d51f c23b ad42 4240 2526 95ac 3147 4240
00000510: 752c 681d b64b 4240 1ebd 39da b754 4240
00000520: 45f3 b653 fb62 4240 c21c e3c6 7b7f 4240
00000530: 07ed b57f d2b6 4240 07ed b57f d2f6 4240
00000540: 07ed b57f d236 4340 07ed b57f d276 4340
00000550: 07ed b57f d2b6 4340 07ed b57f d2f6 4340
00000560: 07ed b57f d236 4440 07ed b57f d276 4440
00000570: 07ed b57f d2b6 4440 07ed b57f d2d6 4440
00000580: 07ed b57f d2f6 4440 b64d 4d1f 61fe 4440
00000590: d92d 050c e4ff 4440 fc0d bdf8 6601 4540
000005a0: 1fee 74e5 e902 4540 66df 4dbb 6807 4540
000005b0: 3fff bb2c af07 4540 181f 2a9e f507 4540
000005c0: f13e 980f 3c08 4540 a277 9001 5c08 4540
000005d0: 04e9 80e5 9b08 4540 f00d e671 d408 4540
000005e0: dc32 4bfe 0c09 4540 9cda 5acf 200a 4540
000005f0: c5a9 ff94 f40c 4540 550f 0246 5810 4540
00000600: ef1f b9b8 3415 4540 f539 ca7a 8a1e 4540
00000610: d3ef 8dfe 1a2e 4540 703d 3cde a44e 4540
00000620: 703d 3cde a48e 4540 703d 3cde a4ce 4540
00000630: 703d 3cde a40e 4640 703d 3cde a44e 4640
00000640: 703d 3cde a48e 4640 703d 3cde a4ce 4640
00000650: 703d 3cde a40e 4740 703d 3cde a44e 4740
00000660: 703d 3cde a48e 4740 703d 3cde a4ae 4740
00000670: ea91 23af 63b6 4740 64e6 0a80 22be 4740
00000680: d0d8 1edb 52be 4740 a8bd 4691 b3be 4740
00000690: 21b6 e279 fcbe 4740 9aae 7e62 45bf 4740
000006a0: 390b 4a53 f8bf 4740 9696 f4c2 afc2 4740
000006b0: d48f cc87 f6c6 4740 7bd8 1826 1acd 4740
000006c0: e46b 9b18 9dd7 4740 6e18 d328 e6ec 4740
000006d0: edaf 3a25 5e19 4840 edaf 3a25 5e59 4840
000006e0: edaf 3a25 5e99 4840 edaf 3a25 5ed9 4840
000006f0: edaf 3a25 5e19 4940 edaf 3a25 5e59 4940
00000700: edaf 3a25 5e99 4940 edaf 3a25 5ed9 4940
00000710: edaf 3a25 5e19 4a40 edaf 3a25 5e59 4a40
00000720: edaf 3a25 5e69 4a40 62c3 507e 376b 4a40
00000730: d7d6 66d7 106d 4a40 4cea 7c30 ea6e 4a40
00000740: 97c4 fe41 d473 4a40 b08a 4467 3774 4a40
00000750: c950 8a8c 9a74 4a40 e216 d0b1 fd74 4a40
00000760: 5f1a 0898 8c75 4a40 49ef fb8c ec78 4a40
00000770: f40f 18c8 bf7c 4a40 80be 5f68 0a83 4a40
00000780: 570e 094e be90 4a40 be81 7991 dca8 4a40
00000790: f341 9d71 bae4 4a40 f341 9d71 ba24 4b40
000007a0: f341 9d71 ba64 4b40 f341 9d71 baa4 4b40
000007b0: f341 9d71 bae4 4b40 f341 9d71 ba24 4c40
000007c0: f341 9d71 ba64 4c40 f341 9d71 baa4 4c40
000007d0: f341 9d71 bae4 4c40 b8bb 693f 50ec 4c40
000007e0: 7d35 360d e6f3 4c40 a79d 79c0 4ff4 4c40
000007f0: 79a6 ca40 60f6 4c40 4ef0 c993 aff6 4c40
0.0 0.01 0.11 0.61 1.1099999999999999 1.6099999999999999 2.11 2.61
3.11 3.61 4.109999999999999 4.609999999999999 5.109999999999999 5.609999999999999 6.109999999999999 6.609999999999999
7.109999999999999 7.609999999999999 8.11 8.61 9.11 9.61 9.86 10.039646395358279
10.057611034894107 10.061942151774334 10.06627326865456 10.084763075760542 10.26966114682035 10.5249729313372 10.840640458185996 11.301988613563005
11.801988613563005 12.301988613563005 12.801988613563005 13.301988613563005 13.801988613563005 14.301988613563005 14.801988613563005 15.301988613563005
15.801988613563005 16.301988613563005 16.801988613563005 17.301988613563005 17.801988613563005 18.301988613563005 18.801988613563005 19.051988613563005
19.077733771237558 19.10347892891211 19.129224086586664 19.15055260826875 19.163054676474236 19.17555674467972 19.188058812885206 19.225060861955278
19.230409620166142 19.242675081279543 19.24316569972408 19.244146936613156 19.244464905994935 19.245100844758493 19.24573678352205 19.252096171157635
19.28866289259214 19.325229614026643 19.367104626981607 19.44476846308672 19.587749243571334 19.827429030619577 20.149751960741725 20.28366125137071
20.29363452445365 20.294432386300286 20.295250786659334 20.29592496163996 20.29659913662059 20.303340886426863 20.3707583844896 20.8707583844896
21.3707583844896 21.8707583844896 22.3707583844896 22.8707583844896 23.3707583844896 23.8707583844896 24.3707583844896 24.6207583844896
24.66449575986616 24.722846658690436 24.781197557514712 24.81105165147783 24.830708644992004 24.85036563850618 24.870022632020355 24.89181415949042
24.938002539026346 24.94901308450625 24.963000913875845 24.965911140166817 24.966493185425012 24.967075230683207 24.968317826404967 24.98074378362256
25.013404757449052 25.037438423742536 25.077428002753578 25.142984325063978 25.24982176069647 25.441739350868993 25.78124136791123 26.28124136791123
26.78124136791123 27.28124136791123 27.78124136791123 28.28124136791123 28.78124136791123 29.28124136791123 29.78124136791123 30.28124136791123
30.53124136791123 30.78124136791123 30.834749290934468 30.888257213957708 30.893673758007512 30.908669641324973 30.91247758679339 30.9158694025157
30.925048416595786 30.92541557715899 30.9261498982854 30.926884219411807 30.933195939111 30.95653928688923 30.990126124653884 31.023712962418536
31.09182004071785 31.196745101171793 31.403750184831917 31.792846913934227 32.29284691393423 32.79284691393423 33.29284691393423 33.79284691393423
33.966520605979504 34.14019429802478 34.64019429802478 35.14019429802478 35.64019429802478 36.14019429802478 36.26519429802478 36.41116672644505
36.41946090005396 36.43557684687676 36.47884610111223 36.492484381808936 36.49299234675699 36.494008276653105 36.49502420654922 36.50085040578045
36.5209116647599 36.556203434778844 36.59149520479779 36.66186073130869 36.77329489167327 36.99596487130613 37.428298915701866 37.928298915701866
38.428298915701866 38.928298915701866 39.428298915701866 39.928298915701866 40.428298915701866 40.928298915701866 41.428298915701866 41.678298915701866
41.928298915701866 41.987338936563376 41.99914694073568 42.01095494490798 42.02276294908028 42.057883656524425 42.060033408923566 42.06218316132271
42.06433291372185 42.065307803669626 42.06725758356518 42.06898330433967 42.070709025114155 42.0791262811301 42.10121405108979 42.12769389248448
42.1656714347772 42.23860106348358 42.360198802285275 42.61440637532621 43.11440637532621 43.61440637532621 44.11440637532621 44.61440637532621
45.11440637532621 45.61440637532621 46.11440637532621 46.61440637532621 47.11440637532621 47.36440637532621 47.42491711842361 47.485427861521
47.48690356260488 47.48985496477263 47.49207995958228 47.49430495439192 47.49976578822538 47.520988816669316 47.554398512729364 47.6023604985539
47.684481693162326 47.8507739096393 48.198185590415825 48.698185590415825 49.198185590415825 49.698185590415825 50.198185590415825 50.698185590415825
51.198185590415825 51.698185590415825 52.198185590415825 52.698185590415825 52.823185590415825 52.83763102477566 52.852076459135496 52.86652189349533
52.90491509380188 52.90794077727094 52.91096646073999 52.91399214420905 52.91835308452277 52.94471895505428 52.974602710484675 53.0237551181317
53.13080764238537 53.3192312091155 53.78693981340975 54.28693981340975 54.78693981340975 55.28693981340975 55.78693981340975 56.28693981340975
56.78693981340975 57.28693981340975 57.78693981340975 57.846198965671135 57.90545811793252 57.90868383348725 57.92481241126092 57.92723319397247

position_x f8 [414]
00000000: 0000 0000 0000 0000 8260 14f7 4342 c63f
00000010: f4f0 8f16 6a0b ff3f 88f8 96c6 080a 2740
00000020: eef2 ec97 ba57 3640 79f4 1f6b e333 4140
00000030: 6dcd 4572 b4d9 4740 121c 66cc 001c 4f40
00000040: 64a0 5ede 757c 5340 4ac0 6bd1 f3b6 5740
00000050: b8ce 3e11 d93b 5c40 a8ce 4fe8 7484 6040
00000060: 5707 eec1 970d 6340 7a2c 88b1 71b7 6540
00000070: 49e0 586f a07f 6840 cea9 8519 2763 6b40
00000080: 0201 564a 4c5e 6e40 f2e4 5732 38b6 7040
00000090: df47 700d ed43 7240 63b1 9d55 bbd4 7340
000000a0: 5417 5b30 4564 7540 5806 5b1c 28ed 7640
000000b0: 07cf 33b5 16ad 7740 3b60 90cc 6f34 7840
000000c0: f36a 27fc d541 7840 5fe6 b0f8 0f45 7840
000000d0: 8720 e290 4948 7840 e453 f6a2 0956 7840
000000e0: ed78 22fa e5dd 7840 48a6 0ace ef93 7940
000000f0: 4263 dca5 396a 7a40 706e 5da4 3b88 7b40
00000100: 34f2 7f8b b78e 7c40 a095 c685 3c54 7d40
00000110: 3811 5073 4bc6 7d40 0d51 90dd 18d5 7d40
00000120: 4825 08bd 7b74 7d40 7ea0 3bfc ff98 7c40
00000130: 5ca0 59ee f038 7b40 3b27 1d4b 954d 7940
00000140: 8235 a625 6bd4 7640 c45b b7de 3bd0 7340
00000150: 7cf5 ccaa e349 7040 f7df 794d 5fa1 6840
00000160: 826f f863 07e9 5f40 daa6 a308 930f 4b40
00000170: 102e d7c1 7686 35c0 fdbb 9b97 3abb 4dc0
00000180: a597 63b8 b5ad 4fc0 579b f30d decf 50c0
00000190: 8e6c b4a8 a1c8 51c0 5bc0 9650 8496 52c0
000001a0: a275 6c0d 1c0f 53c0 56bb 68f1 a187 53c0
000001b0: e3e6 4263 1500 54c0 eca4 ab5e 2264 55c0
000001c0: 40a6 ba80 8b97 55c0 cf83 8222 610d 56c0
000001d0: b534 9053 1712 56c0 9395 ae9b 831b 56c0
000001e0: e20f 2247 911e 56c0 fae4 1393 ac24 56c0
000001f0: fcd4 66d0 c72a 56c0 9fe8 450f d567 56c0
00000200: 0c59 efff 6fc6 57c0 e66e e0c2 3e24 59c0
00000210: 2dbf 9659 c7b3 5ac0 632a 4de8 8195 5dc0
00000220: e52c f710 776b 61c0 36b5 eed7 75bc 65c0
00000230: 3152 2f61 7c51 6bc0 ef34 5e41 118c 6dc0
00000240: 5d85 7340 f6b5 6dc0 79dd 974d 4fb9 6dc0
00000250: ec84 3245 bebc 6dc0 64c0 ab3b 92bf 6dc0
00000260: 3b74 3320 66c2 6dc0 9ca1 124a a9de 6dc0
00000270: 362a 2f1a c5f7 6ec0 1dc9 9970 235a 73c0
00000280: 7344 cd88 84c2 76c0 a0ea d825 369a 79c0
00000290: 5150 53a4 d0d3 7bc0 80da cf3d 286f 7dc0
000002a0: 7b62 b764 0578 7ec0 6ecf 79fb 4b04 7fc0
000002b0: d081 ff75 a631 7fc0 0dac bcc2 812f 7fc0
000002c0: d6a9 028b fe2d 7fc0 f961 7391 952b 7fc0
000002d0: 2f3f 9f3e cc28 7fc0 e693 1194 4027 7fc0
000002e0: 2f98 3480 3226 7fc0 5042 58c0 1d25 7fc0
000002f0: 7533 251d 0324 7fc0 d7ce d3da c322 7fc0
00000300: e074 774f 0f20 7fc0 93f9 aae5 671f 7fc0
00000310: e0fe 5456 921e 7fc0 956a 40cd 651e 7fc0
00000320: 40f3 0ee4 5c1e 7fc0 45ca 8cfa 531e 7fc0
00000330: 17f5 c8f2 401e 7fc0 fa5d 3466 821d 7fc0
00000340: 9c1c a852 8d1b 7fc0 23dd 8a6a 1f1a 7fc0
00000350: 9b2e 5780 c817 7fc0 042b d061 1d14 7fc0
00000360: f6b9 d218 da0e 7fc0 5d01 91bd 1309 7fc0
00000370: 475a 1c9a 5e12 7fc0 c2a8 de3d ab67 7fc0
00000380: eca1 536c 5919 80c0 d83b 03f4 1ec8 80c0
00000390: 4333 a03d abc9 81c0 95be 4877 e721 83c0
000003a0: 82d4 94aa c5ce 84c0 8ec3 7f72 4ac8 86c0
000003b0: e906 3fd9 f800 89c0 0750 61d3 9966 8bc0
000003c0: 35be 02de 8ca3 8cc0 23af dbb0 55e3 8dc0
000003d0: 46c1 2e92 da27 8ec0 be06 34ec 546c 8ec0
000003e0: b267 849b 4273 8ec0 5815 9510 7086 8ec0
000003f0: aa2f f479 4e8b 8ec0 a3ad 6396 a48f 8ec0
00000400: 7117 9956 609b 8ec0 ff41 5579 d89b 8ec0
00000410: 0e83 efbd c89c 8ec0 1295 6001 b99d 8ec0
00000420: a87d 84f4 c9a5 8ec0 abbd 0edf 9bc3 8ec0
00000430: 45bd 6b0e 7aee 8ec0 ed76 d422 4b19 8fc0
00000440: 9c1b 95b1 ed6f 8fc0 0bd5 ca6a c7f4 8fc0
00000450: 311c 53ce ee7b 90c0 beb3 a3fb 5f67 91c0
00000460: 8a94 bdde f87e 92c0 afa0 4383 3c73 93c0
00000470: 2df5 5ea5 0b3c 94c0 4215 fca2 3dd4 94c0
00000480: 6a96 db8c 50fd 94c0 4906 8321 5220 95c0
00000490: dc45 aa9d 4464 95c0 65b6 c948 ce7b 95c0
000004a0: c014 9bd1 756f 95c0 0fc8 1db3 cf4a 95c0
000004b0: dca9 0ba9 723f 95c0 345e d388 aa31 95c0
000004c0: e65c 50b3 df30 95c0 473f 3e36 552f 95c0
000004d0: b5ea 5289 302b 95c0 fe93 7f0d e229 95c0
000004e0: f623 6898 d529 95c0 970f 4aae bc29 95c0
000004f0: d325 44c4 a329 95c0 73c0 8ee5 1429 95c0
00000500: 6366 1125 2927 95c0 f05d 2d67 c923 95c0
00000510: c0cb 6192 6c20 95c0 b743 8771 c619 95c0
00000520: 5a76 3fd3 7c0f 95c0 2cde 011f 70fc 94c0
00000530: 1106 b597 91e1 94c0 7fd4 1c70 66dd 94c0
00000540: aff1 2337 fb01 95c0 fd64 3008 be58 95c0
00000550: 0c84 5f86 2ae7 95c0 0145 8257 43ae 96c0
00000560: dc95 3288 67aa 97c0 d1bc 48cb 78d3 98c0
00000570: 7b02 625a 721d 9ac0 240c cded 29ca 9ac0
00000580: 0614 ae0c 4b79 9bc0 c6a0 2300 c5a2 9bc0
00000590: 9962 0e5f 10ab 9bc0 7fd0 d487 5bb3 9bc0
000005a0: 0316 456b a6bb 9bc0 8f0d 445f 4ed4 9bc0
000005b0: a11c 7a99 d0d5 9bc0 b89b 4bcf 52d7 9bc0
000005c0: a112 a100 d5d8 9bc0 102b 8221 84d9 9bc0
000005d0: 5bd8 6860 e2da 9bc0 8291 775c 18dc 9bc0
000005e0: 10a2 7255 4edd 9bc0 26ba 600e 36e3 9bc0
000005f0: 756f d26f b3f2 9bc0 01fe aef0 4105 9cc0
00000600: d58b ca6e d71f 9cc0 bacf 301b c452 9cc0
00000610: c6dd 3f6e 2da7 9cc0 5021 09b5 a354 9dc0
00000620: ddf5 84e3 7996 9ec0 5273 0bf4 87b1 9fc0
00000630: 2c98 c28c 4c4c a0c0 9446 c861 2ca1 a0c0
00000640: 49f0 95da 1cd5 a0c0 ac78 6dbe 76e8 a0c0
00000650: 5e07 ec6d 3bde a0c0 37e7 1fcc ecbb a0c0
00000660: e4de 2de4 3089 a0c0 b758 c2f7 826c a0c0
00000670: a851 976e 7065 a0c0 33fa 8f5e 5a5e a0c0
00000680: 382d eb1f 2e5e a0c0 b610 3ea3 d55d a0c0
00000690: a4da 83ee 925d a0c0 b1bd 603a 505d a0c0
000006a0: 1afd 1187 ac5c a0c0 04e6 e287 305a a0c0
000006b0: 83a9 1e66 4856 a0c0 67de aa58 b050 a0c0
000006c0: 3eb7 19c1 2c47 a0c0 f730 27fa 5334 a0c0
000006d0: 71e6 24cd 3e10 a0c0 c69b a55c ebd3 9fc0
000006e0: 3885 b8ed 6ab8 9fc0 3cd6 12a3 8cdd 9fc0
000006f0: 6e29 05ac f426 a0c0 8a70 a238 ea86 a0c0
00000700: f2af aaa8 420d a1c0 0a79 eea0 f1b4 a1c0
00000710: fddc 9ec8 7a75 a2c0 cffe 81ed 9443 a3c0
00000720: 85c7 1b91 b777 a3c0 62c3 b402 bc7d a3c0
00000730: c0ea 26c0 bf83 a3c0 24c8 a9b3 c289 a3c0
00000740: 6cad 8876 b899 a3c0 94a5 b424 fa9a a3c0
00000750: ea02 53c6 3b9c a3c0 1e77 305b 7d9d a3c0
00000760: a9c5 cac3 4c9f a3c0 33fc c71e 3caa a3c0
00000770: ee4c e893 9bb6 a3c0 c113 9bf4 e6ca a3c0
00000780: 01dd 94af cdf6 a3c0 4c56 5561 ba42 a4c0
00000790: be74 caf5 a0f3 a4c0 048f c54b 6b95 a5c0
000007a0: 6bdc d8ea 1a11 a6c0 a019 0b39 f65f a6c0
000007b0: 4586 76b1 5a7f a6c0 fdaf c0cd 0571 a6c0
000007c0: 8d4d 05f1 fc3a a6c0 fce4 7605 21e7 a5c0
000007d0: 34ce 7593 7f82 a5c0 21a0 5e2c 2976 a5c0
000007e0: 79ef ca30 d469 a5c0 7759 6c85 2869 a5c0
000007f0: 86de 6396 ce65 a5c0 2d2f fee1 4d65 a5c0
0.0 0.17389726223405338 1.940286720403546 11.5195982035914 22.34269094023596 34.40537776050855 47.700819286425805 62.21877436624358
77.94469413033363 94.85863147280284 112.93512374051613 132.1392709311233 152.42477509012198 173.73262859913285 195.98833434446922 219.09852291208375
242.94681278989452 267.38871988614767 292.2453741441695 317.2957359466438 342.2668918188331 366.8222926669746 378.8180439018037 387.2772946967777
388.1147424258954 388.3163992796089 388.5179604371155 389.37735267850644 397.8686467501237 409.2460461059568 422.63907419289546 440.51456104752197
456.91981077174137 469.2647760159689 476.3934205176952 477.3185706746452 471.28020957166564 457.56249640743033 435.5588210583717 404.848948587303
365.27615895200154 317.01461669563673 260.6180828100403 197.0428836231583 127.64107608090674 54.12167461386498 -21.5252495909063 -59.46272559265342
-63.35710816252621 -67.24792813100554 -71.13486688251052 -74.3518258545095 -76.23608718482731 -78.11925921657289 -80.00130540402783 -85.56459776651508
-86.36788957812769 -88.20905363793939 -88.28267373163801 -88.42990772294279 -88.47761705709812 -88.57303311293427 -88.66844568292794 -89.62237912966746
-95.10058592199147 -100.56633064191155 -106.80904235574117 -118.33605392013264 -139.35828445698203 -173.88938519117954 -218.5464330600967 -236.37710636520157
-237.68631002962766 -237.79093055401952 -237.8982263552383 -237.98660071892948 -238.07496652650465 -238.95816520346568 -247.74281033718006 -309.63365230629444
-364.1573570268876 -409.63821968777665 -445.23843796295574 -470.947324573448 -487.50131675371784 -496.26855037290704 -499.10313987548307 -498.9691798563006
-498.874644289402 -498.72401566573495 -498.5498644085482 -498.45326620928097 -498.38732929749216 -498.31976351238427 -498.2507602170147 -498.17281611192215
-498.0037378946563 -497.9628655127246 -497.9107268638745 -497.8998539463294 -497.89767843093796 -497.89550261493815 -497.89085653780916 -497.8443357511129
-497.72200265568404 -497.63266996616056 -497.48645052009095 -497.25717336002003 -496.92824632945064 -496.56731945650773 -497.14809619021656 -502.4793070504785
-515.1686636480131 -537.0151138546598 -569.2086136356014 -612.2380204852258 -665.8465167643883 -729.0363512021593 -800.121508114241 -876.825110206847
-916.4437828268334 -956.4168412363837 -964.9817241337521 -973.5414661469038 -974.4075231880327 -976.8047191283358 -977.4133185460134 -977.9553649699559
-979.4220401726035 -979.4807001744047 -979.5980185233946 -979.7153346581929 -980.7236109114501 -984.4511090423233 -989.8095978181015 -995.1616875265878
-1005.991061367898 -1022.5973716589227 -1054.983208941074 -1113.8437333658653 -1183.7430371877585 -1244.8090944830726 -1295.011373027529 -1333.060192049787
-1343.3286623297267 -1352.0802059624277 -1369.0670076947345 -1374.9514495389533 -1371.8650573951163 -1362.7028317120892 -1359.8619729826378 -1356.4165375734565
-1356.2184574658108 -1355.8332147337076 -1354.7973988490824 -1354.4707546171262 -1354.4585891982983 -1354.4342586109176 -1354.4099283836447 -1354.2704069428407
-1353.7901804655783 -1352.9466826523385 -1352.1060271530732 -1350.4437924513893 -1347.8718995967852 -1343.1094932834485 -1336.3921802792504 -1335.3500370506952
-1344.495327531458 -1366.1855781137122 -1401.79152821773 -1451.5657635073296 -1514.6011054901091 -1588.867962967419 -1671.361672908212 -1714.5409462011967
-1758.3232905578348 -1768.692383343399 -1770.7659876105956 -1772.839385342813 -1774.9125185770688 -1781.0765352853084 -1781.4537104682897 -1781.830868893985
-1782.2080102126713 -1782.3790340746673 -1782.7210708982518 -1783.0237902338563 -1783.3264978324332 -1784.8027892221085 -1788.675231254628 -1793.3143946974308
-1799.960383572373 -1812.6915099741732 -1833.7943658808813 -1877.1598702837546 -1957.6190319800437 -2028.382766894258 -2086.1495114146 -2128.5866835199504
-2154.5563551765267 -2164.231921597462 -2159.1160730132096 -2141.9624948472733 -2116.5954908690055 -2102.2557965024275 -2098.719593743055 -2095.176502703945
-2095.0900872700404 -2094.917261065998 -2094.786975975456 -2094.6566953879887 -2094.336968004366 -2093.094786730364 -2091.1414041120456 -2088.3444264790046
-2083.587410739535 -2074.1640178916236 -2056.1226588755894 -2036.9798456074072 -2030.10442245782 -2039.3873408263453 -2067.477874909694 -2115.4574633371712
-2182.630193075159 -2266.4719309351685 -2362.7398118633996 -2465.790874540667 -2491.858528965097 -2494.8672081459526 -2497.8745128785667 -2500.880276971513
-2508.8602793418595 -2509.488561291897 -2510.116747469049 -2510.744836344281 -2511.6499312750134 -2517.117422341858 -2523.3038628190907 -2533.4510849439253
-2555.401730205515 -2593.364023844513 -2681.81437523532 -2762.7095624672966 -2824.552572991282 -2863.980903956297 -2879.677135185137 -2872.5113353934125
-2845.4940263421217 -2803.564494815304 -2753.249171906873 -2747.080416638419 -2740.914434758885 -2740.5791429385386 -2738.9034911355147 -2738.6521148140514

position_y f8 [414]
00000000: 0000 0000 0000 0000 a7d6 99a6 cbbe 95be
00000010: fead 5763 709b 04bf beed 966c 9c07 54bf
00000020: b873 eda2 82bc 70bf 3a5f d704 60ba 81bf
00000030: bca1 37cf 6593 8ebf 2622 cc38 8f69 97bf
00000040: 623d 6203 9292 a0bf 1e87 9062 f52a a6bf
00000050: 9fa3 3f7a 1862 acbf 1a1c 7fe5 5d89 b1bf
00000060: 8a70 242e ce06 b5bf 3912 8225 9f8c b8bf
00000070: c89e df7f 25f9 bbbf 375a bd76 4326 bfbf
00000080: ee9e 1e92 13f5 c0bf d42b 4e22 0b0c c2bf
00000090: 3935 803d 39c0 c2bf abda 0a1f 26f6 c2bf
000000a0: 445f 1916 d87e c2bf 04ed b99b e167 c0bf
000000b0: 7752 f13b 24ac b5bf e0fb 2115 c04f 863f
000000c0: 5471 220c 5ea1 983f fb94 5bb2 0cfc 9b3f
000000d0: 449b 1f53 014c 9f3f 63dc 7bba 8875 a63f
000000e0: e925 6fed 538e c13f 6270 6c99 e516 c53f
000000f0: a968 183e b587 c53f b6b7 7c9f 2274 c53f
00000100: 26d8 c84f 7b44 c53f fdc3 0496 d8f5 c43f
00000110: ae16 753a 225f c43f 7760 6182 f14f c33f
00000120: ba96 48b3 ed9a c13f 4c5a 91a8 ec45 be3f
00000130: be5f fe7d ccc2 b73f e022 708d e0ab af3f
00000140: 7464 0366 2e89 9b3f 7068 89c5 300a 84bf
00000150: d4c6 49f7 682f a7bf d95c dc83 b291 b3bf
00000160: f1e7 7cf5 eaa4 b9bf e4c5 f338 8523 bdbf
00000170: ab76 7a1a 33aa bdbf 6368 9599 a083 bcbf
00000180: b798 4c41 1656 bcbf 925e bf2b f823 bcbf
00000190: a861 7bc3 0deb bbbf 2fc5 bdb7 eeb2 bbbf
000001a0: ea90 5a71 218b bbbf 4bb4 992b 045a bbbf
000001b0: f2db e507 b817 bbbf fd8e db61 b74c b8bf
000001c0: a228 613d d154 b7bf d24e 0258 2885 b4bf
000001d0: 5d89 61d9 6c63 b4bf 3bec 9ef8 a81e b4bf
000001e0: 5f19 a881 ff07 b4bf f03f 9c71 cada b3bf
000001f0: 281a f065 2fae b3bf 8d4c d5aa 500f b2bf
00000200: a454 d157 9f87 a9bf 1747 acf7 d1cc a6bf
00000210: e2a7 2ca0 469e a4bf eec1 d1f9 c901 a1bf
00000220: 93be bd15 0089 95bf 8862 ed6e d959 60bf
00000230: 8b7d 8658 5583 953f 8a19 b928 206b 9e3f
00000240: b6a2 38db a20f 9f3f 2b4c c2e7 c31c 9f3f
00000250: d890 3039 3a2a 9f3f 44b2 2c43 5035 9f3f
00000260: ba79 6180 6540 9f3f 401a d21b 0eaf 9f3f
00000270: 5e91 d45d 49f8 a13f 67a1 ec7f 27e8 af3f
00000280: 4cef f737 946e b53f bf0d 64e6 efb4 b93f
00000290: c920 eb8d 3225 bd3f 326f b595 a013 c03f
000002a0: 26e3 cbc3 c592 c13f 12ca c12a 4645 c33f
000002b0: 1b7f 5b83 1666 c53f 25d8 8fc6 16bb c63f
000002c0: d24e 1f75 6afa c63f 79f4 a391 2651 c73f
000002d0: 052a 51ba a0ab c73f 1ad3 97c8 7bdc c73f
000002e0: e247 d5e0 68fe c73f 3314 f846 c022 c83f
000002f0: cbf2 4a1a 704b c83f e89a 60a2 4f83 c83f
00000300: af82 7137 74ca c93f 2410 4200 4e9a ca3f
00000310: b731 8b24 a000 cc3f 1014 6adc d059 cc3f
00000320: 55fb eed0 416c cc3f 3e26 1ee8 7e7e cc3f
00000330: d40b 8a96 ada4 cc3f a2ae 50c1 a9ef cd3f
00000340: 5c3b 3107 34ae cf3f 8fe6 788e cbe0 cf3f
00000350: 1878 6662 98e0 cf3f c27f 0696 c5ae cf3f
00000360: b32d 30c5 4f3a cf3f a773 e7fb be31 ce3f
00000370: 8e91 cd2b a8d3 cb3f 351b df2a 1c4f c73f
00000380: 34d7 d8ff 01e3 c13f 1fec eda3 5ae8 b73f
00000390: f09d c1cd c1b0 a73f c030 ce4e b415 593f
000003a0: 8f1a 1510 9a73 a3bf d28a 42a5 c8ea b1bf
000003b0: 0f45 43bf 2cc5 b7bf e464 2e61 7f13 bbbf
000003c0: 5fae a88f 29bd bbbf 7a64 f569 3dc5 bbbf
000003d0: 93da eb96 30a8 bbbf e0bc adc8 c53a bbbf
000003e0: 08b3 3b7a 4c16 bbbf e5f9 91dc 685d babf
000003f0: b4cc e57e a71b babf 3690 c280 fada b9bf
00000400: ea18 1ab9 550b b9bf ed9f 6aa4 e501 b9bf
00000410: b808 2f60 d8ee b8bf c4b2 a6c7 fedb b8bf
00000420: f742 1e3b 5943 b8bf 2e72 47ad 609a b6bf
00000430: 8b71 2a61 128b b5bf fac7 6d2f cccf b4bf
00000440: 6b00 700a 4272 b3bf 426a 6f03 ce60 b1bf
00000450: e147 935d 3191 aabf 8a49 ce97 4a7f 96bf
00000460: 741d 2473 593c 8e3f 9cb2 a453 6278 a83f
00000470: 0283 89df 3059 b33f 5865 f138 46d5 b83f
00000480: cb07 761f 7753 ba3f 7709 20db 8e99 bb3f
00000490: f2ff 0adf 6609 be3f 69a7 2737 efb2 be3f
000004a0: 81e2 68a8 68be bd3f 8401 60a8 3563 bb3f
000004b0: f669 832f 5ca8 ba3f 1779 bedc d9c2 b93f
000004c0: b884 2963 66b7 b93f 80b0 0630 45a4 b93f
000004d0: 922e 0b1a aafb b93f 47de 8186 5474 ba3f
000004e0: 7c3e aff2 b579 ba3f 314d 421f b084 ba3f
000004f0: 2758 4d09 978f ba3f c1e1 fd9f 86c8 ba3f
00000500: 0e8c 7c93 974e bb3f 090c c626 706b bb3f
00000510: ba48 12a8 d14a bb3f 7fcb 0927 6ef2 ba3f
00000520: 1744 0fc7 4e55 ba3f 7cef 1ab9 bef6 b83f
00000530: be3e 4752 f0d5 b53f a3c0 26f8 6b83 b13f
00000540: d2ad cc77 2e10 a93f 7cdf 0573 4e07 9c3f
00000550: 10cd 0c99 e220 713f 089f 10b2 728d 94bf
00000560: f3ff da42 0ff2 a6bf 7436 5620 b0c8 b1bf
00000570: 2b00 da1f 57ed b7bf a2bf 17a2 93e1 babf
00000580: 45af 97f6 11bd bdbf 68f9 7cf1 f665 bebf
00000590: b8d5 bcc1 9d87 bebf 81ae 6a0e 52a9 bebf
000005a0: c4bb 1450 41cb bebf 43e6 c9c9 2936 bfbf
000005b0: c8f6 e944 af3c bfbf 5ced fdf3 0f43 bfbf
000005c0: 3179 73d5 4349 bfbf e685 35d2 024c bfbf
000005d0: 84a7 5636 5c51 bfbf cf29 b9f7 e155 bfbf
000005e0: 52c9 11b0 0f5a bfbf 5ef6 1865 3f6a bfbf
000005f0: ded0 9480 877f bfbf ff12 6fcc 6285 bfbf
00000600: 9591 1486 5186 bfbf 3939 f45e 9382 bfbf
00000610: cb5f c2ed c476 bfbf bbbd f5c7 3d4d bfbf
00000620: 1262 63a8 b0d1 bebf 8d07 7e3e 1e15 bebf
00000630: de3b 0286 8b1a bdbf f5ef efb5 a6f0 bbbf
00000640: 1025 f14a 0eae babf b0bd 1434 636f b9bf
00000650: 321e 7f81 9355 b8bf 779d 241a 0484 b7bf
00000660: 79d7 d9fb 9a20 b7bf f339 32e5 ec24 b7bf
00000670: 6aa6 d74d 362f b7bf 9a91 01fe d091 b7bf
00000680: 78b3 20fb 4098 b7bf bb2d 00f2 c6a5 b7bf
00000690: 96d2 7887 96b0 b7bf d3e8 5d5c 5fbb b7bf
000006a0: 9b27 c9d4 3bd4 b7bf 9cff 209b c820 b8bf
000006b0: 20bb ccfb a662 b8bf 89a8 cb35 2fac b8bf
000006c0: 9ced b1e7 bf22 b9bf 5b71 0764 7c08 babf
000006d0: ebe1 99bc 4bc1 bbbf 9dc0 5d3a acf2 bdbf
000006e0: b2d9 c6c1 0ae1 bfbf da57 7af4 efd1 c0bf
000006f0: 9110 ef3e 6faa c1bf 8543 ab93 6d87 c2bf
00000700: 869f 6d58 8175 c3bf c588 fb3e 117f c4bf
00000710: df57 c1f0 6fab c5bf 1c68 f7e2 00fe c6bf
00000720: 209b 6f1b dc5a c7bf 4e08 9ac5 c466 c7bf
00000730: e912 0266 bc73 c7bf 078b 5611 3483 c7bf
00000740: 81dd 4984 8bde c7bf a4d9 2d15 3dea c7bf
00000750: 5abe 0e38 49f6 c7bf 0e2b e5c1 4e01 c8bf
00000760: fe16 d72f 6b0f c8bf e88a 15ef 943e c8bf
00000770: 353d deba ff41 c8bf b82f ffa7 a437 c8bf
00000780: d77e 103a 6f18 c8bf 510d 6214 95e1 c7bf
00000790: ecb6 8240 9f64 c7bf 6a95 65b9 b9fe c6bf
000007a0: 3daf 94b1 16c4 c6bf 70ce be48 96c4 c6bf
000007b0: beab e59f 5f0e c7bf 1ec7 7fd3 e6ab c7bf
000007c0: 38a0 3deb cca1 c8bf 9888 760a f5ec c9bf
000007d0: 82f0 dd52 8b82 cbbf ada4 dfa5 3cb7 cbbf
000007e0: d16d b134 51f4 cbbf bfa7 d181 5cf9 cbbf
000007f0: 2c16 60b7 a318 ccbf 23e4 52c2 371e ccbf
0.0 -3.240301454718267e-07 -3.930508357171887e-05 -0.0012225177364218877 -0.004086027430131027 -0.00865626349234071 -0.014929576288481232 -0.022863614884984916
-0.03236824313455135 -0.04329649761372266 -0.0554359101514088 -0.06850230076734967 -0.08213509203454997 -0.09589571634030215 -0.10927042362129236 -0.12167760514180591
-0.13247913965937336 -0.14099253821436142 -0.14649119856805173 -0.14813686862699646 -0.14449597434099293 -0.1281702051527206 -0.08465792144245109 0.010894299168510757
0.024053067675241138 0.027328680406658794 0.030563374231771037 0.043865463985576246 0.137156001028685 0.16476125708948347 0.1682039788436829 0.16760666644534944
0.16615239520769015 0.1637526257050296 0.1591532502590573 0.15087717882375148 0.13754054311828218 0.11825446238922516 0.09281614376084144 0.061858193650612625
0.026890492416758296 -0.009785061863272854 -0.04528358477263131 -0.07644191474206553 -0.1001726960502365 -0.11382324829516893 -0.11587829014248523 -0.11138347386932561
-0.11068858236521605 -0.10992384975485894 -0.10905538580425989 -0.10819904313918437 -0.10759171502519718 -0.106842289585715 -0.10583067124194637 -0.09492059840300367
-0.09113795994304266 -0.08015682362229917 -0.07964210803178191 -0.07859283513873631 -0.0782470408958935 -0.07755723260584069 -0.0768766044494461 -0.07054618998272329
-0.04986284205430394 -0.044531404002681345 -0.040270049145263234 -0.033216773744132996 -0.021030427290894393 -0.001995968508179683 0.02100880959335209 0.029705526814973328
0.03033308470745296 0.030383168240018115 0.03043452238138475 0.030476812458049687 0.030519090615024537 0.03094121975711972 0.035097401336573894 0.062318071714176075
0.0837185513154825 0.10041713118339766 0.11384883847051976 0.1255989771842621 0.13729164181111136 0.15055157745116837 0.16717797674117993 0.1775845021763313
0.17951708525526172 0.18216402160024694 0.18492516610633927 0.18641612333853957 0.18745146730594714 0.18856051888738676 0.18980218204332852 0.1915072958811017
0.20149090487668306 0.20783400547600295 0.21876909050332724 0.2214909626237902 0.22205374433357386 0.22261034330249346 0.22377557611988996 0.23387643756119753
0.2475037608259879 0.24904770332959855 0.2490416031332081 0.2475211126848063 0.24396702888803432 0.23589312839513107 0.21739675654238194 0.18210174649558444
0.13974022858172364 0.09338919164831382 0.04627042423890859 0.0015310536211670528 -0.037991346800983476 -0.06998876604715612 -0.09285239858151705 -0.1057662594088416
-0.10835513837144493 -0.10847839199904455 -0.10803512272455355 -0.10636554860478808 -0.10580900177201269 -0.10298781762137528 -0.10198447082602763 -0.10099759715609555
-0.09782920617189786 -0.09768519653391623 -0.0973944887946655 -0.09710686086936976 -0.09477765744510323 -0.08829311590620456 -0.08415331718646805 -0.08129573972635731
-0.0759621882898515 -0.06788337310664708 -0.05188898341442872 -0.02196995307492381 0.014763544870688185 0.047793457708711545 0.07557969529581146 0.09700430765351109
0.10283607977001379 0.10781185960516902 0.11733096070656737 0.11991782280497677 0.11618665801587193 0.1069825683662256 0.10413147125237984 0.10062944068201705
0.1004547111601991 0.10016281530869442 0.10149634490806594 0.10333755763883189 0.10341965842166617 0.10358715785178131 0.10375350930311865 0.10462228208587644
0.10666797018761562 0.10710812517758951 0.10661039689356047 0.10526169255335381 0.10286419257978739 0.09751503009004908 0.0852956963419684 0.06841158684142327
0.04895158016583036 0.027371621866648863 0.004181752345903136 -0.020070831411572093 -0.044815518294399136 -0.06946850575897107 -0.09346527602792835 -0.10500452716200795
-0.1161662318260684 -0.11874335666377578 -0.11925683956072575 -0.1197711262890895 -0.12028892712690636 -0.12192021538239665 -0.12201972420185847 -0.12211703974565097
-0.122211684810712 -0.12225358612115364 -0.12233520819304827 -0.122404215792961 -0.12246797607966656 -0.122714960271844 -0.12303969277565183 -0.1231290577989732
-0.12314328692861516 -0.12308617656910749 -0.12290602497739582 -0.12227235919794215 -0.1203871165374795 -0.11750973725977883 -0.11368629476258671 -0.10914079610660095
-0.10421838121068938 -0.09935588857182753 -0.09505578910386062 -0.09185815466172707 -0.09034126900391283 -0.090407186466315 -0.09056414986084751 -0.09206873132058604
-0.09216695910499861 -0.09237330826015626 -0.09253826911374072 -0.09270282750177054 -0.09308217949833734 -0.09425023829771678 -0.09525531432585099 -0.09637732566230474
-0.0981864872609805 -0.1016919845782857 -0.10841821054953697 -0.116984142541471 -0.12452761870267784 -0.13140677869222267 -0.13801374981824613 -0.1447579356231722
-0.15202347581657366 -0.16012778830833532 -0.1692943502009134 -0.17962657053323106 -0.18246032085081598 -0.18282375000495893 -0.1832194803320342 -0.18369150969109446
-0.1864790340366476 -0.18683589491020058 -0.18720355260073768 -0.1875399061921929 -0.18797054134318353 -0.18940984415083695 -0.18951412796421044 -0.18919809534997767
-0.18824568114449988 -0.1865717267538494 -0.18275824212962932 -0.17964860489443463 -0.17785915060937355 -0.17787436058062012 -0.18012614543417088 -0.18493352248292977
-0.19243775831569265 -0.20254385958566412 -0.2149213938354287 -0.21652944659516518 -0.21839346955208197 -0.21854740465943043 -0.21950193837999288 -0.21967217434374317

position_z f8 [414]
00000000: 0000 0000 0000 0000 f44d 5800 d98a ef3f
00000010: ae87 83f5 7ce3 2540 ae51 1632 5cc2 4f40
00000020: be4d 3604 6930 5e40 8cc5 4940 52d6 6640
00000030: 54ba 253d 342c 6f40 cc38 0eaf 900d 7440
00000040: de7b be55 32d2 7840 60b9 7f56 a7e4 7d40
00000050: 1281 030b dca2 8140 e638 3326 0b7b 8440
00000060: c816 0bba 2d7b 8740 b74f c11d 90a3 8a40
00000070: 62bf c84f 7ef4 8d40 17b2 80ef 21b7 9040
00000080: daaf 7bc7 9588 9240 dad0 f740 bf6e 9440
00000090: 27b6 dc49 c169 9640 009d 4e92 bb79 9840
000000a0: b6b6 75ba c69e 9a40 30ea 6a1d f0d8 9c40
000000b0: de2c 36d0 effd 9d40 3ef9 5ddf bbd3 9e40
000000c0: 7ee1 7e4c 43e9 9e40 61c9 0218 75ee 9e40
000000d0: 9adf d94a a7f3 9e40 0a07 1b88 da09 9f40
000000e0: f389 96e0 6ee9 9f40 1f00 ca87 6d91 a040
000000f0: afd1 b938 ec56 a140 2c4e f78e de7e a240
00000100: fc65 cf36 15c9 a340 262d 348c 8c1c a540
00000110: d0da 69b4 4778 a640 bd06 a0ef fcda a740
00000120: 313b 6040 1f43 a940 465c c611 b1ae aa40
00000130: ffaa 52e5 3f1b ac40 9186 1896 eb85 ad40
00000140: 89f1 3a35 7aeb ae40 fe23 735f 3c24 b040
00000150: 1c2b 1490 b3cc b040 6c9b 6b28 766d b140
00000160: f01d af19 0705 b240 2319 23be 3392 b240
00000170: a6ae b4f0 2714 b340 2bb0 4f81 ca50 b340
00000180: 60e5 4cbc de56 b340 951d cc15 eb5c b340
00000190: ebf9 bd8f ef62 b340 7314 15cf e567 b340
000001a0: ac3c e4e0 cb6a b340 2948 b318 b06d b340
000001b0: 02b0 d276 9270 b340 93d2 d3f5 1079 b340
000001c0: 7398 94f3 497a b340 2dd0 b568 167d b340
000001d0: f23d c707 337d b340 0989 bb43 6c7d b340
000001e0: ac5b 11cf 7e7d b340 6d3c d3e4 a37d b340
000001f0: 46f3 5df9 c87d b340 e45a e883 3b7f b340
00000200: 9815 15eb 8487 b340 1cd3 929e be8f b340
00000210: 752a fec3 1699 b340 a27b 2448 35aa b340
00000220: 1f1c da87 03c9 b340 cde5 3954 a1fa b340
00000230: 26c0 c39d 8839 b440 4119 7b8f 7352 b440
00000240: 87de 76af 4754 b440 01e7 2918 6d54 b440
00000250: a0a7 c575 9354 b440 38ed 450f b354 b440
00000260: a1a9 7da7 d254 b440 9e35 8952 0e56 b440
00000270: bff7 4365 4762 b440 1c28 7625 2ab7 b440
00000280: 8c92 1cbd 5303 b540 4eea 8f91 3649 b540
00000290: 1985 0d7f 948b b540 b7e0 9082 3acd b540
000002a0: 2212 ec8e c710 b640 9f93 778e 8058 b640
000002b0: f97b 2275 31a6 b640 fa42 b83d b3cf b640
000002c0: c381 118f 28d7 b640 7e55 b3b0 33e1 b640
000002d0: b9c6 cd51 5aeb b640 83df 7f8d 96f0 b640
000002e0: 39cf 11fa 0cf4 b640 71fb 9c8e 86f7 b640
000002f0: 64a8 4c4c 03fb b640 a7bb 0bae e4fe b640
00000300: 0656 e015 2b07 b740 2970 73a9 2609 b740
00000310: 8029 22ec ac0b b740 68f4 c494 330c b740
00000320: 75bb 6d85 4e0c b740 dc8a cd76 690c b740
00000330: b0fb 3ffe a20c b740 006c e7fb e20e b740
00000340: 9237 7e02 d314 b740 2d49 9121 3719 b740
00000350: b3ae e613 9020 b740 7dfc 4bf9 b72c b740
00000360: 7084 b6ad d240 b740 828d e4dc d665 b740
00000370: 4781 2369 08aa b740 466f ea06 0e14 b840
00000380: 3153 55d0 4183 b840 d9de 002b 7df5 b840
00000390: a4fc 4342 2f68 b940 e845 d8bf 88d8 b940
000003a0: 526d de01 ac43 ba40 9520 af8f dea6 ba40
000003b0: ba55 f3e1 b8ff ba40 faaa 1cde 514c bb40
000003c0: 8d66 dad3 986d bb40 f85d 38a5 638b bb40
000003d0: 0bc5 a4d9 4e91 bb40 c824 1d9f 1097 bb40
000003e0: 6e5b fd7f a397 bb40 8d6c 28ec 3799 bb40
000003f0: fd7a b619 9e99 bb40 b6f5 8def f899 bb40
00000400: d199 f7eb ed9a bb40 d123 22b2 f79a bb40
00000410: b8f3 f73c 0b9b bb40 772a cfc5 1e9b bb40
00000420: f582 575b c69b bb40 c5e5 2c26 2d9e bb40
00000430: 91cc bbe7 93a1 bb40 5160 ca5d eaa4 bb40
00000440: 9339 a317 7dab bb40 89de d005 1bb5 bb40
00000450: f837 b98f 48c6 bb40 b2ff 7baa 4ee0 bb40
00000460: b2d0 4c47 9df6 bb40 da71 9caa 3402 bc40
00000470: aeca 7f74 a805 bc40 f4c1 c909 0f04 bc40
00000480: 4841 6303 f002 bc40 d38e 7cee bf01 bc40
00000490: 7503 f6bb 45ff bb40 7d74 2614 d300 bc40
000004a0: c744 cc21 5809 bc40 ab5c 6041 141b bc40
000004b0: f1b0 30a9 2221 bc40 a210 1c41 1129 bc40
000004c0: 0610 c3d0 8b29 bc40 658a 7c2c 7c2a bc40
000004d0: 0139 51ff 0f2d bc40 77f3 fe59 e42d bc40
000004e0: 0a54 264d ec2d bc40 2600 b235 fc2d bc40
000004f0: 7ed2 3921 0c2e bc40 1771 6aa7 672e bc40
00000500: 36fb 79bb a52f bc40 17af 1f56 e031 bc40
00000510: 75ec ca04 2934 bc40 e0c9 92c2 e038 bc40
00000520: 91f9 d27a cb40 bc40 a717 5d7a 3b52 bc40
00000530: 6f05 5591 fa79 bc40 6da9 f1bc 7db0 bc40
00000540: aeea 2014 dded bc40 a97d d82c e42e bd40
00000550: 653d 1c56 cb6f bd40 f5fb 1d0b 84ac bd40
00000560: 8992 a900 0ce1 bd40 f164 fddb c109 be40
00000570: db0a 63e1 b223 be40 5b36 8af1 752a be40
00000580: d966 2f85 dc2c be40 a7b3 eb39 c82c be40
00000590: 70e4 af8c bc2c be40 e13d 1755 ae2c be40
000005a0: 5ce4 0d93 9d2c be40 d5aa 6db6 5c2c be40
000005b0: ef9e 2703 582c be40 31b7 523a 532c be40
000005c0: 7a2c ef5b 4e2c be40 6c14 9b1f 4c2c be40
000005d0: 2664 a699 472c be40 cf02 f889 432c be40
000005e0: b89d 656c 3f2c be40 0e45 7492 2a2c be40
000005f0: 7768 c4b7 ed2b be40 400b c50c 992b be40
00000600: 66df 6756 092b be40 533b 33da ab29 be40
00000610: c209 e007 8f26 be40 24ef afa6 b71c be40
00000620: 5a0c eb5f cbfc bd40 29db c5d3 05ce bd40
00000630: 4283 eb24 8193 bd40 40a2 f0e3 3251 bd40
00000640: f636 6693 9f0b bd40 228d fad0 7fc7 bc40
00000650: 8c1f cb81 6089 bc40 5c44 1687 4455 bc40
00000660: c557 588a 4e2e bc40 5555 4c3b 6d20 bc40
00000670: 93e5 468c a71d bc40 c6a8 9e19 1d1b bc40
00000680: b7ca 93fa 0d1b bc40 2e3b a1d7 ef1a bc40
00000690: 8ee9 6d37 d91a bc40 4a7e cbab c21a bc40
000006a0: 075c 95ad 8b1a bc40 a338 ab8c ba19 bc40
000006b0: 7ec4 7028 8018 bc40 ee49 d988 dc16 bc40
000006c0: 1fc5 7ed1 6414 bc40 d13d 8bf6 b310 bc40
000006d0: 0231 797f 860e bc40 3e8c 91d9 9c17 bc40
000006e0: 5ddf 5743 b02c bc40 7617 a081 cd49 bc40
000006f0: 4458 3d86 e869 bc40 6467 3ef7 3d87 bc40
00000700: 3a9f 56a0 cf9b bc40 d549 33bd f1a1 bc40
00000710: a1c8 ea5f e194 bc40 4a2b 5342 4f71 bc40
00000720: 5c27 9287 af64 bc40 4386 8822 2163 bc40
00000730: 444b a293 8d61 bc40 e278 32db f45f bc40
00000740: fe14 ee79 9d5b bc40 e7f8 af57 445b bc40
00000750: f6dd 90fb ea5a bc40 d9d2 9165 915a bc40
00000760: 6022 d2e0 0f5a bc40 c790 c9d2 f656 bc40
00000770: 08de cd3b 5f53 bc40 b6d5 17eb 464d bc40
00000780: 3b57 e8eb 333f bc40 b879 7dc6 cd23 bc40
00000790: 8548 cb22 03d2 bb40 8f57 dae1 7767 bb40
000007a0: 3666 aab1 11ee ba40 d82c 137a 296c ba40
000007b0: d96e b69d e3e8 b940 b71e 8bfb 8a6b b940
000007c0: 6af6 bf84 edfa b840 f85b 7e3d c69c b840
000007d0: 987e 42e5 3a55 b840 fbfa bd49 5f4e b840
000007e0: 83d0 59a2 dd47 b840 2525 858d 8547 b840
000007f0: cf1f 0728 d145 b840 9761 c23b 9045 b840
0.0 0.9856991774308299 10.944312736802967 63.5184385880451 120.75640969565481 182.69754042061356 249.38137681359024 320.84782319598594
397.13728880317456 478.29085397617564 564.3574428819431 655.3804439546336 751.3973275057151 852.4453692533924 958.5616756137281 1069.7831401928613
1186.1462687803346 1307.6867712708686 1434.4387583242585 1566.43317530473 1703.6940706627624 1846.2344872193753 1919.4841927018056 1972.933469265306
1978.3157214951639 1979.6143494067585 1980.913371471665 1986.4634098265692 2042.3582786103914 2120.713926613345 2219.461370283934 2367.4346844942975
2532.541433793258 2702.274507170211 2876.1400483207326 3053.494015694449 3233.5610380241637 3415.345838736309 3597.6247964700447 3778.960129515101
3957.7386873645632 4132.235831447875 4300.701417217755 4461.4615542654465 4613.02773565751 4754.202120011937 4884.156016628875 4944.791035633573
4950.870060735702 4956.918301350805 4962.935787080302 4967.897691075795 4970.796400322735 4973.68787689697 4976.572125595065 4985.0662510289285
4986.2888729927245 4989.087535250973 4989.1993374372705 4989.422908516842 4989.495347103959 4989.640210344555 4989.78505503835 4991.232481500807
4999.519212072155 5007.744607140103 5017.088928113332 5034.208132057365 5065.013791686883 5114.630191439251 5177.533657297527 5202.451408094087
5204.280021123245 5204.426149958513 5204.576015809464 5204.699451799788 5204.822868207849 5206.055946899023 5218.278888938889 5303.164634117882
5379.3271043641835 5449.213158602432 5515.5800636720605 5581.2285547779675 5648.779524568965 5720.50217387537 5798.193193583743 5839.700160518982
5847.158433050327 5857.201914986012 5867.352810727135 5872.588096611088 5876.050690758792 5879.525613604915 5883.012882987128 5886.893280728639
5895.16830255604 5897.151023116 5899.675478110439 5900.201488790197 5900.306723459497 5900.411969038392 5900.636692046115 5902.886656249873
5908.824256790702 5913.21535594975 5920.562803666736 5932.718647717612 5952.822963149389 5989.8393080564 6058.032854289114 6164.054793026129
6275.257085163889 6389.488937429815 6504.184604882412 6616.5341773195905 6723.671903516473 6822.869379945235 6911.7221977314275 6988.3197954099105
7021.596982622182 7051.389239809934 7057.308008478266 7063.064927884559 7063.638671717474 7065.2184472336785 7065.617579846407 7065.97240531205
7066.92938182359 7066.96756184935 7067.043899056436 7067.120205829494 7067.7748312659 7070.176363760086 7073.577754723971 7076.9154936299465
7083.488641931111 7093.105557493524 7110.2834430467265 7136.307288885046 7158.614369202567 7170.205728318973 7173.658027636511 7172.058743104793
7170.9375516924265 7169.749732766027 7167.272399307102 7168.82452621788 7177.3442657154 7195.079122564911 7201.135394137572 7209.067399744092
7209.5461542047615 7210.485053809917 7213.062489582459 7213.891998228492 7213.923052211301 7213.985194325482 7214.047381986513 7214.404898312197
7215.647391914206 7217.87631414437 7220.160229380349 7224.877968954359 7232.794842897348 7250.232335871005 7289.978780092074 7344.491164306511
7405.8635883877705 7470.89130929058 7535.794282689084 7596.515794633878 7649.046885107303 7689.757263028282 7715.698751630926 7722.460716856261
7724.86140724431 7724.782133799897 7724.736521714469 7724.680985882384 7724.615525120022 7724.362158636291 7724.343798137953 7724.325108689999
7724.30609030567 7724.297357265936 7724.279688262415 7724.263823986707 7724.24774775601 7724.16629721342 7723.928585315231 7723.597851100203
7723.036474697152 7721.671298219665 7718.558713915236 7708.7173871954765 7676.794432344928 7630.022762647634 7571.504469604059 7505.198790588009
7435.6233428844625 7367.499282512146 7305.376980490877 7253.267686263742 7214.306798478535 7200.426686068376 7197.654484206246 7195.113672176556
7195.054604756347 7194.936883999775 7194.848502034683 7194.7604338820765 7194.545617423027 7193.72870893605 7192.500617073032 7190.8614631467335
7188.393821642995 7184.702980711548 7182.5253825897835 7191.612694832553 7212.688527576477 7241.802759175995 7273.908298334169 7303.242053890459
7323.811040319322 7329.94429321816 7316.88036982916 7281.309605787343 7268.685662397966 7267.12943318632 7265.553033965469 7263.956469683182
7259.61514175427 7259.266963003413 7258.917901090803 7258.567956079461 7258.062024243729 7254.964153859945 7251.372006289203 7245.277024736095
7231.202818414017 7203.803809969155 7122.012249665456 7015.468289991738 6894.0691172122515 6764.162018965195 6632.889125253737 6507.542900748252
6394.927806852016 6300.774375817731 6229.230060726077 6222.372218965315 6215.865758527189 6215.521690675324 6213.817017026201 6213.563411854578
