yeonu/results_6dof/SCUD-B_45.0deg_20251219_140304.npz (npz, 61122 bytes, 22 tensors)

time f8 [493]
00000000: 0000 0000 0000 0000 7b14 ae47 e17a 843f
00000010: 7b14 ae47 e17a 943f b91e 85eb 51b8 be3f
00000020: 2a5c 8fc2 f528 cc3f 0ad7 a370 3d0a e73f
00000030: 85eb 51b8 1e85 f33f 85eb 51b8 1e85 fb3f
00000040: c2f5 285c 8fc2 0140 c2f5 285c 8fc2 0540
00000050: c2f5 285c 8fc2 0940 c2f5 285c 8fc2 0d40
00000060: e17a 14ae 47e1 1040 e17a 14ae 47e1 1240
00000070: e17a 14ae 47e1 1440 e17a 14ae 47e1 1640
00000080: e17a 14ae 47e1 1840 e17a 14ae 47e1 1a40
00000090: e17a 14ae 47e1 1c40 e17a 14ae 47e1 1e40
000000a0: 703d 0ad7 a370 2040 703d 0ad7 a370 2140
000000b0: 703d 0ad7 a370 2240 703d 0ad7 a370 2340
000000c0: 703d 0ad7 a370 2440 703d 0ad7 a370 2540
000000d0: 703d 0ad7 a370 2640 703d 0ad7 a370 2740
000000e0: 703d 0ad7 a370 2840 703d 0ad7 a370 2940
000000f0: 703d 0ad7 a370 2a40 703d 0ad7 a370 2b40
00000100: 703d 0ad7 a370 2c40 703d 0ad7 a370 2d40
00000110: 703d 0ad7 a370 2e40 703d 0ad7 a370 2f40
00000120: b81e 85eb 5138 3040 b81e 85eb 51b8 3040
00000130: b81e 85eb 5138 3140 b81e 85eb 51b8 3140
00000140: b81e 85eb 5138 3240 b81e 85eb 51b8 3240
00000150: b81e 85eb 5138 3340 b81e 85eb 51b8 3340
00000160: b81e 85eb 5138 3440 b81e 85eb 51b8 3440
00000170: b81e 85eb 5138 3540 b81e 85eb 51b8 3540
00000180: b81e 85eb 5138 3640 b81e 85eb 51b8 3640
00000190: b81e 85eb 5138 3740 b81e 85eb 51b8 3740
000001a0: b81e 85eb 5138 3840 b81e 85eb 51b8 3840
000001b0: b81e 85eb 5138 3940 b81e 85eb 51b8 3940
000001c0: b81e 85eb 5138 3a40 b81e 85eb 51b8 3a40
000001d0: b81e 85eb 5138 3b40 b81e 85eb 51b8 3b40
000001e0: b81e 85eb 5138 3c40 b81e 85eb 51b8 3c40
000001f0: b81e 85eb 5138 3d40 b81e 85eb 51b8 3d40
00000200: b81e 85eb 5138 3e40 b81e 85eb 51b8 3e40
00000210: b81e 85eb 5138 3f40 b81e 85eb 51b8 3f40
00000220: 5c8f c2f5 281c 4040 5c8f c2f5 285c 4040
00000230: 5c8f c2f5 289c 4040 5c8f c2f5 28dc 4040
00000240: 5c8f c2f5 281c 4140 5c8f c2f5 285c 4140
00000250: 5c8f c2f5 289c 4140 5c8f c2f5 28dc 4140
00000260: 5c8f c2f5 281c 4240 5c8f c2f5 285c 4240
00000270: 5c8f c2f5 289c 4240 5c8f c2f5 28dc 4240
00000280: 5c8f c2f5 281c 4340 5c8f c2f5 285c 4340
00000290: 5c8f c2f5 289c 4340 5c8f c2f5 28dc 4340
000002a0: 5c8f c2f5 281c 4440 5c8f c2f5 285c 4440
000002b0: 5c8f c2f5 289c 4440 5c8f c2f5 28dc 4440
000002c0: 5c8f c2f5 281c 4540 5c8f c2f5 285c 4540
000002d0: 5c8f c2f5 289c 4540 5c8f c2f5 28dc 4540
000002e0: 5c8f c2f5 281c 4640 5c8f c2f5 285c 4640
000002f0: 5c8f c2f5 289c 4640 5c8f c2f5 28dc 4640
00000300: 5c8f c2f5 281c 4740 5c8f c2f5 285c 4740
00000310: 5c8f c2f5 289c 4740 5c8f c2f5 28dc 4740
00000320: 5c8f c2f5 281c 4840 5c8f c2f5 285c 4840
00000330: 5c8f c2f5 289c 4840 5c8f c2f5 28dc 4840
00000340: 5c8f c2f5 281c 4940 5c8f c2f5 285c 4940
00000350: 5c8f c2f5 289c 4940 5c8f c2f5 28dc 4940
00000360: 5c8f c2f5 281c 4a40 5c8f c2f5 285c 4a40
00000370: 5c8f c2f5 289c 4a40 5c8f c2f5 28dc 4a40
00000380: 5c8f c2f5 281c 4b40 5c8f c2f5 285c 4b40
00000390: 5c8f c2f5 289c 4b40 5c8f c2f5 28dc 4b40
000003a0: 5c8f c2f5 281c 4c40 5c8f c2f5 285c 4c40
000003b0: 5c8f c2f5 289c 4c40 5c8f c2f5 28dc 4c40
000003c0: 5c8f c2f5 281c 4d40 5c8f c2f5 285c 4d40
000003d0: 5c8f c2f5 289c 4d40 5c8f c2f5 28dc 4d40
000003e0: 5c8f c2f5 281c 4e40 5c8f c2f5 285c 4e40
000003f0: 5c8f c2f5 289c 4e40 5c8f c2f5 28dc 4e40
00000400: 5c8f c2f5 281c 4f40 5c8f c2f5 285c 4f40
00000410: 5c8f c2f5 289c 4f40 5c8f c2f5 28dc 4f40
00000420: ae47 e17a 140e 5040 ae47 e17a 142e 5040
00000430: ae47 e17a 144e 5040 4b44 1845 ad64 5040
00000440: e840 4f0f 467b 5040 4605 8649 4c8b 5040
00000450: a4c9 bc83 529b 5040 028e f3bd 58ab 5040
00000460: 6052 2af8 5ebb 5040 0a4c 9a72 75d5 5040
00000470: b445 0aed 8bef 5040 5e3f 7a67 a209 5140
00000480: 5e3f 7a67 a229 5140 5e3f 7a67 a249 5140
00000490: 5e3f 7a67 a269 5140 5e3f 7a67 a289 5140
000004a0: 5e3f 7a67 a2a9 5140 5e3f 7a67 a2c9 5140
000004b0: 5e3f 7a67 a2e9 5140 5e3f 7a67 a209 5240
000004c0: 5e3f 7a67 a229 5240 5e3f 7a67 a249 5240
000004d0: 5e3f 7a67 a269 5240 5e3f 7a67 a289 5240
000004e0: 5e3f 7a67 a2a9 5240 5e3f 7a67 a2b9 5240
000004f0: 5e3f 7a67 a2c1 5240 5e3f 7a67 a2c5 5240
00000500: 5e3f 7a67 a2c9 5240 5e3f 7a67 a2cb 5240
00000510: 5e3f 7a67 a2cd 5240 5e3f 7a67 22ce 5240
00000520: 5e3f 7a67 62ce 5240 5e3f 7a67 66ce 5240
00000530: 5e3f 7a67 68ce 5240 5e3f 7a67 69ce 5240
00000540: 5e3f 7ae7 69ce 5240 5e3f 7a27 6ace 5240
00000550: 5e3f 7a47 6ace 5240 5e3f 7a4f 6ace 5240
00000560: 5e3f 7a51 6ace 5240 5e3f 8a51 6ace 5240
00000570: 5e3f 9251 6ace 5240 5e3f 9451 6ace 5240
00000580: 5e3f 9551 6ace 5240 5e7f 9551 6ace 5240
00000590: 5e87 9551 6ace 5240 5e8f 9551 6ace 5240
000005a0: 5e97 9551 6ace 5240 5e9f 9551 6ace 5240
000005b0: 5eef 9551 6ace 5240 5e3f 9651 6ace 5240
000005c0: 5e8f 9651 6ace 5240 5eaf 9951 6ace 5240
000005d0: 5ecf 9c51 6ace 5240 5e0f bc51 6ace 5240
000005e0: 5e4f db51 6ace 5240 5ecf 1353 6ace 5240
000005f0: 5eef 6153 6ace 5240 5eff 8853 6ace 5240
00000600: 5ee1 8d53 6ace 5240 5e52 9053 6ace 5240
00000610: 7ea0 9053 6ace 5240 9eee 9053 6ace 5240
00000620: defb 9353 6ace 5240 1e09 9753 6ace 5240
00000630: 9e8d b553 6ace 5240 1e12 d453 6ace 5240
00000640: 1e3f 0555 6ace 5240 1e6c 3656 6ace 5240
00000650: 1e2e 2262 6ace 5240 1ef0 0d6e 6ace 5240
00000660: 1e84 43e5 6ace 5240 1e18 795c 6bce 5240
00000670: 1ee0 9004 70ce 5240 1ea8 a8ac 74ce 5240
00000680: 1e78 963d a3ce 5240 1e48 84ce d1ce 5240
00000690: 1e68 ce77 a3d0 5240 1e88 1821 75d2 5240
000006a0: 7c90 87e1 e8e0 5240 da98 f6a1 5cef 5240
000006b0: 38a1 6562 d0fd 5240 2966 3a67 9317 5340
000006c0: a6cb 5eab ca29 5340 2331 83ef 013c 5340
000006d0: a096 a733 394e 5340 1dfc cb77 7060 5340
000006e0: ae4f ff87 c37f 5340 3fa3 3298 169f 5340
000006f0: d0f6 65a8 69be 5340 614a 99b8 bcdd 5340
00000700: b9e4 68fe 1fdf 5340 117f 3844 83e0 5340
00000710: 6919 088a e6e1 5340 d8a6 d5c3 ffe4 5340
00000720: 4734 a3fd 18e8 5340 44b1 27cb 8cf5 5340
00000730: 14f9 ff07 64f6 5340 fc1c 6ca6 cff6 5340
00000740: f02e a275 05f7 5340 ea37 3d5d 20f7 5340
00000750: 28fa 2317 27f7 5340 475b 1774 2af7 5340
00000760: 8e33 544b 2bf7 5340 a069 2381 2bf7 5340
00000770: 2437 978e 2bf7 5340 e61d 5195 2bf7 5340
00000780: 4711 ae98 2bf7 5340 204e 8599 2bf7 5340
00000790: bb35 a099 2bf7 5340 a2ef a699 2bf7 5340
000007a0: 964c aa99 2bf7 5340 10fb ab99 2bf7 5340
000007b0: 4dd2 ac99 2bf7 5340 1c08 ad99 2bf7 5340
000007c0: eb3d ad99 2bf7 5340 ba73 ad99 2bf7 5340
000007d0: 8b84 ad99 2bf7 5340 5c95 ad99 2bf7 5340
000007e0: 863d ae99 2bf7 5340 b0e5 ae99 2bf7 5340
000007f0: 5477 b599 2bf7 5340 f808 bc99 2bf7 5340
0.0 0.01 0.02 0.12000000000000001 0.22000000000000003 0.72 1.22 1.72
2.2199999999999998 2.7199999999999998 3.2199999999999998 3.7199999999999998 4.22 4.72 5.22 5.72
6.22 6.72 7.22 7.72 8.219999999999999 8.719999999999999 9.219999999999999 9.719999999999999
10.219999999999999 10.719999999999999 11.219999999999999 11.719999999999999 12.219999999999999 12.719999999999999 13.219999999999999 13.719999999999999
14.219999999999999 14.719999999999999 15.219999999999999 15.719999999999999 16.22 16.72 17.22 17.72
18.22 18.72 19.22 19.72 20.22 20.72 21.22 21.72
22.22 22.72 23.22 23.72 24.22 24.72 25.22 25.72
26.22 26.72 27.22 27.72 28.22 28.72 29.22 29.72
30.22 30.72 31.22 31.72 32.22 32.72 33.22 33.72
34.22 34.72 35.22 35.72 36.22 36.72 37.22 37.72
38.22 38.72 39.22 39.72 40.22 40.72 41.22 41.72
42.22 42.72 43.22 43.72 44.22 44.72 45.22 45.72
46.22 46.72 47.22 47.72 48.22 48.72 49.22 49.72
50.22 50.72 51.22 51.72 52.22 52.72 53.22 53.72
54.22 54.72 55.22 55.72 56.22 56.72 57.22 57.72
58.22 58.72 59.22 59.72 60.22 60.72 61.22 61.72
62.22 62.72 63.22 63.72 64.22 64.72 65.22 65.5730755555134
65.9261511110268 66.17653120124768 66.42691129146857 66.67729138168946 66.92767147191034 67.33529343669957 67.7429154014888 68.15053736627803
68.65053736627803 69.15053736627803 69.65053736627803 70.15053736627803 70.65053736627803 71.15053736627803 71.65053736627803 72.15053736627803
72.65053736627803 73.15053736627803 73.65053736627803 74.15053736627803 74.65053736627803 74.90053736627803 75.02553736627803 75.08803736627803
75.15053736627803 75.18178736627803 75.21303736627803 75.22084986627803 75.22475611627803 75.22500025690303 75.22512232721553 75.22518336237178
75.2252138799499 75.22522913873897 75.2252367681335 75.22523867548213 75.22523915231929 75.22523916722045 75.22523917467103 75.22523917653368
75.225239177465 75.22523917769783 75.22523917772693 75.22523917775604 75.22523917778514 75.22523917781425 75.22523917810528 75.22523917839632
75.22523917868736 75.22523918159774 75.22523918450813 75.22523921361196 75.22523924271579 75.22523953375409 75.22523960651367 75.22523964289346
75.22523964744093 75.22523964971467 75.22523964999888 75.2252396502831 75.22523965312527 75.22523965596744 75.22523968438915 75.22523971281086
75.22523999702796 75.22524028124505 75.22524312341599 75.22524596558694 75.22527438729637 75.2253028090058 75.2255870261001 75.2258712431944
75.22871341413745 75.23155558508049 75.25997729451089 75.2883990039413 75.51421392668448 75.74002884942766 75.96584377217084 76.36837177947076
76.65299495942472 76.93761813937867 77.22224131933262 77.50686449928658 77.99630927975406 78.48575406022154 78.97519884068902 79.4646436211565
79.48632774585248 79.50801187054846 79.52969599524444 79.57811065544536 79.62652531564628 79.83671835781303 79.84985542294845 79.85642395551616
79.85970822180002 79.86135035494195 79.86176088822742 79.86196615487016 79.86201747153083 79.862030300696 79.86203350798729 79.86203511163293
79.86203591345576 79.86203611391147 79.86203613896843 79.86203614523268 79.86203614836481 79.86203614993087 79.8620361507139 79.86203615090966
79.86203615110541 79.86203615130117 79.86203615136235 79.86203615142352 79.8620361520353 79.86203615264708 79.86203615876485 79.86203616488262

position_x f8 [493]
00000000: 0000 0000 0000 0000 f745 6a09 2f70 1f3f
00000010: ad80 1be5 8329 363f 50fd 2dc3 5de9 863f
00000020: a316 0d60 ef56 a03f d448 7d01 cccd d13f
00000030: e5f9 a45b 82bd e83f fc8a fb89 9057 f83f
00000040: 3b3c 652e 9232 0440 5f1c 794e e443 0e40
00000050: 1b3a 481e ce2e 1540 4286 f7e3 be3d 1c40
00000060: 8ad2 130e 8125 2240 712e b74d eca8 2640
00000070: 3171 097d e5a5 2b40 4659 670e 4f8c 3040
00000080: 1f07 1a01 e77d 3340 4e3c 1b0d 71a4 3640
00000090: 9f39 1142 13fc 3940 48aa 419a c87f 3d40
000000a0: de32 929e 3d95 4040 ddf6 27b5 137b 4240
000000b0: afcc 0207 d96d 4440 bf9a 1bcd 6c69 4640
000000c0: a7d1 164e 8ddc 4840 cee0 7dd9 80a5 4c40
000000d0: 29fb 5877 48f0 5040 9f05 3d2a 0357 5440
000000e0: b746 d091 8495 5840 4cb9 d02f 2a8c 5d40
000000f0: 17e1 0377 60ad 6140 d5cf aa76 0e0d 6540
00000100: b6bf 03c7 cdeb 6840 8cc8 b216 524d 6d40
00000110: 0b4f b40d 9e19 7140 19f8 ecc3 9ace 7340
00000120: 1e92 1a2c 4fc4 7640 079f 9225 f1f7 7940
00000130: db5a a880 b264 7d40 2940 27e2 6b81 8040
00000140: 6a1f ccfc f362 8240 c35a f52a b64c 8440
00000150: 8c2c 9d95 cd2e 8640 4e0d 76c0 cbee 8740
00000160: 6b94 d3d1 066b 8940 66d5 6bfb 5390 8a40
00000170: 923f 1f62 0964 8b40 6662 3c26 65f2 8b40
00000180: 1071 ce91 813c 8c40 68b3 56ce ad39 8c40
00000190: 05d1 2b44 89e3 8b40 6423 ef72 3a38 8b40
000001a0: 8f4c 71c1 8f38 8a40 f4fd 895e 37e6 8840
000001b0: 5cca 1153 d242 8740 cb27 7d6b 9e50 8540
000001c0: 3915 3bb8 4712 8340 e65d 17ec 7a8b 8040
000001d0: fe7e 3dd3 0581 7b40 86a1 c7c3 fb6b 7540
000001e0: 01f8 3b06 46c3 6d40 003c 0d44 a7b1 5f40
000001f0: 0be5 f532 08ed 2240 7c35 7fc4 aa46 5cc0
00000200: 7584 9c2f 2f05 6ec0 c551 b83d 9f2e 77c0
00000210: 8d2b 0a5f 8788 7fc0 69e1 f5d1 5e01 84c0
00000220: 5b16 e90b a747 88c0 eff2 fce9 e68f 8cc0
00000230: dfe5 d211 6c69 90c0 45f5 9f5a b384 92c0
00000240: 1c73 e21f 6896 94c0 158d 1a7b e59a 96c0
00000250: 1328 05a6 228e 98c0 1a58 4bd4 1a6c 9ac0
00000260: 0841 b9b3 1631 9cc0 c021 e213 90d9 9dc0
00000270: 852f 6ad9 0362 9fc0 c7d1 258d 7363 a0c0
00000280: 041b 0758 5902 a1c0 c142 d23f 008c a1c0
00000290: 36ec ca58 cbfe a1c0 ea3e 4d2e 3659 a2c0
000002a0: eb45 eceb d999 a2c0 61ee eea9 59bf a2c0
000002b0: 7ddf 693f b3c8 a2c0 cbec f557 10b5 a2c0
000002c0: 1630 3fcd d883 a2c0 ea77 b8e4 a634 a2c0
000002d0: 17e9 17df 63c7 a1c0 2d4c 8147 5a3c a1c0
000002e0: 9901 30bc 5594 a0c0 5b40 f258 d1a0 9fc0
000002f0: 87e2 0f5f 0fe4 9dc0 69f6 2016 b5f5 9bc0
00000300: 90bd baaa 2ada 99c0 7da7 d84a 9f96 97c0
00000310: f1d6 fff6 bb30 95c0 0247 2634 85ae 92c0
00000320: cab1 a209 4e16 90c0 6200 151a 51dd 8ac0
00000330: e9cf 4d79 a77c 85c0 47c7 544c 5b18 80c0
00000340: ffac 5582 c07c 75c0 e1bc 4361 95f0 65c0
00000350: 27ad 3f0b 66a4 27c0 2670 68cf f335 6240
00000360: f896 ce98 5077 7240 4e0f 3c64 bd3b 7b40
00000370: a668 d6a4 daa5 8140 00ae 70b4 6a45 8540
00000380: 14ec 0ba0 966e 8840 3226 16e8 9013 8b40
00000390: 1103 dcac ac26 8d40 9147 3a07 719a 8e40
000003a0: e998 4516 c461 8f40 742d 7e1c 2870 8f40
000003b0: c2f7 1efe 0aba 8e40 95b7 a91e eb35 8d40
000003c0: 90f2 ebe6 ffda 8a40 5fdb a1a7 9ca2 8740
000003d0: a873 e928 7189 8340 aa10 6dd5 b520 7d40
000003e0: aef7 4b36 6b7a 7140 67e5 69ed fade 5040
000003f0: bbca d7b7 e302 65c0 d407 8205 187c 7ac0
00000400: 45f9 f74d 80b8 85c0 bf7c 8895 0783 8ec0
00000410: e168 09fb b8b3 93c0 95ca cea4 8413 98c0
00000420: 77b7 48d8 503d 9cc0 d485 5c4d d505 a0c0
00000430: 656b 06cd cbb3 a1c0 0d72 d205 b5bd a2c0
00000440: 0a09 62b8 8ea9 a3c0 f55f e27d 7b40 a4c0
00000450: d0ac fa9a 08cc a4c0 66d5 2d77 d44d a5c0
00000460: 8922 20c6 30c7 a5c0 f102 799d 4d7e a6c0
00000470: b4a4 612f 7b26 a7c0 9afa 0c07 4ec3 a7c0
00000480: 1d24 777b 4778 a8c0 014d 1769 1d25 a9c0
00000490: ed05 c7ee 83cd a9c0 7491 484f 2d74 aac0
000004a0: c9f0 936d 2a1b abc0 0790 7785 e6c3 abc0
000004b0: c107 320c 976f acc0 571b 9547 3f1f adc0
000004c0: 0664 c10b e4d3 adc0 12f6 0a9d 878e aec0
000004d0: 7772 4cea 2950 afc0 6c37 9cad e90c b0c0
000004e0: 18f0 53b8 5176 b0c0 25ac e1b2 edac b0c0
000004f0: 0164 7696 bfc8 b0c0 f4cb bedd cad6 b0c0
00000500: 3a94 a246 e4e4 b0c0 6aae 0d5c f1eb b0c0
00000510: cdd2 8447 fbf2 b0c0 6450 e415 bdf4 b0c0
00000520: 73e0 aae9 9df5 b0c0 737d 87f6 abf5 b0c0
00000530: 04df f0fc b2f5 b0c0 5448 2480 b6f5 b0c0
00000540: 8aac bd41 b8f5 b0c0 cd4a 8a22 b9f5 b0c0
00000550: f794 f092 b9f5 b0c0 fe26 0aaf b9f5 b0c0
00000560: 768b 10b6 b9f5 b0c0 9abe 48b6 b9f5 b0c0
00000570: 2cd8 64b6 b9f5 b0c0 90de 6bb6 b9f5 b0c0
00000580: c261 6fb6 b9f5 b0c0 8f42 70b6 b9f5 b0c0
00000590: a95e 70b6 b9f5 b0c0 c37a 70b6 b9f5 b0c0
000005a0: dd96 70b6 b9f5 b0c0 f7b2 70b6 b9f5 b0c0
000005b0: f7cb 71b6 b9f5 b0c0 f7e4 72b6 b9f5 b0c0
000005c0: f7fd 73b6 b9f5 b0c0 f4f7 7eb6 b9f5 b0c0
000005d0: f1f1 89b6 b9f5 b0c0 d3b5 f7b6 b9f5 b0c0
000005e0: b579 65b7 b9f5 b0c0 8620 afbb b9f5 b0c0
000005f0: 3a8a c1bc b9f5 b0c0 14bf 4abd b9f5 b0c0
00000600: afe5 5bbd b9f5 b0c0 fd78 64bd b9f5 b0c0
00000610: 678b 65bd b9f5 b0c0 d19d 66bd b9f5 b0c0
00000620: f255 71bd b9f5 b0c0 130e 7cbd b9f5 b0c0
00000630: 5d3f e7bd b9f5 b0c0 a770 52be b9f5 b0c0
00000640: 8e5d 82c2 b9f5 b0c0 744a b2c6 b9f5 b0c0
00000650: 268b 91f0 b9f5 b0c0 80cb 701a baf5 b0c0
00000660: c031 29bd bbf5 b0c0 9876 e15f bdf5 b0c0
00000670: 02b3 08bb cdf5 b0c0 2ce8 2216 def5 b0c0
00000680: c350 b9a0 81f6 b0c0 e944 4c26 25f7 b0c0
00000690: d359 8fc6 86fd b0c0 a5c2 a9b8 e603 b1c0
000006a0: 65d2 3e4a 6736 b1c0 f302 e2b5 bd68 b1c0
000006b0: d521 dcb8 149b b1c0 ac2d 5827 2ef5 b1c0
000006c0: 6727 1d9e 6b35 b2c0 68a0 1107 3376 b2c0
000006d0: 2840 d234 92b7 b2c0 b0be 7931 95f9 b2c0
000006e0: d82b 6622 b96c b3c0 b5f1 3af4 1ae2 b3c0
000006f0: 43aa 0618 f259 b4c0 c13f 74d2 73d4 b4c0
00000700: 51b8 4b1c f3d9 b4c0 ac3f 1e18 77df b4c0
00000710: 9db3 4679 00e5 b4c0 81be 1a6d 7af1 b4c0
00000720: 8b67 e523 11fe b4c0 0d4c 719d f235 b5c0
00000730: 7e19 db06 8239 b5c0 43d8 f582 4a3b b5c0
00000740: a8ef cef4 2e3c b5c0 4384 e83a a13c b5c0
00000750: b2ab cfcd bd3c b5c0 d21c 7817 cc3c b5c0
00000760: f5b7 e7a9 cf3c b5c0 80f6 838e d03c b5c0
00000770: 9e0b abc7 d03c b5c0 fe96 3ee4 d03c b5c0
00000780: e45c 88f2 d03c b5c0 65ce 1af6 d03c b5c0
00000790: 951c 8df6 d03c b5c0 22b0 a9f6 d03c b5c0
000007a0: e9f9 b7f6 d03c b5c0 ce1e bff6 d03c b5c0
000007b0: 40b1 c2f6 d03c b5c0 dc95 c3f6 d03c b5c0
000007c0: 777a c4f6 d03c b5c0 145f c5f6 d03c b5c0
000007d0: 85a6 c5f6 d03c b5c0 f7ed c5f6 d03c b5c0
000007e0: 6ab8 c8f6 d03c b5c0 dd82 cbf6 d03c b5c0
000007f0: 5c6b e7f6 d03c b5c0 db53 03f7 d03c b5c0
0.0 0.0001199272831889016 0.0003381678589971054 0.011187298315916167 0.03191326186656098 0.2781858458084916 0.7731334485941345 1.5213780775017645
2.5246928810734324 3.7831503039083567 5.295708153875718 7.060298501951879 9.073250236434678 11.329927853213322 13.824016482737166 16.548081302863714
19.491806095938156 22.64235002436572 25.98466885490927 29.499154702216657 33.16594297541245 36.961538929475616 40.85818565022179 44.823632849196194
49.723062287466114 57.29299467703241 67.75442298593101 81.3595681758802 98.33621640529132 118.19007487662492 141.4180255008475 168.40801556932152
199.3688693116398 234.4162705890525 273.6010872882186 316.9127845055205 364.26932917002875 415.49637372278124 470.2935797287334 528.177677446981
588.3691345164382 649.5889491241763 709.8503830222339 765.8494881842432 813.3783298997563 850.0410068916797 876.5045816842342 894.2993893353967
903.5632663849119 903.2098662160397 892.4420245574153 871.0285395319629 839.0701931811799 796.777035787642 744.3526975049858 682.0773534562844
610.2850193611004 529.4350206208735 440.06392215749645 342.74896600704994 238.10229789459848 126.7758340958826 9.46295317889828 -113.10417282507655
-240.16201000757033 -370.9138772201516 -504.5330496213217 -640.1712989053168 -776.9565656862209 -913.987750984348 -1050.3555367424776 -1185.175150393815
-1317.601684129978 -1446.724102415906 -1571.5338364415845 -1691.0262004635356 -1804.2721699663107 -1910.390700848875 -2008.5037590590957 -2097.725686246736
-2177.17449972348 -2246.0004869181143 -2303.3971618092864 -2348.6058220042514 -2380.9256280742025 -2399.6751246133795 -2404.350093182117 -2394.5319210864595
-2369.923440909023 -2330.3259637495403 -2275.695061442569 -2206.1763267903793 -2122.1674513818693 -2024.2044408656864 -1913.0150110704433 -1789.42684222702
-1654.5416669061851 -1509.6555589534976 -1356.1835594153347 -1195.6300817471351 -1029.5762086316122 -859.6646005287878 -687.5817743376803 -515.0445791838946
-343.79699929682823 -175.51823485593835 -11.82109103348064 145.68601198576033 295.4571769781028 435.73373816929677 564.7317597151457 680.677101974783
781.8235474521084 866.4457551699072 932.8343140781818 979.305189566907 1004.2207456052103 1006.0195855958577 983.2553675097809 934.7398045787
859.3749521668815 756.3264916081497 625.1802538145466 466.04439299205353 279.6511748282891 67.48406539288918 -168.09029762408122 -423.75586462777324
-695.0626487133928 -976.3787031806058 -1260.9306451292289 -1540.8795349417826 -1807.328950058172 -2050.916605845772 -2265.898048592195 -2398.8535600437376
-2516.7787504802736 -2592.241194795812 -2662.0168073974564 -2726.9149717638966 -2787.595261577812 -2879.151592046365 -2963.240595866542 -3041.6523975425634
-3132.139613841208 -3218.5574424058436 -3302.7576811022504 -3386.088495509868 -3469.5828672629764 -3553.950237022716 -3639.795014918753 -3727.6235930057405
-3817.9454021868323 -3911.264870016611 -4008.0818656816223 -4108.912805331736 -4214.319218870274 -4268.928510765579 -4296.748389624991 -4310.792446064752
-4324.8917028056985 -4331.942810874063 -4338.981560040917 -4340.738615293147 -4341.6168467329 -4341.671730487945 -4341.699172071883 -4341.712892787607
-4341.719753126739 -4341.723183291685 -4341.724898373001 -4341.725327143211 -4341.7254343357545 -4341.725437685522 -4341.725439360405 -4341.725439779126
-4341.725439988486 -4341.7254400408265 -4341.725440047369 -4341.725440053912 -4341.725440060455 -4341.725440066998 -4341.7254401324235 -4341.725440197849
-4341.725440263274 -4341.725440917526 -4341.725441571777 -4341.725448114291 -4341.725454656805 -4341.72552008194 -4341.725536438224 -4341.725544616365
-4341.725545638633 -4341.725546149767 -4341.725546213659 -4341.725546277551 -4341.725546916468 -4341.725547555386 -4341.725553944559 -4341.725560333732
-4341.725624225464 -4341.725688117196 -4341.7263270344465 -4341.726965951617 -4341.733355116507 -4341.739744273618 -4341.80363516207 -4341.867525273974
-4342.506358701913 -4343.145115629982 -4349.526467284612 -4355.901255235692 -4406.403476644865 -4456.741056562157 -4507.0809457380865 -4597.180287848616
-4661.420381376381 -4726.19932661215 -4791.571118488944 -4857.582786187224 -4972.72318113871 -5090.105289157877 -5209.9456791082075 -5332.452430024686
-5337.949650509357 -5343.465211763902 -5349.001850527621 -5361.478227302084 -5374.066953981189 -5429.947714882915 -5433.507917112087 -5435.291060796068
-5436.183422978887 -5436.629805118838 -5436.741421679895 -5436.797233111416 -5436.811186296855 -5436.814674613648 -5436.8155466941225 -5436.81598273455
-5436.816200754813 -5436.816255259885 -5436.816262073019 -5436.8162637763035 -5436.816264627946 -5436.816265053769 -5436.81626526668 -5436.816265319907
-5436.816265373133 -5436.8162654263615 -5436.816265442995 -5436.81626545963 -5436.816265625976 -5436.816265792321 -5436.816267455779 -5436.8162691192365

position_y f8 [493]
00000000: 0000 0000 0000 0000 5f82 ef92 a02f 77be
00000010: dca7 ce77 cf2e 99be 9074 55ee 5637 17bf
00000020: eae0 fb42 afc5 38bf 3c24 bfba af4a 85bf
00000030: a122 7505 280b a6bf 6a53 fc2b 0fde bcbf
00000040: 5175 90e1 88d0 cdbf 3187 2480 e9bf dabf
00000050: 24fd 6eb1 8ad1 e5bf 8c0f 23f0 ca97 f0bf
00000060: d5ab 83ec 13ee f7bf 9411 119a 6588 00c0
00000070: 9078 7adb 7910 06c0 b2a4 b7b8 c39c 0cc0
00000080: e3ee becf fd1c 12c0 00bc 5011 017b 16c0
00000090: 36f3 40ed 236f 1bc0 6b7c 872a 367f 20c0
000000a0: 4dc3 4991 8595 23c0 bdd0 f12a 07fb 26c0
000000b0: 499d 3935 eeaf 2ac0 fad2 34f6 2fb4 2ec0
000000c0: 73fc 7d3f aa82 31c0 bf1b 6727 d1d7 33c0
000000d0: 84cc c851 7c4d 36c0 cc07 08c4 38de 38c0
000000e0: de93 30ee e084 3bc0 b971 dbf3 1639 3ec0
000000f0: a2ba 5005 417b 40c0 7cee 072a 31db 41c0
00000100: 03ee 5373 1538 43c0 57e7 26e5 d98b 44c0
00000110: b9ea 9a9a b3ce 45c0 2b5f 9ab7 f2f6 46c0
00000120: ed17 67bd 4df8 47c0 9b3e 4ded a9c2 48c0
00000130: e917 79a0 3640 49c0 21b8 a41b 5652 49c0
00000140: 8f00 14b6 74cc 48c0 15a6 2dc9 c16a 47c0
00000150: 906d d5db 01dd 44c0 6698 4be8 98e4 40c0
00000160: 90c7 fa0b ace2 36c0 a22d b98b 9bfb 21c0
00000170: c8ee 494a a98a 2040 0e65 ceb0 5731 3d40
00000180: 2c04 a68b 3eae 4a40 9a6c 4be5 6405 5440
00000190: 066d 59f8 673a 5b40 fd28 1d1a f479 6140
000001a0: 583a d030 5b98 6540 b6b3 3165 6ced 6940
000001b0: ce2b 936e 5b6f 6e40 d55b 485c 028a 7140
000001c0: 5fbe c1ad a1e9 7340 0cf4 7c4a cd51 7640
000001d0: 7f46 2225 f3bd 7840 ffba fd00 142a 7b40
000001e0: a630 cfb2 c592 7d40 17b8 0793 29f5 7f40
000001f0: 426c c8f4 7427 8140 0605 43d9 1b4f 8240
00000200: 000a c681 de70 8340 f95d 4160 4e8c 8440
00000210: 4f41 2282 3aa1 8540 d6d0 7423 baaf 8640
00000220: 4751 e045 f2b7 8740 c028 eb6e 13ba 8840
00000230: 6199 b656 0eb6 8940 2007 1e79 c0ab 8a40
00000240: cf6e 2865 809a 8b40 f9a8 a279 7e81 8c40
00000250: 6ca1 14f2 de62 8d40 518c 5685 6f41 8e40
00000260: eb80 4ecd d61f 8f40 e0e2 96c0 39fe 8f40
00000270: ecd8 4df0 e96d 9040 3fad fa03 3bdc 9040
00000280: d3fb ca75 214a 9140 c08d 05ee e8b7 9140
00000290: c073 ebde dd25 9240 bb58 b802 3194 9240
000002a0: 3a02 d645 0403 9340 e607 7eba 7a72 9340
000002b0: 5548 6f96 b8e2 9340 dc1e 3307 da53 9440
000002c0: abe9 e05f f0c5 9440 f6f6 1d78 0339 9540
000002d0: 282f a097 0ead 9540 15e3 319e fe21 9640
000002e0: fb77 6568 af97 9640 7477 97aa f50d 9740
000002f0: 0c94 d1f7 9984 9740 7615 10d7 5bfb 9740
00000300: 08db 3318 e871 9840 2e3d 15cc e4e7 9840
00000310: 8511 3e4b fb5c 9940 4c4f fabc dcd0 9940
00000320: 3384 d794 4543 9a40 fec7 03d7 03b4 9a40
00000330: 991b 799a 0223 9b40 706f 90aa 5a90 9b40
00000340: aeb8 b48b 31fc 9b40 e205 7efd aa65 9c40
00000350: c24d 95d0 98cc 9c40 7fdd 5cb9 7931 9d40
00000360: a89f ae47 ca92 9d40 d96f 359e 42f0 9d40
00000370: 6785 edf6 484a 9e40 46f6 eb57 daa1 9e40
00000380: b0a9 473e f2f7 9e40 4925 4e59 444d 9f40
00000390: b1e7 d1ed 4ca2 9f40 4488 8800 71f7 9f40
000003a0: 348f 1d80 8826 a040 4b90 25c7 c751 a040
000003b0: 0e91 80b2 a97d a040 dd4f 27bc 5daa a040
000003c0: c2c0 1f46 1cd8 a040 0db3 1374 2207 a140
000003d0: 7649 8f1d af37 a140 8877 b123 026a a140
000003e0: 9acf 28e5 5b9e a140 ac85 da9a fbd4 a140
000003f0: bf90 afb9 1c0e a240 4d3d 3d0e f149 a240
00000400: a4eb d2a1 9d88 a240 16dc b7f9 39ca a240
00000410: 2045 c53a d90e a340 d194 27e0 8456 a340
00000420: abbb 634a d9a1 a340 db7e 217d f6f1 a340
00000430: 38df 2b74 f544 a440 3d4f 1ad5 5e7f a440
00000440: 8e41 4eb5 f2b6 a440 9c68 a102 b5dc a440
00000450: c415 7ce1 2f02 a540 99c9 99f7 b927 a540
00000460: e0c1 6539 f94c a540 c69b bac8 c587 a540
00000470: 9715 b0bc 12c0 a540 600c 1c99 a5f5 a540
00000480: a455 aa22 6633 a640 5b0a 76a4 936c a640
00000490: 3198 313d fea0 a640 1186 d983 80d0 a640
000004a0: c15c 3055 0cfb a640 0c13 7346 9020 a740
000004b0: 5e13 19a6 fe40 a740 6570 79a9 465c a740
000004c0: 6b15 2dc8 5b72 a740 a9d8 94e2 3083 a740
000004d0: 6b8d 7ace b48e a740 5700 f383 d094 a740
000004e0: 9615 2482 6595 a740 4c00 b149 9293 a740
000004f0: 8dbb 1ead 1e92 a740 fa6e a7fe 4191 a740
00000500: 3b1f 97ef 5390 a740 a64a caa3 d98f a740
00000510: d6ac 3f7b 5f8f a740 a5e2 1c18 418f a740
00000520: 325b f5e8 318f a740 cd68 08f6 308f a740
00000530: 3c97 927c 308f a740 a8e0 d73f 308f a740
00000540: 3591 7a21 308f a740 48ec 4b12 308f a740
00000550: 889a b40a 308f a740 29c6 ce08 308f a740
00000560: 1151 5508 308f a740 6985 5108 308f a740
00000570: 959f 4f08 308f a740 2026 4f08 308f a740
00000580: 65e9 4e08 308f a740 36da 4e08 308f a740
00000590: 50d8 4e08 308f a740 6ad6 4e08 308f a740
000005a0: 84d4 4e08 308f a740 9ed2 4e08 308f a740
000005b0: a4bf 4e08 308f a740 aaac 4e08 308f a740
000005c0: b099 4e08 308f a740 e9db 4d08 308f a740
000005d0: 221e 4d08 308f a740 5db4 4508 308f a740
000005e0: 984a 3e08 308f a740 e128 f407 308f a740
000005f0: 73a0 e107 308f a740 3c5c d807 308f a740
00000600: b533 d707 308f a740 729f d607 308f a740
00000610: ea8c d607 308f a740 627a d607 308f a740
00000620: 0ec1 d507 308f a740 ba07 d507 308f a740
00000630: 6fca cd07 308f a740 248d c607 308f a740
00000640: 3728 7e07 308f a740 4ac3 3507 308f a740
00000650: 09d2 6104 308f a740 c6e0 8d01 308f a740
00000660: 8473 46e5 2f8f a740 8505 ffc8 2f8f a740
00000670: 8c78 34ae 2e8f a740 9ea1 6993 2d8f a740
00000680: 74de 6387 228f a740 de52 417b 178f a740
00000690: e185 17f8 a88e a740 38eb 1f6a 3a8e a740
000006a0: 2bcf c1ef ca8a a740 d1aa d4ab 5987 a740
000006b0: dcf6 5c12 e783 a740 246b a35a bf7d a740
000006c0: bcae 1566 6479 a740 c65f afb4 0975 a740
000006d0: d7d3 26f0 af70 a740 af7c a5bf 576c a740
000006e0: 6124 b7c1 e464 a740 5a6e 1da9 7b5d a740
000006f0: c75c 34ee 1f56 a740 bacb 8346 d54e a740
00000700: 470f c14d 824e a740 95b7 3b7a 2d4e a740
00000710: a555 ae5a d64d a740 1c08 41bf 064d a740
00000720: 0024 c280 294c a740 d015 50a2 c247 a740
00000730: f4ab be39 7347 a740 fcdb db0d 4b47 a740
00000740: 48c0 87d9 3647 a740 eb02 cdb7 2c47 a740
00000750: f87f 952e 2a47 a740 08ba dbe9 2847 a740
00000760: e627 aa98 2847 a740 4891 5d84 2847 a740
00000770: 7e68 4a7f 2847 a740 a2d3 c07c 2847 a740
00000780: 1609 7c7b 2847 a740 6fd6 2a7b 2847 a740
00000790: 1ab0 207b 2847 a740 8526 1e7b 2847 a740
000007a0: bae1 1c7b 2847 a740 553f 1c7b 2847 a740
000007b0: 22ee 1b7b 2847 a740 d5d9 1b7b 2847 a740
000007c0: 88c5 1b7b 2847 a740 3bb1 1b7b 2847 a740
000007d0: e3aa 1b7b 2847 a740 8ba4 1b7b 2847 a740
000007e0: 1b65 1b7b 2847 a740 ab25 1b7b 2847 a740
000007f0: 45ab 187b 2847 a740 e030 167b 2847 a740
0.0 -8.637474445362848e-08 -3.752537550092406e-07 -8.856266102470951e-05 -0.00037799385880489414 -0.010396359335475329 -0.04305386606808282 -0.11276335548275332
-0.2329264737499366 -0.41796338571485864 -0.6818288293360735 -1.0370587711667865 -1.4956244696465906 -2.0666000400980895 -2.7580449244260947 -3.576545184234953
-4.528311964062342 -5.620121260216365 -6.85853548726009 -8.248460129774875 -9.792034664396533 -11.490289060610275 -13.343614257128722 -15.351928419063814
-17.510410278566678 -19.843035185502 -22.30267821457211 -24.868053676567612 -27.519057165965812 -30.223006478381397 -32.96292177621696 -35.712437871811716
-38.43815461729175 -41.092587131496366 -43.61485607685376 -45.929282141091186 -47.93987243207798 -49.520810759274546 -50.501667079093586 -50.64325280707295
-49.59731174446744 -46.834038874902184 -41.726619223797684 -33.78591636363198 -22.885437725759004 -8.991421095232742 8.270822831654542 29.19274430312094
53.36128373724236 80.0842831837239 108.9125958321857 139.81104760833105 172.7611316744758 207.41948184688016 243.47991112465246 280.62557628884434
318.60197234803303 357.11261986551176 395.87186158551043 434.6298837577196 473.17326622899634 511.3226499845054 548.9321075113332 585.8885979877384
622.1086459609796 657.5382695299915 692.1535685230427 725.9658879400474 758.9932973408512 791.259488904172 822.757001329952 853.4689810129094
883.3126929434601 912.1867554385964 940.3588601695787 968.1794535409518 995.979883778867 1023.7781993663775 1051.4784557498597 1079.0576323669663
1106.5326759067727 1133.977470480706 1161.4666706838034 1189.047861938873 1216.7541726530894 1244.6198520366975 1272.680261362829 1300.9629180896363
1329.4847407477016 1358.2533878976806 1387.2642502812178 1416.4986503405428 1445.9212966780167 1475.4899085680636 1505.1503594156848 1534.8396875870799
1564.476654825443 1593.9734347647277 1623.2454042146867 1652.215564642992 1680.81795059914 1709.0037499037567 1736.7525423930258 1764.0885412757889
1791.0483844983787 1817.416982621297 1843.1492331818304 1868.3688711652937 1892.6975390706011 1916.06505664344 1938.5712544548676 1960.46322601977
1981.98656570409 2003.3167469225175 2024.5751259610809 2045.8603535969896 2067.2666024434384 2088.8901912439956 2110.8314399888104 2133.1830761227598
2156.055222503929 2179.567291846854 2203.8420223977255 2229.004178567735 2255.1794827226086 2282.4914158142255 2311.0561041702454 2340.9708117616015
2372.3078752434394 2405.1132333236847 2439.4242765089875 2475.25952266399 2512.9243956724727 2552.981423422561 2594.4794019422516 2623.68521959512
2651.474039502623 2670.353535694141 2689.0935171867914 2707.8632171686736 2726.486766033093 2755.8862970652726 2784.036595823894 2810.823433758269
2841.6994832257787 2870.2883641135827 2896.4965606210976 2920.251005933395 2941.5240874398446 2960.2817874871016 2976.497360976805 2990.1380117368412
3001.179261597504 3009.5954786791303 3015.35313780762 3018.4072566926875 3018.6982585216856 3017.7857184708464 3017.0599145511574 3016.628895981118
3016.1639373040794 3015.925077745068 3015.6864871881944 3015.6271370913187 3015.5974804567168 3015.5956270816737 3015.594700413667 3015.594237085508
3015.594005422807 3015.5938895917825 3015.593831676353 3015.5938171975035 3015.593813577791 3015.5938134646753 3015.5938134081175 3015.593813393978
3015.593813386908 3015.5938133851405 3015.5938133849195 3015.5938133846985 3015.5938133844775 3015.5938133842565 3015.5938133820473 3015.593813379838
3015.593813377629 3015.593813355536 3015.593813333443 3015.5938131125135 3015.593812891584 3015.5938106822873 3015.593810129963 3015.593809853801
3015.5938098192805 3015.5938098020206 3015.5938097998633 3015.593809797706 3015.593809776131 3015.593809754556 3015.593809538804 3015.5938093230525
3015.593807165536 3015.5938050080194 3015.5937834328547 3015.593761857689 3015.593546105958 3015.593330354141 3015.5911728284027 3015.5890152940547
3015.5674391945886 3015.5458622373253 3015.3300177908827 3015.1140909170754 3013.3963604512587 3011.675139089443 3009.9513119746534 3006.873738390759
3004.6960913444327 3002.5189566425715 3000.343629086837 2998.1713840212537 2994.4467904312046 2990.7415246197897 2987.06236423142 2983.4165536104383
2983.2544994670056 2983.0888231908416 2982.9186605910822 2982.5131779024505 2982.0810604733415 2979.880144598639 2979.7250499329475 2979.646590109447
2979.6071283743113 2979.587339789015 2979.582386657592 2979.5799091972913 2979.5792897390083 2979.579134868607 2979.579096150642 2979.579076791605
2979.579067112073 2979.5790646921882 2979.5790643897026 2979.5790643140813 2979.5790642762704 2979.579064257365 2979.5790642479124 2979.579064245549
2979.5790642431857 2979.5790642408224 2979.579064240084 2979.5790642393454 2979.5790642319603 2979.579064224575 2979.5790641507215 2979.5790640768682

position_z f8 [493]
00000000: 0000 0000 0000 0000 9068 3bcb a35a 653f
00000010: b38d ccc0 75f7 7c3f 7b9e 0bd1 8f9a cb3f
00000020: aa76 43cf a38e e33f 987e da5d 5e2e 1540
00000030: ab3d 67af 9d6b 2d40 d6d3 5b2c 68f8 3c40
00000040: efc1 2bcc 3a12 4840 79fc 40b0 b411 5240
00000050: b2ab 775e d15a 5940 606c f4c5 acf3 6040
00000060: 77f8 2033 3cdd 6540 831d 1d27 726b 6b40
00000070: 7ce6 185f d6cf 7040 7d40 e306 993d 7440
00000080: 43a4 001c b7ff 7740 01ab 43ae eb16 7c40
00000090: 6e51 dd7a f641 8040 9ca4 b7c7 bea3 8240
000000a0: c9e4 157a 2c31 8540 f5fd fa01 9aea 8740
000000b0: 6ce7 570e 59d0 8a40 01dd 04d0 b2e2 8d40
000000c0: 7d33 034b cc90 9040 f2ac 4d0c 3e4c 9240
000000d0: 8869 7d4b 7f1e 9440 4a57 ff0a 9206 9640
000000e0: 1b82 266a 1904 9840 2556 8164 d112 9a40
000000f0: 2110 486b 7734 9c40 3e10 8b67 266a 9e40
00000100: 2368 2deb 0d5a a040 bca4 3b30 0f89 a140
00000110: 3217 9ecd eac1 a240 863a 407c 7d04 a440
00000120: 657b f666 b550 a540 dbb0 02bf 91a6 a640
00000130: ce36 b990 2006 a840 7681 8911 806f a940
00000140: ce1d a5fc e7e2 aa40 d0b7 9461 b160 ac40
00000150: 93b5 3a15 5be9 ad40 3847 fb20 9a7d af40
00000160: 758d c652 ec8e b040 f899 6f26 7564 b140
00000170: 5056 184b 0c3e b240 10da 7610 3e1a b340
00000180: 190c e1a8 e7f7 b340 eb28 8984 14d6 b440
00000190: 79ca ad7a b8b3 b540 2b87 c245 b28f b640
000001a0: f034 1f35 dd68 b740 f836 fadc 023e b840
000001b0: 8d02 549b 280e b940 ee0f 8227 5bd8 b940
000001c0: 9fa7 0bd9 bf9b ba40 5a9e 0d05 6e57 bb40
000001d0: b9c3 6c25 840a bc40 46cd e661 35b4 bc40
000001e0: 4a68 0b00 c953 bd40 c7bb 390e 96e8 bd40
000001f0: 821d b724 0172 be40 b273 0d5e 7cef be40
00000200: e251 949d 8660 bf40 e938 f97e aec4 bf40
00000210: ee2f 1c70 c90d c040 15ba e404 7032 c040
00000220: 7dc1 5a84 2850 c040 14a5 55f0 dc66 c040
00000230: 942b 1b4e 8c76 c040 b1ac e18c 3e7f c040
00000240: e8e5 759e d480 c040 243d d6fd 267b c040
00000250: 324b 0372 3e6e c040 defc 7bb7 4b5a c040
00000260: 51fd 1431 8e3f c040 784c 3d1a 3a1e c040
00000270: b630 b1a3 03ed bf40 054e cd8c 4691 bf40
00000280: fa0f d088 d629 bf40 5e09 683d 6db7 be40
00000290: 60b6 207e e03a be40 af93 849a 20b5 bd40
000002a0: ec93 9abb 3927 bd40 1dbe e261 7792 bc40
000002b0: 0646 9442 13f8 bb40 20fe 37dc 6459 bb40
000002c0: f1d8 9724 c0b7 ba40 e7c3 df18 b814 ba40
000002d0: d5c7 9934 0072 b940 7769 8733 52d1 b840
000002e0: a39f 06c3 9234 b840 4ad5 fc6d 5f9d b740
000002f0: a731 4a43 510d b740 f544 631c d785 b640
00000300: e056 a3b1 7308 b640 c1c3 46b1 9796 b540
00000310: 1956 00c6 8631 b540 d297 32d6 53da b440
00000320: 9a5c 1d42 e591 b440 1104 8f20 f858 b440
00000330: 8681 4dfa 2130 b440 727b 73e7 d217 b440
00000340: 9094 2554 5610 b440 5100 6257 ad19 b440
00000350: cdaf 8ed7 8733 b440 a32e ba2b 3b5d b440
00000360: 7bf4 beed ce96 b440 36a7 19f9 7fe0 b440
00000370: a53e aac4 023a b540 7f58 fb83 b1a2 b540
00000380: 24bf 08f0 ac19 b640 7035 4e56 e79d b640
00000390: 4fd9 3659 222e b740 3ddc 9d63 e7c8 b740
000003a0: ffc3 f75e 7f6c b840 c6d5 a6e4 ea16 b940
000003b0: 73f6 fb07 dbc5 b940 d5c4 b893 ea76 ba40
000003c0: 8e94 7ea9 1627 bb40 ed4a 71f0 e5d2 bb40
000003d0: 93e1 2dd6 8b76 bc40 e5f5 7703 ef0d bd40
000003e0: 059b decd aa94 bd40 c791 0411 1d06 be40
000003f0: b70d bd74 835d be40 f664 8634 2396 be40
00000400: cac2 5a0d 80ab be40 da46 6add 9d99 be40
00000410: ac1c e9be 4a5d be40 4177 3ed8 6df4 bd40
00000420: 4bd3 6131 615e bd40 dc7a 245e 629c bc40
00000430: 8e34 d9c6 c7be bb40 1ee4 6b4a 281e bb40
00000440: a999 dcc0 8781 ba40 dcaf 719b 6b16 ba40
00000450: fea6 dbc1 7fae b940 e3da 2b4d bc49 b940
00000460: 5113 b230 31e8 b840 b00a 05e4 6250 b840
00000470: 5e3a a270 18c1 b740 cf26 dd86 fe39 b740
00000480: a915 d503 d69e b640 4560 0204 690e b640
00000490: cdcc ae72 ae87 b540 2401 148a a609 b540
000004a0: 9608 4816 5893 b440 2c34 b2a2 0924 b440
000004b0: f0bd c65f 1cbb b340 ae98 f1f4 0f58 b340
000004c0: bcba d905 6ffa b240 cd47 f8c6 d4a1 b240
000004d0: b1b7 98e7 f04d b240 a271 a393 85fe b140
000004e0: a33f 1680 63b3 b140 164c 3ca3 618f b140
000004f0: 895a 5511 c37d b140 c280 3432 0c75 b140
00000500: 5bf3 9855 566c b140 1ed9 979d f367 b140
00000510: a33e 4c32 8663 b140 c1cc b1e2 6862 b140
00000520: 056e 88fa d961 b140 fdee af0a d161 b140
00000530: 5567 b392 cc61 b140 76ff b056 ca61 b140
00000540: 38c5 ae38 c961 b140 f966 ada9 c861 b140
00000550: 88a7 2c62 c861 b140 fa75 4c50 c861 b140
00000560: 7a69 d44b c861 b140 16a9 b04b c861 b140
00000570: e4c8 9e4b c861 b140 d750 9a4b c861 b140
00000580: d114 984b c861 b140 cf85 974b c861 b140
00000590: ef73 974b c861 b140 0f62 974b c861 b140
000005a0: 2f50 974b c861 b140 4f3e 974b c861 b140
000005b0: 8d8b 964b c861 b140 cbd8 954b c861 b140
000005c0: 0926 954b c861 b140 752a 8e4b c861 b140
000005d0: e12e 874b c861 b140 1d5b 414b c861 b140
000005e0: 5987 fb4a c861 b140 b241 4148 c861 b140
000005f0: 48b0 9247 c861 b140 9367 3b47 c861 b140
00000600: 7c7e 3047 c861 b140 f109 2b47 c861 b140
00000610: 605b 2a47 c861 b140 cfac 2947 c861 b140
00000620: 21db 2247 c861 b140 7309 1c47 c861 b140
00000630: a5d8 d746 c861 b140 d7a7 9346 c861 b140
00000640: ccbf e943 c861 b140 bed7 3f41 c861 b140
00000650: 0dc6 9c26 c861 b140 11b3 f90b c861 b140
00000660: c583 9a01 c761 b140 4ad3 3af7 c561 b140
00000670: f59d 518f bb61 b140 d4fa 3527 b161 b140
00000680: 8fc0 e104 4961 b140 57d6 face e060 b140
00000690: b209 ff30 c85c b140 f0bc 6a62 a858 b140
000006a0: 11d1 c9ca 0b37 b140 644a 3c5e 0b14 b140
000006b0: 5344 700a e1ef b040 0de4 3d26 f9ac b040
000006c0: 2641 77cb 127c b040 9ccf bd3f ed49 b040
000006d0: 010b b202 8c16 b040 ae6c d33c dec3 af40
000006e0: 11e9 ff2e 1809 af40 73eb 1a59 cc46 ae40
000006f0: 796f 9832 b37c ad40 7ede 6cc5 7daa ac40
00000700: 564d 4b06 01a1 ac40 21ac 4514 8897 ac40
00000710: 5fa6 c483 158e ac40 5211 47ee 2379 ac40
00000720: 6bc8 1521 5864 ac40 9e17 7dcb aa0b ac40
00000730: 5ab0 ada9 3606 ac40 3660 ec99 7d03 ac40
00000740: 7329 a754 2102 ac40 3b65 f542 7301 ac40
00000750: 90a1 4ec0 4701 ac40 2142 3fff 3101 ac40
00000760: 3b7c 028f 2c01 ac40 a4bb f332 2b01 ac40
00000770: 8f12 f0db 2a01 ac40 133f 6eb0 2a01 ac40
00000780: 9955 ad9a 2a01 ac40 3f1b 3d95 2a01 ac40
00000790: f413 8f94 2a01 ac40 2092 6394 2a01 ac40
000007a0: 34d1 4d94 2a01 ac40 bdf0 4294 2a01 ac40
000007b0: 8280 3d94 2a01 ac40 7424 3c94 2a01 ac40
000007c0: 67c8 3a94 2a01 ac40 5a6c 3994 2a01 ac40
000007d0: 94ff 3894 2a01 ac40 ce92 3894 2a01 ac40
000007e0: 1153 3494 2a01 ac40 5413 3094 2a01 ac40
000007f0: ec95 0594 2a01 ac40 8518 db93 2a01 ac40
0.0 0.002606696996605491 0.007071933720712509 0.21565435130399976 0.6111620948901948 5.295281855069014 14.710187417366646 28.970339558047122
48.14241935860252 72.27665335031806 101.4190288704547 135.61484048594411 174.91359859885753 219.3576846665056 268.989836785571 323.8498600842502
383.9822044396462 449.43253923828894 520.2453515329814 596.4681543681249 678.1467172346539 765.3251990898849 858.0434843890666 956.33731082725
1060.1995048999954 1171.0605938088233 1287.6243114085828 1409.6426200768497 1537.0248189942274 1668.7044849594906 1805.1166201839299 1946.5375043610252
2093.0271848859425 2244.529664863452 2400.958599987346 2562.2450885840835 2728.3543011689785 2899.284660419549 3075.0636041526222 3255.7501337976964
3441.453099403275 3632.346447608412 3828.677896341958 4030.801032879299 4238.923138055358 4452.457617735949 4670.048020859787 4890.242438724745
5111.904920640424 5334.0801473355195 5555.720621931011 5775.696376951218 5992.86409182589 6206.011184347553 6414.158620119689 6616.356071595086
6811.749405601905 6999.429764605675 7178.516196058067 7348.208525109401 7507.785156929933 7656.586154564232 7794.004466480927 7919.48581012797
8032.525841970435 8132.681624962229 8219.57373382893 8292.875149336682 8352.316539139249 8397.72608442841 8429.096133610037 8446.488674363443
8449.661085831889 8438.304621486524 8412.48785439655 8372.59153699729 8319.110872863474 8252.453925764406 8173.014216493981 8081.275585967586
7977.838025096798 7863.426718237197 7738.876924557233 7605.127357755714 7463.225518857111 7314.466337367453 7160.075234667869 7001.393985271017
6839.750558367218 6676.719129548385 6514.000802623069 6353.321098769425 6196.573288358663 6045.3727720280385 5901.3174330111715 5765.840276913009
5640.451929291448 5526.592548773567 5425.526458760281 5338.32748714644 5265.895540080173 5208.969246805661 5168.13272556698 5143.823844163549
5136.337221478243 5145.677114605977 5171.53063289444 5213.231135975252 5270.808315214813 5344.4998947175245 5434.010813370031 5538.693420132738
5657.675537630716 5789.903660667464 5934.1341738014735 6088.903863779325 6252.497542844153 6422.91755144805 6597.85559057967 6774.916316555075
6951.088523780125 7122.898200112145 7286.546236865589 7437.933646676572 7572.667203820082 7686.113540921774 7773.513500038002 7830.13752021756
7851.500203774029 7833.616659776972 7773.29197556448 7668.429080871691 7518.37965976151 7324.3842490005445 7102.780377936679 6942.1573855812
6785.530286586299 6678.420340638575 6574.499051788587 6473.735552540721 6376.192149285999 6224.386291804418 6081.095468653917 5945.994245359397
5790.8359959772 5646.41021742678 5511.681437420845 5385.650544405249 5267.344089986893 5156.037638795602 5051.110836430904 4952.062331294799
4858.433683021631 4769.831161038904 4685.941033882948 4606.5217840340065 4531.388673201119 4495.381397026611 4477.761983236888 4469.047641068873
4460.337243613637 4455.951623430736 4451.52420498399 4450.409709084023 4449.851479079113 4449.816569324347 4449.799113476493 4449.790385305756
4449.786021159314 4449.78383907093 4449.782748022939 4449.782475260547 4449.782407069923 4449.782404938966 4449.782403873487 4449.782403607117
4449.782403473932 4449.782403440636 4449.782403436474 4449.782403432312 4449.78240342815 4449.782403423988 4449.782403382368 4449.782403340748
4449.7824032991275 4449.7824028829245 4449.782402466722 4449.782398304696 4449.78239414267 4449.78235252241 4449.782342117345 4449.782336914813
4449.782336264496 4449.782335939338 4449.782335898693 4449.782335858049 4449.782335451601 4449.782335045154 4449.7823309806745 4449.782326916195
4449.782286271406 4449.782245626613 4449.781839178421 4449.781432729928 4449.777368218584 4449.773303677162 4449.732655621589 4449.69200456022
4449.285230741035 4448.878158261613 4444.781997623317 4440.657751723411 4407.046063054601 4372.044406669771 4335.879065529519 4268.973239772965
4220.073417142301 4169.926753867327 4118.546916129767 4065.934057814614 3972.547233578873 3875.3991173183836 3774.3499953876567 3669.245646860275
3664.5020011455445 3659.7657796642893 3655.042020936307 3644.5701772888797 3634.1721274192 3589.8335837451295 3587.1067632940076 3585.745314966912
3585.065098975954 3584.725120228393 3584.6401390621395 3584.59765050585 3584.587028577485 3584.584373108535 3584.58370924212 3584.5833773090358
3584.5832113425245 3584.5831698508987 3584.5831646644456 3584.5831633678317 3584.583162719524 3584.5831623953695 3584.5831622332926 3584.5831621927737
3584.583162152255 3584.583162111737 3584.583162099074 3584.583162086411 3584.5831619597816 3584.583161833152 3584.5831605668554 3584.583159300559
