yeonu/results_6dof/SCUD-B_45deg_professor_20251217_140110.npz (npz, 6222 bytes, 19 tensors)

time f8 [9]
0.0 0.003343790774586144 0.03678169852044758 0.12533786266141575 1.0108995040710975 2.0108995040710975 3.0108995040710975 4.010899504071098
5.0
00000000: 0000 0000 0000 0000 1f3e b000 7064 6b3f
00000010: b52a 7900 0dd5 a23f b368 8a32 120b c03f
00000020: 9e72 58f5 a42c f03f 4f39 ac7a 5216 0040
00000030: 4f39 ac7a 5216 0840 a81c 563d 290b 1040
00000040: 0000 0000 0000 1440

V f8 [9]
0.10000000000000002 0.10285589971485497 1.2855405137704465 4.515713904633946 36.98113324307416 73.92241856230599 111.0991212339718 148.44892796447434
185.5241609773926
00000000: 9b99 9999 9999 b93f 5fd8 79a5 c354 ba3f
00000010: d33b 05ee 9291 f43f 26fb 494e 1710 1240
00000020: cf02 2cc6 957d 4240 f794 dde7 087b 5240
00000030: e08f 9600 58c6 5b40 abb5 2d9e 5d8e 6240
00000040: b3f7 3ded c530 6740

gamma f8 [9]
0.7853981633974483 -0.2994038378787638 -0.9437415070954704 -0.9676397138443161 -0.9740388085162841 -0.9717348663921719 -0.9678401274725468 -0.9626715617454553
-0.9564210707906662
00000000: 182d 4454 fb21 e93f 841d ffb6 6e29 d3bf
00000010: 1e4a 9b63 2133 eebf 57b5 a88f e7f6 eebf
00000020: 8697 736f 532b efbf a031 f1b7 7318 efbf
00000030: ae08 e8db 8bf8 eebf 1c8d 4f97 34ce eebf
00000040: ee09 885c 009b eebf

psi f8 [9]
0.0 0.0 0.0 0.0 0.0 0.0 0.0 0.0
0.0
00000000: 0000 0000 0000 0000 0000 0000 0000 0000
00000010: 0000 0000 0000 0000 0000 0000 0000 0000
00000020: 0000 0000 0000 0000 0000 0000 0000 0000
00000030: 0000 0000 0000 0000 0000 0000 0000 0000
00000040: 0000 0000 0000 0000

position_x f8 [9]
0.0 0.00011411725388970862 0.013810168187184843 0.16042267299244706 10.4783181637804 41.67875202724176 93.98289767829166 167.8467843844963
262.63009662917887
00000000: 0000 0000 0000 0000 1b8f 537e 47ea 1d3f
00000010: c5d0 ba65 8148 8c3f 1c0d 05eb ba88 c43f
00000020: 080a 4d1e e6f4 2440 6c8c af58 e1d6 4440
00000030: eee4 a9cb e77e 5740 9ac5 90db 18fb 6440
00000040: 4afa 33e0 146a 7040

position_y f8 [9]
0.0 0.00023644171315788813 0.0026008588447367694 0.008862725262731528 0.07148138944267911 0.14219206756133387 0.21290274567998863 0.2836134237986434
0.35355339059327384
00000000: 0000 0000 0000 0000 9d16 d1d9 aafd 2e3f
00000010: 8cbf bf75 654e 653f 6542 41d9 9e26 823f
00000020: 6fcf edb5 9a4c b23f 3d99 f683 5933 c23f
00000030: c24a f6ac 6540 cb3f 24fe faea b826 d23f
00000040: ce3b 7f66 9ea0 d63f

altitude f8 [9]
0.0 6.750069260776061e-05 -0.017842964538139473 -0.22858723755446592 -15.408752359156972 -61.2231163806906 -137.50785690175053 -244.19566988586456
-379.44295575830984
00000000: 0000 0000 0000 0000 e9e3 9e11 e5b1 113f
00000010: 7ab7 9e14 6d45 92bf 3e2a caba 5842 cdbf
00000020: ed7b 3dfd 47d1 2ec0 4e22 db13 8f9c 4ec0
00000030: 2002 1e5d 4030 61c0 3613 7eed 4286 6ec0
00000040: 40f8 c658 16b7 77c0

phi f8 [9]
0.0 0.0 0.0 0.0 0.0 0.0 0.0 0.0
0.0
00000000: 0000 0000 0000 0000 0000 0000 0000 0000
00000010: 0000 0000 0000 0000 0000 0000 0000 0000
00000020: 0000 0000 0000 0000 0000 0000 0000 0000
00000030: 0000 0000 0000 0000 0000 0000 0000 0000
00000040: 0000 0000 0000 0000

theta f8 [9]
0.7853981633974483 0.7853981633974483 0.7853981633974483 0.7853981633974483 0.7853981633974483 0.7853981633974483 0.7853981633974483 0.7853981633974483
0.7853981633974483
00000000: 182d 4454 fb21 e93f 182d 4454 fb21 e93f
00000010: 182d 4454 fb21 e93f 182d 4454 fb21 e93f
00000020: 182d 4454 fb21 e93f 182d 4454 fb21 e93f
00000030: 182d 4454 fb21 e93f 182d 4454 fb21 e93f
00000040: 182d 4454 fb21 e93f

p f8 [9]
0.0 0.0 0.0 0.0 0.0 0.0 0.0 0.0
0.0
00000000: 0000 0000 0000 0000 0000 0000 0000 0000
00000010: 0000 0000 0000 0000 0000 0000 0000 0000
00000020: 0000 0000 0000 0000 0000 0000 0000 0000
00000030: 0000 0000 0000 0000 0000 0000 0000 0000
00000040: 0000 0000 0000 0000

q f8 [9]
0.0 0.0 0.0 0.0 0.0 0.0 0.0 0.0
0.0
00000000: 0000 0000 0000 0000 0000 0000 0000 0000
00000010: 0000 0000 0000 0000 0000 0000 0000 0000
00000020: 0000 0000 0000 0000 0000 0000 0000 0000
00000030: 0000 0000 0000 0000 0000 0000 0000 0000
00000040: 0000 0000 0000 0000

r f8 [9]
0.0 0.0 0.0 0.0 0.0 0.0 0.0 0.0
0.0
00000000: 0000 0000 0000 0000 0000 0000 0000 0000
00000010: 0000 0000 0000 0000 0000 0000 0000 0000
00000020: 0000 0000 0000 0000 0000 0000 0000 0000
00000030: 0000 0000 0000 0000 0000 0000 0000 0000
00000040: 0000 0000 0000 0000

mass f8 [9]
5860.0 5859.749215691906 5857.241372610966 5850.599660300393 5784.182537194667 5709.182537194667 5634.182537194667 5559.182537194667
5484.999999999999
00000000: 0000 0000 00e4 b640 637e 99cc bfe3 b640
00000010: 406e 98ca 3de1 b640 e662 5683 99da b640
00000020: 66f1 c1ba 2e98 b640 66f1 c1ba 2e4d b640
00000030: 66f1 c1ba 2e02 b640 66f1 c1ba 2eb7 b540
00000040: ffff ffff ff6c b540

mach f8 [9]
0.0002941176470588236 0.0003025173521025146 0.0037810015110895487 0.013281511484217488 0.10876803895021812 0.2174188781244294 0.32676212127638765 0.4366144940131598
0.5456592969923312
00000000: 4813 e0ac 7946 333f e79f 3d22 66d3 333f
00000010: 599c c2ba 55f9 6e3f 6cb3 ba4b 5633 8b3f
00000020: 5f28 24e2 38d8 bb3f 5ce9 89bd 61d4 cb3f
00000030: f108 1dac abe9 d43f 41c0 2feb 7df1 db3f
00000040: abe4 6a7c 0a76 e13f

alpha f8 [9]
0.0 0.0 -0.16043879515193413 -0.18241960049290656 -0.18864333581247839 -0.18633737306475445 -0.18244225826260338 -0.17727356131320654
-0.1710230103540488
00000000: 0000 0000 0000 0000 0000 0000 0000 0000
00000010: 2ff6 1729 4289 c4bf 061a 2285 8659 c7bf
00000020: e822 f6fe 7625 c8bf 4af7 aa2d e7d9 c7bf
00000030: e3b8 5296 445a c7bf ee90 246a e6b0 c6bf
00000040: 15c4 2afe 14e4 c5bf

beta f8 [9]
0.7853981633974484 0.7580039090765209 0.05503240229333786 0.015659443804165254 0.00191207556406286 0.0009565526977767052 0.0006364648262495421 0.0004763300197728909
0.0003811400060139212
00000000: 192d 4454 fb21 e93f 7e29 f769 9141 e83f
00000010: 74f1 2300 352d ac3f f7bc 0c7c 0709 903f
00000020: e9e6 f780 d353 5f3f 4c9b e446 2558 4f3f
00000030: ecde 90ce 0ddb 443f 2929 66db 7d37 3f3f
00000040: 8c44 6cdc 77fa 383f

u f8 [9]
-0.05000000000000001 0.06971656719273397 1.267109491068669 4.4402430534999064 36.325004873951656 72.64274143634657 109.25524505469784 146.12244185627657
182.81756835026323
00000000: 9b99 9999 9999 a9bf ae09 15e8 f1d8 b13f
00000010: 4d75 099a 1446 f43f 094b 3413 cfc2 1140
00000020: dc54 7cc2 9929 4240 2039 faac 2229 5240
00000030: 2699 5aef 5550 5b40 d20b 2f0b eb43 6240
00000040: 02d4 1985 29da 6640

v f8 [9]
0.07071067811865477 0.07071067811865477 0.07071067811865477 0.07071067811865477 0.07071067811865477 0.07071067811865477 0.07071067811865477 0.07071067811865477
0.07071067811865477
00000000: 0b63 ff51 181a b23f 0b63 ff51 181a b23f
00000010: 0b63 ff51 181a b23f 0b63 ff51 181a b23f
00000020: 0b63 ff51 181a b23f 0b63 ff51 181a b23f
00000030: 0b63 ff51 181a b23f 0b63 ff51 181a b23f
00000040: 0b63 ff51 181a b23f

w f8 [9]
0.05000000000000001 0.02681298873705259 -0.2050559684302857 -0.8190932146893826 -6.934928755898883 -13.694929087543985 -20.156913627802517 -26.178449147357195
-31.574451837875472
00000000: 9b99 9999 9999 a93f d643 ef36 dd74 9b3f
00000010: d7fb 2023 463f cabf caec 2ef9 0236 eabf
00000020: e3b3 baf6 5dbd 1bc0 c114 d0be cd63 2bc0
00000030: 62b5 d37d 2b28 34c0 f3e5 e3d7 ae2d 3ac0
00000040: 60cd 9046 0f93 3fc0
