yeonu/results_6dof/SCUD-B_45.0deg_20251219_195803.npz (npz, 44470 bytes, 22 tensors)

time f8 [313]
00000000: 0000 0000 0000 0000 7b14 ae47 e17a 843f
00000010: 295c 8fc2 f528 bc3f 85eb 51b8 1e85 e33f
00000020: c2f5 285c 8fc2 f13f c2f5 285c 8fc2 f93f
00000030: e17a 14ae 47e1 0040 e17a 14ae 47e1 0440
00000040: e17a 14ae 47e1 0840 e17a 14ae 47e1 0c40
00000050: 703d 0ad7 a370 1040 703d 0ad7 a370 1240
00000060: 703d 0ad7 a370 1440 703d 0ad7 a370 1640
00000070: 703d 0ad7 a370 1840 703d 0ad7 a370 1a40
00000080: 703d 0ad7 a370 1c40 703d 0ad7 a370 1e40
00000090: b81e 85eb 5138 2040 b81e 85eb 5138 2140
000000a0: b81e 85eb 5138 2240 b81e 85eb 5138 2340
000000b0: b81e 85eb 5138 2440 b81e 85eb 5138 2540
000000c0: b81e 85eb 5138 2640 b81e 85eb 5138 2740
000000d0: b81e 85eb 5138 2840 b81e 85eb 5138 2940
000000e0: b81e 85eb 5138 2a40 b81e 85eb 5138 2b40
000000f0: b81e 85eb 5138 2c40 b81e 85eb 5138 2d40
00000100: b81e 85eb 5138 2e40 b81e 85eb 5138 2f40
00000110: 5c8f c2f5 281c 3040 5c8f c2f5 289c 3040
00000120: 5c8f c2f5 281c 3140 5c8f c2f5 289c 3140
00000130: 5c8f c2f5 281c 3240 5c8f c2f5 289c 3240
00000140: 5c8f c2f5 281c 3340 5c8f c2f5 289c 3340
00000150: 5c8f c2f5 281c 3440 5c8f c2f5 289c 3440
00000160: 5c8f c2f5 281c 3540 5c8f c2f5 289c 3540
00000170: 5c8f c2f5 281c 3640 5c8f c2f5 289c 3640
00000180: 5c8f c2f5 281c 3740 5c8f c2f5 289c 3740
00000190: 5c8f c2f5 281c 3840 5c8f c2f5 289c 3840
000001a0: 4abf 37ba 67ca 3840 79fa b868 2ad9 3840
000001b0: 10e9 5f2c 88e6 3840 5b37 c796 f22d 3940
000001c0: a685 2e01 5d75 3940 f03a 2cf6 e4d0 3940
000001d0: f03a 2cf6 e450 3a40 f03a 2cf6 e4d0 3a40
000001e0: f03a 2cf6 e450 3b40 f03a 2cf6 e4d0 3b40
000001f0: f03a 2cf6 e450 3c40 f03a 2cf6 e4d0 3c40
00000200: f03a 2cf6 e450 3d40 f03a 2cf6 e4d0 3d40
00000210: f03a 2cf6 e450 3e40 f03a 2cf6 e4d0 3e40
00000220: f03a 2cf6 e450 3f40 f03a 2cf6 e4d0 3f40
00000230: 781d 167b 7228 4040 781d 167b 7268 4040
00000240: 781d 167b 72a8 4040 781d 167b 72e8 4040
00000250: 781d 167b 7228 4140 781d 167b 7268 4140
00000260: 781d 167b 72a8 4140 781d 167b 72e8 4140
00000270: 781d 167b 7228 4240 781d 167b 7268 4240
00000280: 781d 167b 72a8 4240 781d 167b 72e8 4240
00000290: 781d 167b 7228 4340 781d 167b 7268 4340
000002a0: 781d 167b 72a8 4340 781d 167b 72e8 4340
000002b0: 781d 167b 7228 4440 781d 167b 7268 4440
000002c0: 781d 167b 72a8 4440 781d 167b 72e8 4440
000002d0: 781d 167b 7228 4540 781d 167b 7268 4540
000002e0: 781d 167b 72a8 4540 781d 167b 72e8 4540
000002f0: 781d 167b 7228 4640 781d 167b 7268 4640
00000300: 781d 167b 72a8 4640 781d 167b 72e8 4640
00000310: 781d 167b 7228 4740 781d 167b 7268 4740
00000320: 781d 167b 72a8 4740 781d 167b 72e8 4740
00000330: 781d 167b 7228 4840 781d 167b 7268 4840
00000340: 781d 167b 72a8 4840 781d 167b 72e8 4840
00000350: 781d 167b 7228 4940 781d 167b 7268 4940
00000360: 781d 167b 72a8 4940 781d 167b 72e8 4940
00000370: 781d 167b 7228 4a40 781d 167b 7268 4a40
00000380: ab55 84fc 0f8d 4a40 1101 da2a cd9f 4a40
00000390: 253f 44ec cca5 4a40 d1b2 df57 b7a6 4a40
000003a0: 7d26 7bc3 a1a7 4a40 35ab 8df7 c9b0 4a40
000003b0: 8c6f 2dd5 81bf 4a40 b9d8 001f 91cd 4a40
000003c0: caa6 1fe0 00fa 4a40 caa6 1fe0 003a 4b40
000003d0: caa6 1fe0 007a 4b40 caa6 1fe0 00ba 4b40
000003e0: caa6 1fe0 00fa 4b40 caa6 1fe0 003a 4c40
000003f0: caa6 1fe0 007a 4c40 caa6 1fe0 00ba 4c40
00000400: caa6 1fe0 00fa 4c40 caa6 1fe0 003a 4d40
00000410: caa6 1fe0 007a 4d40 caa6 1fe0 00ba 4d40
00000420: caa6 1fe0 00fa 4d40 caa6 1fe0 003a 4e40
00000430: caa6 1fe0 007a 4e40 caa6 1fe0 00ba 4e40
00000440: caa6 1fe0 00fa 4e40 caa6 1fe0 003a 4f40
00000450: caa6 1fe0 007a 4f40 caa6 1fe0 00ba 4f40
00000460: caa6 1fe0 00fa 4f40 65d3 0f70 001d 5040
00000470: 65d3 0f70 003d 5040 65d3 0f70 005d 5040
00000480: 65d3 0f70 007d 5040 65d3 0f70 009d 5040
00000490: 65d3 0f70 00bd 5040 0a8e e6e6 aaca 5040
000004a0: 12eb 142e 1fd1 5040 dcd7 9e4a 2ad2 5040
000004b0: 74c6 8855 a9d2 5040 e54c 0202 1dd3 5040
000004c0: f5ea 2c18 62d7 5040 b461 188c 11dc 5040
000004d0: 7d73 5fb0 49e7 5040 6c0f 4b68 52fa 5040
000004e0: 6c0f 4b68 521a 5140 6c0f 4b68 523a 5140
000004f0: 6c0f 4b68 525a 5140 6c0f 4b68 527a 5140
00000500: 6c0f 4b68 529a 5140 6c0f 4b68 52ba 5140
00000510: 6c0f 4b68 52da 5140 6c0f 4b68 52fa 5140
00000520: 6c0f 4b68 521a 5240 6c0f 4b68 523a 5240
00000530: 6c0f 4b68 525a 5240 6c0f 4b68 527a 5240
00000540: 6c0f 4b68 529a 5240 6c0f 4b68 52ba 5240
00000550: 6c0f 4b68 52da 5240 6c0f 4b68 52fa 5240
00000560: 6c0f 4b68 521a 5340 6c0f 4b68 523a 5340
00000570: 6c0f 4b68 525a 5340 1e82 38c5 bf67 5340
00000580: 6476 716d 2c6e 5340 4020 2835 2970 5340
00000590: 46f3 85b2 b870 5340 fa5a 188a 2471 5340
000005a0: 70ab c268 8671 5340 5e57 7cd4 da74 5340
000005b0: c552 6fe5 d478 5340 61ee 2478 2882 5340
000005c0: f476 67fa 5891 5340 4b17 2f3a 52b0 5340
000005d0: 4b17 2f3a 52d0 5340 4b17 2f3a 52f0 5340
000005e0: 4b17 2f3a 5210 5440 4b17 2f3a 5230 5440
000005f0: 4b17 2f3a 5250 5440 4b17 2f3a 5270 5440
00000600: c093 cb6c 1f7d 5440 3510 689f ec89 5440
00000610: 7d02 cc8c f898 5440 7d02 cc8c f8b8 5440
00000620: 7d02 cc8c f8d8 5440 7d02 cc8c f8f8 5440
00000630: 7d02 cc8c f818 5540 7d02 cc8c f838 5540
00000640: 7d02 cc8c f858 5540 7d02 cc8c f878 5540
00000650: 7d02 cc8c f898 5540 7d02 cc8c f8b8 5540
00000660: 7d02 cc8c f8d8 5540 decb 50e2 3de6 5540
00000670: ae3d 9172 eced 5540 aa51 5977 3ff1 5540
00000680: ce8f defa 7ef2 5540 a058 4d22 d8f2 5540
00000690: 4366 6b45 2af3 5540 a1ee 97a4 5ff6 5540
000006a0: e170 b6e8 cefa 5540 7fd2 36ad 51ff 5540
000006b0: 7622 89a6 b80b 5640 9782 0b4b 3c1f 5640
000006c0: 9782 0b4b 3c3f 5640 9782 0b4b 3c5f 5640
000006d0: 9782 0b4b 3c7f 5640 9782 0b4b 3c9f 5640
000006e0: 9782 0b4b 3cbf 5640 9782 0b4b 3cdf 5640
000006f0: 9782 0b4b 3cff 5640 9782 0b4b 3c1f 5740
00000700: 9782 0b4b 3c3f 5740 9782 0b4b 3c5f 5740
00000710: 9782 0b4b 3c7f 5740 9782 0b4b 3c9f 5740
00000720: 9782 0b4b 3cbf 5740 9782 0b4b 3cdf 5740
00000730: 9782 0b4b 3cff 5740 9782 0b4b 3c1f 5840
00000740: 9782 0b4b 3c3f 5840 9782 0b4b 3c5f 5840
00000750: 9782 0b4b 3c7f 5840 9782 0b4b 3c9f 5840
00000760: 9782 0b4b 3cbf 5840 9782 0b4b 3cdf 5840
00000770: 9782 0b4b 3cff 5840 9782 0b4b 3c1f 5940
00000780: 628f 0b6a bc2d 5940 6429 f996 ca3b 5940
00000790: 86db 442d 064d 5940 9bdf 1221 c35e 5940
000007a0: 9bdf 1221 c37e 5940 9bdf 1221 c39e 5940
000007b0: 9bdf 1221 c3be 5940 9bdf 1221 c3de 5940
000007c0: 9bdf 1221 c3fe 5940 9bdf 1221 c31e 5a40
000007d0: 9bdf 1221 c33e 5a40 9bdf 1221 c35e 5a40
000007e0: 9bdf 1221 c37e 5a40 9bdf 1221 c39e 5a40
000007f0: 9bdf 1221 c3be 5a40 9bdf 1221 c3de 5a40
0.0 0.01 0.11 0.61 1.1099999999999999 1.6099999999999999 2.11 2.61
3.11 3.61 4.109999999999999 4.609999999999999 5.109999999999999 5.609999999999999 6.109999999999999 6.609999999999999
7.109999999999999 7.609999999999999 8.11 8.61 9.11 9.61 10.11 10.61
11.11 11.61 12.11 12.61 13.11 13.61 14.11 14.61
15.11 15.61 16.11 16.61 17.11 17.61 18.11 18.61
19.11 19.61 20.11 20.61 21.11 21.61 22.11 22.61
23.11 23.61 24.11 24.61 24.790645254717028 24.848303361092324 24.90051534024775 25.179482864033485
25.45845038781922 25.815993676947016 26.315993676947016 26.815993676947016 27.315993676947016 27.815993676947016 28.315993676947016 28.815993676947016
29.315993676947016 29.815993676947016 30.315993676947016 30.815993676947016 31.315993676947016 31.815993676947016 32.315993676947016 32.815993676947016
33.315993676947016 33.815993676947016 34.315993676947016 34.815993676947016 35.315993676947016 35.815993676947016 36.315993676947016 36.815993676947016
37.315993676947016 37.815993676947016 38.315993676947016 38.815993676947016 39.315993676947016 39.815993676947016 40.315993676947016 40.815993676947016
41.315993676947016 41.815993676947016 42.315993676947016 42.815993676947016 43.315993676947016 43.815993676947016 44.315993676947016 44.815993676947016
45.315993676947016 45.815993676947016 46.315993676947016 46.815993676947016 47.315993676947016 47.815993676947016 48.315993676947016 48.815993676947016
49.315993676947016 49.815993676947016 50.315993676947016 50.815993676947016 51.315993676947016 51.815993676947016 52.315993676947016 52.815993676947016
53.10205036603596 53.24844871182189 53.29531625110966 53.3024701921728 53.309624133235936 53.38116354386731 53.49614968031446 53.60599124471032
53.95315171761975 54.45315171761975 54.95315171761975 55.45315171761975 55.95315171761975 56.45315171761975 56.95315171761975 57.45315171761975
57.95315171761975 58.45315171761975 58.95315171761975 59.45315171761975 59.95315171761975 60.45315171761975 60.95315171761975 61.45315171761975
61.95315171761975 62.45315171761975 62.95315171761975 63.45315171761975 63.95315171761975 64.45315171761975 64.95315171761975 65.45315171761975
65.95315171761975 66.45315171761975 66.95315171761975 67.16668102755662 67.26752807658002 67.28383126747161 67.29158533436731 67.2986454985108
67.36536220919136 67.43857099896451 67.61387261697196 67.91127974825002 68.41127974825002 68.91127974825002 69.41127974825002 69.91127974825002
70.41127974825002 70.91127974825002 71.41127974825002 71.91127974825002 72.41127974825002 72.91127974825002 73.41127974825002 73.91127974825002
74.41127974825002 74.91127974825002 75.41127974825002 75.91127974825002 76.41127974825002 76.91127974825002 77.41127974825002 77.62107973593126
77.72146164017028 77.75251511496117 77.761273032008 77.76785519007163 77.77382868776999 77.82585632460311 77.88799415465753 78.03372005087432
78.27105579475375 78.75501875494699 79.25501875494699 79.75501875494699 80.25501875494699 80.75501875494699 81.25501875494699 81.75501875494699
81.95504302864629 82.15506730234559 82.39017028734993 82.89017028734993 83.39017028734993 83.89017028734993 84.39017028734993 84.89017028734993
85.39017028734993 85.89017028734993 86.39017028734993 86.89017028734993 87.39017028734993 87.5975271023776 87.71755661185918 87.76949866983946
87.78900024160905 87.79444177201594 87.799455027468 87.84958758198856 87.91887872520921 87.98936014512763 88.18314517395069 88.48805500148806
88.98805500148806 89.48805500148806 89.98805500148806 90.48805500148806 90.98805500148806 91.48805500148806 91.98805500148806 92.48805500148806
92.98805500148806 93.48805500148806 93.98805500148806 94.48805500148806 94.98805500148806 95.48805500148806 95.98805500148806 96.48805500148806
96.98805500148806 97.48805500148806 97.98805500148806 98.48805500148806 98.98805500148806 99.48805500148806 99.98805500148806 100.48805500148806
100.71462489251056 100.93424009639926 101.20350200390212 101.48065974085914 101.98065974085914 102.48065974085914 102.98065974085914 103.48065974085914
103.98065974085914 104.48065974085914 104.98065974085914 105.48065974085914 105.98065974085914 106.48065974085914 106.98065974085914 107.48065974085914

position_x f8 [313]
00000000: 0000 0000 0000 0000 95b2 91f8 4342 c63f
00000010: dd9e 3e0f 6b0b ff3f ce1f 9feb 1e0a 2740
00000020: 7fb0 3281 0758 3640 b380 a155 7234 4140
00000030: 0d35 61c0 48db 4740 d6ae f3e5 ce1f 4f40
00000040: 6d06 09bd 8f80 5340 609d a022 15bf 5740
00000050: 90cc 2d01 ef4a 5c40 f6b0 e0a5 b191 6040
00000060: b1c9 2228 c823 6340 68fe 6606 3cdb 6540
00000070: 9ad8 d096 7fb7 6840 025a 40ef f5b7 6b40
00000080: b0be df36 f2db 6e40 6f81 3570 5b11 7140
00000090: 3e43 bb66 bac5 7240 1dce 931f a58a 7440
000000a0: 519c 84ee 9f5f 7640 9875 c204 2444 7840
000000b0: 2d13 807c 9f37 7a40 46d3 b6bb 7439 7c40
000000c0: 271c 11d2 f948 7e40 f0b3 634e bc32 8040
000000d0: 68cc 1f08 1e47 8140 485a e4c8 4561 8240
000000e0: 2279 ba2e d080 8340 6055 a139 52a5 8440
000000f0: 82a1 c3ad 58ce 8540 3a81 8469 67fb 8640
00000100: 4935 8eae f82b 8840 ef33 f45c 7c5f 8940
00000110: f321 631f 5795 8a40 29fd 4387 e1cc 8b40
00000120: d17a a517 6705 8d40 91fc af3d 253e 8e40
00000130: 241d ae01 7376 8f40 381a bf85 a958 9040
00000140: 596c e9a2 d6f7 9040 5ed0 c92e 6798 9140
00000150: d6c2 cc9a f739 9240 9b4a c0c2 19dc 9240
00000160: 518d ff2e 547e 9340 0d70 1449 2120 9440
00000170: 08d3 a482 eec0 9440 fa61 9d6e 1b60 9540
00000180: 7482 77cc f8fc 9540 e457 3b84 c796 9640
00000190: 35d8 687b b72c 9740 d678 ac11 e8bd 9740
000001a0: a7b7 e5dd 05f1 9740 86e7 cb75 2d01 9840
000001b0: 2afe 74ac bc0f 9840 313f 3351 425c 9840
000001c0: ccea 5dcd a6a5 9840 5118 a5b8 78fe 9840
000001d0: 42f3 0fc1 e96f 9940 83a6 1d6c 80d3 9940
000001e0: cb9a ef43 b827 9a40 4279 96e6 f46a 9a40
000001f0: b4bd 41d2 849b 9a40 60f6 c7e7 b1b7 9a40
00000200: 26b9 cd96 bbbd 9a40 ef24 aac6 c9ab 9a40
00000210: f272 cde8 ec7f 9a40 6cf3 d107 1f38 9a40
00000220: 50aa c02d 45d2 9940 436b 782f 314c 9940
00000230: de31 b5ea a3a3 9840 f330 6e03 50d6 9740
00000240: 68f7 b62c dde1 9640 ee87 0d6c ecc3 9540
00000250: 4c09 0620 1d7a 9440 d8d7 dca3 2502 9340
00000260: 14b6 bff2 9e5a 9140 82e2 1956 0405 8f40
00000270: cd11 b12a 7bf1 8a40 8f95 ca7c 6e78 8640
00000280: 001f e991 9f97 8140 22c0 22fc a678 7840
00000290: bd4c 2893 c87c 6840 e005 77bd ed3e 38c0
000002a0: d08e 1bbf b2c7 70c0 bb59 cc72 f1c1 80c0
000002b0: a917 df10 9ad6 89c0 9e47 3c05 8ccd 91c0
000002c0: 301b ab6f d303 97c0 61b0 24b8 c189 9cc0
000002d0: ef0e df44 3d2d a1c0 b4c8 5745 5538 a4c0
000002e0: 03e4 7830 4563 a7c0 fffc 5388 f0aa aac0
000002f0: 049b 7de8 020c aec0 6eed 8c5e 78c1 b0c0
00000300: bc76 4bed fb85 b2c0 f863 3206 9051 b4c0
00000310: baa4 6bd9 1d22 b6c0 307a f144 74f5 b7c0
00000320: 7ad3 ca59 48c9 b9c0 1de8 0b11 369b bbc0
00000330: 9424 da3e c168 bdc0 0ab4 f5d1 562f bfc0
00000340: 2a0f 4037 2776 c0c0 e43b 7339 764e c1c0
00000350: 453d 033b 321f c2c0 6920 f026 eee6 c2c0
00000360: 458a 38d7 37a4 c3c0 1bf6 5938 9a55 c4c0
00000370: d39f 1dc9 9ff9 c4c0 4b00 307f d58e c5c0
00000380: 6d29 d47d fcdc c5c0 ef6a 7b75 d702 c6c0
00000390: 4c81 0a71 a50e c6c0 31c6 5142 6f10 c6c0
000003a0: 7913 5128 3812 c6c0 d647 c149 de23 c6c0
000003b0: 13b6 9664 783f c6c0 b7cd 8449 f158 c6c0
000003c0: 7c52 6b1c 8aa3 c6c0 1e18 c463 80fe c6c0
000003d0: 4e76 ce47 e844 c7c0 20f5 6a44 9e75 c7c0
000003e0: 4c39 5f98 9e8f c7c0 060f 1e02 0c92 c7c0
000003f0: d99b e712 377c c7c0 937c c00b a64d c7c0
00000400: 1c42 9b2b 1d06 c7c0 ec0b 2646 a7a5 c6c0
00000410: cf7f 3767 9e2c c6c0 a709 ea30 b49b c5c0
00000420: 4493 498c f9f3 c4c0 f53d 7b31 e536 c4c0
00000430: bf60 d880 5866 c3c0 b104 3827 a284 c2c0
00000440: 221a 5918 7e94 c1c0 723c 9b8c 1299 c0c0
00000450: e04b 35c2 d32b bfc0 8427 ebe9 d21d bdc0
00000460: adaf dab4 8b10 bbc0 fda1 dec5 e90c b9c0
00000470: 9f21 764c 3c1c b7c0 e2cd 1d34 6252 b5c0
00000480: 0e4d 5a6a 69bf b3c0 1164 6ac4 6d61 b2c0
00000490: 7525 15eb ba34 b1c0 1b92 3ecc 16c2 b0c0
000004a0: 1f3f 68d5 9b8e b0c0 771c 33f9 7086 b0c0
000004b0: 04dc 2b58 9282 b0c0 85c7 fa7f 0e7f b0c0
000004c0: 7d3a f0d9 3a5e b0c0 cb6f 0682 013b b0c0
000004d0: 23e0 fb09 dad3 afc0 3f82 c1ef 61d4 aec0
000004e0: 14d4 ae5a 1d57 adc0 b7f3 111f 9909 acc0
000004f0: 25a9 eff9 6bdd aac0 fbba 64c1 42c5 a9c0
00000500: 71a1 502c a0b5 a8c0 9c23 1539 7ca5 a7c0
00000510: e896 accc c18e a6c0 259e f7ee a86e a5c0
00000520: 3c4b 04c6 ec45 a4c0 5860 7ef7 dc18 a3c0
00000530: 5043 9535 45ef a1c0 2c5f 04cd 36d4 a0c0
00000540: 181c 6bda 72ab 9fc0 c8c8 cbb4 b208 9ec0
00000550: fe6b 43f5 30e5 9cc0 f646 f9f4 8468 9cc0
00000560: 2e5c 52ed 4bbb 9cc0 3a3c 8bc9 7e05 9ec0
00000570: 1870 59e3 4c36 a0c0 2577 958a d8e5 a0c0
00000580: d4ef 3a42 1144 a1c0 1e9c 6fc1 9462 a1c0
00000590: 07b2 4ed7 4d6b a1c0 88fe b4da e471 a1c0
000005a0: 6c3c 6a57 e677 a1c0 214e 4f54 3bad a1c0
000005b0: ec6c 7442 59ef a1c0 4d6b df91 de94 a2c0
000005c0: d9f2 1afa 6bc2 a3c0 d18f 4cdd 8ba7 a6c0
000005d0: 7131 7fa4 1c5b aac0 1025 62d2 96c7 aec0
000005e0: 4554 5af0 60f3 b1c0 824f 20a5 c3d5 b4c0
000005f0: 8e57 2d94 9eff b7c0 6f13 7f70 9f3b bbc0
00000600: 9e4d b0e4 db85 bcc0 ad3c d070 4fd0 bdc0
00000610: f7dc 481d b255 bfc0 4253 f0fc fd49 c1c0
00000620: ab2b 616c f0e6 c2c0 862e e021 7c76 c4c0
00000630: 7b18 5893 aaf0 c5c0 509f 62ad 5e4f c7c0
00000640: 23d6 591f fe8d c8c0 3c3e 4926 5ea9 c9c0
00000650: ecfe b962 aa9f cac0 5f25 d52f 4670 cbc0
00000660: dad1 bbc4 a81b ccc0 7904 a180 1d58 ccc0
00000670: fa0c ef0b 5878 ccc0 a3fa 4a04 ac85 ccc0
00000680: a2b9 aed6 948a ccc0 e6c4 293d f18b ccc0
00000690: 6e5f eb58 318d ccc0 0078 2d66 8399 ccc0
000006a0: fb82 fec7 fba9 ccc0 9895 411e 13ba ccc0
000006b0: a9bc 2522 efe2 ccc0 93ff e46f 7f19 cdc0
000006c0: 094b 1d10 d45a cdc0 c925 3cb3 fb80 cdc0
000006d0: 9f0c facc 688f cdc0 46fe 0669 a689 cdc0
000006e0: 7d8e 76ed 3773 cdc0 a358 6fa8 7d4f cdc0
000006f0: dd25 5d20 9d21 cdc0 8448 3257 6dec ccc0
00000700: 899d 85dc 66b2 ccc0 9a27 b97b 9775 ccc0
00000710: 3470 dc9f 9837 ccc0 1bbc 5e8d 8af9 cbc0
00000720: fee2 16b6 13bc cbc0 9b82 08a2 627f cbc0
00000730: 739c 8266 3343 cbc0 bb66 96bb d806 cbc0
00000740: 22c5 f09d 48c9 cac0 b617 6844 2c89 cac0
00000750: 8b4d ae00 f344 cac0 cc1b 2d6e e7fa c9c0
00000760: 0406 c2f1 45a9 c9c0 82a3 497d 534e c9c0
00000770: cd81 3737 75e8 c8c0 ec43 8c71 4676 c8c0
00000780: 4f72 6e03 733e c8c0 b63b a0e0 3707 c8c0
00000790: 3c7a bb74 88c0 c7c0 661a 94e2 6d73 c7c0
000007a0: 175a 2c53 fcdc c6c0 b582 7638 ea37 c6c0
000007b0: 67cd 0147 8384 c5c0 1ded c0f8 6bc3 c4c0
000007c0: 06cc 377a 96f5 c3c0 c24d 6011 331c c3c0
000007d0: d340 41de 9e38 c2c0 ebb4 823e 524c c1c0
000007e0: 2730 784f d058 c0c0 e1ef b8ad 30bf bec0
000007f0: 838d 7eeb 2cc4 bcc0 a605 024c 33c3 bac0
0.0 0.17389726292767152 1.940287646817459 11.519767153906198 22.343864512324668 34.40973921190143 47.71315769907424 62.248501533494775
78.00877309686048 94.98566499409708 113.17083768341604 132.55293554196368 153.11818320078376 174.8510772716138 197.7343248442674 221.7487713105075
246.87331718158885 273.08482380772233 300.35800812863806 328.6653133176458 357.9765458278753 388.2587936016148 419.47643709210644 451.59099933067444
484.56099135097105 518.3419463910377 552.8896639332061 588.1590745773365 624.1016516273705 660.6651489834003 697.7933001788772 735.4254942275941
773.4964266881954 811.9357241705274 850.6675403351531 889.6101212798723 928.6753380706888 967.7681840657189 1006.8061555483478 1046.1655492648842
1085.9596058342343 1126.1007644208362 1166.4918014520567 1207.025156979135 1247.582210534096 1288.0325053399458 1328.2329202417186 1368.0267891493845
1407.2429674790737 1445.6948403618235 1483.1791817075693 1519.4766299198868 1532.2557292836516 1536.2943946704922 1539.9342516212587 1559.064762879116
1577.4128927874144 1599.6178918644039 1627.9782755367492 1652.8754124291306 1673.9299466551045 1690.7391608726034 1702.8797083160434 1709.9237357372403
1711.433192457605 1706.9470469079058 1695.9813568211944 1678.0303032688926 1652.5675573448134 1619.0480326476543 1576.910075026673 1525.5781380860687
1464.465990885592 1392.980880938932 1310.5284424727606 1216.5367578989735 1110.6552228884584 992.6271173498392 862.1851400216634 719.0539489581005
562.9529150211893 391.5407677991335 195.8994842326264 -24.245815125997865 -268.48113928570547 -536.2428947415241 -826.8252274922462 -1139.3867387217247
-1472.9564806685776 -1826.4391790135053 -2198.6196660714845 -2588.1665446693896 -2993.6351354387602 -3413.4697901007016 -3846.0056800128677 -4289.470192726103
-4741.984089581001 -5201.562594556242 -5666.116598823277 -6133.454176990825 -6601.282620121603 -7067.211197609108 -7528.754865297251 -7983.339141231971
-8428.306373603253 -8860.92362823891 -9278.392425923268 -9677.86056329329 -10056.436255519404 -10411.204844708604 -10739.248325064696 -11037.667943954604
-11193.972589988925 -11269.683272769178 -11293.29251223863 -11296.869211408399 -11300.438730368145 -11335.736625824047 -11390.94056972399 -11441.885056114623
-11591.078992285991 -11773.003044616486 -11913.81469136025 -12011.236462945642 -12063.239025023438 -12068.09381461843 -12024.430264426324 -11931.297233639552
-11788.227893264084 -11595.306828265973 -11353.237524926573 -11063.407742743218 -10727.949593731792 -10349.790572552922 -9932.691432044257 -9481.266821863452
-9000.98511804367 -8498.144915966524 -7979.82718213179 -7453.8238818141435 -6928.5457283667465 -6412.913175501392 -5916.235541709145 -5458.383607733502
-5055.411779063999 -4705.428778314047 -4404.730149575848 -4290.089054022475 -4238.60872508565 -4230.441302484941 -4226.571657887664 -4223.056640313826
-4190.229887975959 -4155.005890276235 -4073.9258574210266 -3946.191282317304 -3755.557332480801 -3588.799065171242 -3438.7108912366843 -3298.630381725144
-3162.8128380963394 -3026.7426230054825 -2887.3785146650516 -2743.3299481754825 -2594.962448248085 -2444.4315757267577 -2295.6351744312924 -2154.1070329061677
-2026.8621613250634 -1922.1745178071305 -1849.2978106054939 -1818.1298407506524 -1838.8241474980127 -1921.3738157039174 -2075.1501720380147 -2162.9229323108616
-2210.0337084214934 -2225.2905382993767 -2229.6520332901305 -2232.946981102057 -2235.9498856734044 -2262.6158776076195 -2295.6743351347886 -2378.4347066706164
-2529.2108925267644 -2899.7731727529103 -3373.555942511354 -3939.794573847794 -4595.378667493414 -5333.764238376056 -6143.619448503376 -6971.62281030869
-7301.858958262395 -7632.310315146268 -8021.695759347865 -8851.984281578687 -9677.878307482073 -10476.969783804623 -11233.332621585801 -11934.739666297712
-12571.985331754264 -13138.735543399227 -13631.331137895082 -14048.548334735153 -14391.31850383517 -14512.230487944778 -14576.687864190422 -14603.343881008512
-14613.162801590577 -14615.884679051534 -14618.385526105496 -14643.026555713266 -14675.967040838199 -14708.149360845608 -14789.868229596252 -14898.995602249901
-15029.65674177326 -15105.966407316637 -15134.818755394137 -15123.300080179364 -15078.436934299063 -15006.98170272663 -14915.227550166595 -14808.854223523529
-14692.803604795381 -14571.183463234269 -14447.192378573214 -14323.082439271782 -14200.153994427525 -14078.770569862148 -13958.401565863029 -13837.69322471634
-13714.567319961792 -13586.34583760412 -13449.898458278525 -13301.808049810956 -13138.546440365732 -12956.652260975683 -12752.915747583751 -12524.550340207257
-12412.898542218985 -12302.436542538791 -12161.06606238812 -12006.858477127924 -11705.971288246144 -11375.829848111936 -11017.025604462904 -10630.843528857973
-10219.175604796048 -9784.398967779129 -9329.241157681134 -8856.642532671298 -8369.62742521621 -7871.190150793614 -7364.175468358563 -6851.200378538493

position_y f8 [313]
00000000: 0000 0000 0000 0000 e32e 4970 8c20 a2be
00000010: b162 cb5c 852e 11bf b3b7 1d0a f2b9 60bf
00000020: fa65 bf92 6507 7cbf 901b 73e8 77d0 8dbf
00000030: 36ed 0558 37dd 99bf 0fa0 ad2d 01f7 a3bf
00000040: 3761 c164 7290 acbf 7e3a 0258 f05c b3bf
00000050: f1b6 fb08 9a36 b9bf 3054 e6fb 58cf bfbf
00000060: 7f3e 3403 078f c3bf 50aa ccc6 f78a c7bf
00000070: b234 0180 18d3 cbbf 7bb3 ac32 6e2e d0bf
00000080: 1c7e cfa3 ba8d d2bf 06a6 81e6 e2ff d4bf
00000090: 2e4f fae3 317c d7bf 90e9 9dca d6f8 d9bf
000000a0: 1cfe 0256 fb6a dcbf b831 69b4 e4c6 debf
000000b0: fa00 2f2f 1080 e0bf 09a2 21fa de84 e1bf
000000c0: 31ed 238a 4a6b e2bf 2fb7 03ac ca2c e3bf
000000d0: 52d5 d7ba 08c3 e3bf 3994 2c43 1028 e4bf
000000e0: f6dd ecec 8456 e4bf b73b bf7a d449 e4bf
000000f0: 1c15 4e82 67fe e3bf 24fb cbb4 ce71 e3bf
00000100: 4ccb f25e eaa2 e2bf 3d69 cb98 0992 e1bf
00000110: bd9d 7a6d fe40 e0bf 3e87 a2ff 4766 ddbf
00000120: d799 9464 a6da d9bf db8b 179c 82eb d5bf
00000130: c55b bb61 63a7 d1bf a015 652f b436 cabf
00000140: 1062 65f1 57ad c0bf 18d6 a627 f347 abbf
00000150: 8ceb f586 680e 9a3f 0122 43c2 0101 bb3f
00000160: 2034 cc1a 9bf3 c73f 1617 cb50 8068 d13f
00000170: fafb d767 6655 d73f a023 22b9 f475 de3f
00000180: 5c6d 72c1 4d58 e43f 5915 ae32 f321 ee3f
00000190: f4fc 4427 17cf fd3f 9f44 1c8f 8bdc 1240
000001a0: 16dd cd81 194b 1940 e156 1301 a088 1b40
000001b0: be4a 68cd 6a6d 1d40 8d55 a420 e5d9 2240
000001c0: acdb 0748 b75e 2540 96dd 7f24 61c4 2640
000001d0: 1984 9b04 d8de 2740 4810 0472 c9bc 2840
000001e0: aa3f 8e83 f686 2940 38af 5fdc 4647 2a40
000001f0: cf9a c991 0b01 2b40 dee5 14aa c0b5 2b40
00000200: b2c6 b3e2 5366 2c40 fb83 a405 8e13 2d40
00000210: 12e0 2ce1 36be 2d40 2438 fad4 1f67 2e40
00000220: 017e e2be 230f 2f40 42a8 5f0e 22b7 2f40
00000230: dc82 33ca fb2f 3040 d7be 1c31 3b85 3040
00000240: 755a 1bbe aedb 3040 6f17 2c61 a833 3140
00000250: bb1e 25c1 688d 3140 6a84 aec0 1be9 3140
00000260: 8020 c41f d246 3240 23f2 96f0 82a6 3240
00000270: cf6f 061c 0d08 3340 a803 ef6f 376b 3340
00000280: 7ac6 c56f b1cf 3340 8563 1640 6b35 3440
00000290: cbd6 eb50 969d 3440 e35e a91f 4008 3540
000002a0: 5ae1 9acf 5875 3540 0795 8e61 c8e4 3540
000002b0: a493 14c9 6f56 3640 1ede 57ff 29ca 3640
000002c0: cf0e ae0b cd3f 3740 54ec 8ffc 2ab7 3740
000002d0: b702 dccd 1230 3840 ba47 0b3b 51aa 3840
000002e0: 7d3e 647d b125 3940 382d 45f7 fda1 3940
000002f0: a1e2 5dce 001f 3a40 4b9d 3177 849c 3a40
00000300: f955 8534 541a 3b40 75bf 7f8d 3c98 3b40
00000310: 606b 3ebd 0b16 3c40 59cb 831e 9293 3c40
00000320: a22e e695 a210 3d40 0fc5 8dfc 128d 3d40
00000330: e13d 0c8d bc08 3e40 4bd3 0e53 7c83 3e40
00000340: 1577 4f9d 33fd 3e40 feb3 636e c875 3f40
00000350: 861e 28e2 25ed 3f40 7a46 5434 9e31 4040
00000360: ac47 59b4 006c 4040 4aa2 d12c b6a5 4040
00000370: 5e1d 0138 b2de 4040 b60c 5557 7416 4140
00000380: cb01 7601 b531 4140 60f6 05a0 011c 4140
00000390: b57a b786 e7fd 4040 9dd0 9f53 37f8 4040
000003a0: 6098 2ca1 96f2 4040 86b0 6502 eccb 4040
000003b0: a97b f520 deca 4040 ffd9 c0b1 64dd 4040
000003c0: 4b0a 346c b621 4140 572a ad19 7a86 4140
000003d0: 7f3b 0dce 2beb 4140 4560 6be2 994f 4240
000003e0: d022 ba61 ceb3 4240 8ff0 abe2 dd17 4340
000003f0: f7df c548 e07b 4340 5b98 b6f9 eddf 4340
00000400: 5680 05c0 1d44 4440 a22f ccc7 82a8 4440
00000410: 77ad ebb8 2a0d 4540 26b1 7121 1c72 4540
00000420: 1653 e476 55d7 4540 dd7d 2ff8 cc3c 4640
00000430: 0e3f a2aa 71a2 4640 e63e 6f89 2d08 4740
00000440: d90d 88cb e86d 4740 f1a8 b4e8 8dd3 4740
00000450: 9baf 0dd3 0d39 4840 e5d5 90bd 639e 4840
00000460: a139 3dcf 9703 4940 217a 884e c068 4940
00000470: 9c10 da1a 01ce 4940 616d c10a 2230 4a40
00000480: 229e cba3 078b 4a40 190c 6cec c8de 4a40
00000490: 16f3 dbca 9a2b 4b40 afd4 4d48 9b4b 4b40
000004a0: 7d1a 84b1 5b68 4b40 c432 4937 f070 4b40
000004b0: e336 01b1 2975 4b40 d354 89ba ab78 4b40
000004c0: ac00 21d1 6d8c 4b40 9c93 dd92 4693 4b40
000004d0: fe87 0596 5c9e 4b40 e9dc f696 87ae 4b40
000004e0: a72b 9d63 42c5 4b40 8655 33db afd6 4b40
000004f0: 65c5 c87a e4e2 4b40 e536 90da f5e9 4b40
00000500: 81e1 3a93 00ec 4b40 16af f0e0 28e9 4b40
00000510: 274a fd88 9ae1 4b40 91b5 ae74 88d5 4b40
00000520: a11a 3312 2cc5 4b40 51d9 7172 c4b0 4b40
00000530: 5963 ddbf 9498 4b40 c476 5aa1 e27c 4b40
00000540: 137e 82a7 f45d 4b40 b658 e216 103c 4b40
00000550: 44e7 6253 7617 4b40 3084 10e6 61f0 4a40
00000560: 6237 c563 03c7 4a40 4c5b 65f2 819b 4a40
00000570: 023e a7ab 3a6e 4a40 4ff2 dd5b d25c 4a40
00000580: 4a2c ea57 d169 4a40 6dc1 cf3d 2f86 4a40
00000590: 877b 49ed fe90 4a40 6609 41f9 6499 4a40
000005a0: 73de 389f 6ca0 4a40 ab54 7e39 71c7 4a40
000005b0: 63cc e1a2 dbcf 4a40 0c5f 065c 09d2 4a40
000005c0: 0a10 5407 80d1 4a40 f795 3098 42ce 4a40
000005d0: 5b56 a591 c2c8 4a40 365b 1a36 b1c0 4a40
000005e0: e83c cf82 73b5 4a40 afcb 9464 4ea6 4a40
000005f0: 99be f83f 5f92 4a40 285a 60d4 8177 4a40
00000600: 73d7 bb83 2d6b 4a40 bebf 8e8f 5a5e 4a40
00000610: d043 68bb fe4e 4a40 d102 1cdb a22e 4a40
00000620: 69af 3aca 5211 4a40 3856 dcdf 61f9 4940
00000630: b02b 8e48 70e7 4940 9ed7 9ebf 66dc 4940
00000640: bf03 c56b 90d9 4940 3fae 22c5 9be0 4940
00000650: 20cb 03f1 96f3 4940 6c34 6edc dd14 4a40
00000660: 5694 8493 5846 4a40 dedd fb6e 585c 4a40
00000670: f9d0 a6d5 ab4d 4a40 beec 468c 29f3 4940
00000680: 3c93 786f 7ab8 4940 61d5 c30c f7a5 4940
00000690: 6a26 0e91 1295 4940 a4dd 514e 3021 4940
000006a0: f534 0060 3815 4940 b438 70bc ac34 4940
000006b0: 2877 f9ef e1a1 4940 460f f48f cc5a 4a40
000006c0: 44b0 a474 0b9e 4b40 222b 2f23 41fb 4c40
000006d0: 9caf 43ae 4275 4e40 31bf 53a4 5807 5040
000006e0: f56a 3370 cfe4 5040 d9fb e351 a8d3 5140
000006f0: c786 b99e 02d4 5240 b3fd fe1c 60e5 5340
00000700: ddd0 855a 8f06 5540 f891 bae9 9c35 5640
00000710: 89a0 953a ce6f 5740 86e6 2250 a6b1 5840
00000720: ffed 7359 f4f6 5940 69ec 3a4e ed3a 5b40
00000730: f21e d15c 4f78 5c40 d4fe 05be 8da9 5d40
00000740: 5d7f e53e 03c9 5e40 38da 2cb6 29d1 5f40
00000750: 6780 0339 6a5e 6040 3575 5c72 b5c3 6040
00000760: 2842 bb61 8f16 6140 c6d6 ceef 8355 6140
00000770: 7d16 fba4 197f 6140 78bf 83f4 2b7b 6140
00000780: d58a a7cf 539d 6040 2e07 1ad2 6616 5e40
00000790: e4a6 9bbe a6eb 5740 e718 c5fd 4ad9 5040
000007a0: 9852 828a 7d2c 2a40 082f 46aa ae78 46c0
000007b0: 081a 6ef0 bb95 5ac0 f875 82f8 da57 65c0
000007c0: 7a80 016d 1fb9 6dc0 5880 d6ad 2d31 73c0
000007d0: d3a9 866d 98a3 77c0 6d31 c3aa b62d 7cc0
000007e0: 7b5c 52ab cd64 80c0 c5ef c826 cbb8 82c0
000007f0: 4305 1427 2710 85c0 1ab6 2afa 6668 87c0
0.0 -5.402309573658778e-07 -6.554306964846425e-05 -0.0020417907079978924 -0.006842991609994348 -0.014557778149890926 -0.0252579352831905 -0.03899387056918623
-0.05578954200672331 -0.07563688419961953 -0.09848940581624867 -0.12425762319465217 -0.15280234962891723 -0.1839284630489879 -0.2173796296141624 -0.25283389042561283
-0.2899004554473963 -0.3281180621184777 -0.3669552542062203 -0.4058129290275696 -0.444029649730483 -0.4808894883942929 -0.515632717280851 -0.5474696050051203
-0.5755970666936375 -0.599217735257957 -0.6175578736571572 -0.6298905670161111 -0.6355614306875725 -0.6340124509241524 -0.624805216314289 -0.607642510527374
-0.5823871473752233 -0.549076841761497 -0.5079338205586549 -0.4593677517351472 -0.4039703352194954 -0.3424994015060158 -0.27584156555297695 -0.20479442896082123
-0.13029002463260086 -0.05328330859212488 0.02544558833822523 0.1054841136239091 0.18712176140289305 0.27200324907276874 0.3645874036882898 0.4759494598334246
0.6357792642842628 0.9416442861408242 1.863059190174508 4.71537612543139 6.323339489164274 6.883422867589361 7.356852731218792 9.42557622915299
10.684992075881233 11.383553639038649 11.935241836532485 12.368724406238599 12.763599501718847 13.139212500267249 13.502041393146468 13.854985537577644
14.199858745999652 14.53819291718718 14.871512448051394 15.201414733452175 15.52956959261701 15.857681702782546 16.18743575818631 16.520434445875107
16.85813511054808 17.201788018478904 17.552379676401625 17.910579722029446 18.276643739111478 18.65043548283769 19.03145003468654 19.418814655163857
19.811301217827783 20.20866776033974 20.61557489164151 21.032228449678666 21.458386397659844 21.893682572660534 22.33764321091043 22.78970332999426
23.249222497934905 23.71549967302083 24.187786928380515 24.665301981214476 25.147239529584557 25.632781462086513 26.12110605041619 26.611396264660737
27.102847368767446 27.594673961342284 28.086116626490707 28.576448352028226 29.064980858513657 29.551070961581953 30.03412705944891 30.513615790481065
30.989068824673343 31.46008958753736 31.92635930518602 32.38764051547055 32.843771499246344 33.2946220420459 33.739813805145545 34.17542544987502
34.38833635580121 34.21879959384091 33.98362812003089 33.93918843558752 33.89522185018063 33.59313993420896 33.58490383135297 33.72963544766025
34.26337959805513 35.05060120539991 35.83727431913484 36.621883680753434 37.40473577107116 38.18645890613072 38.96778211271151 39.74944993415621
40.53215790051097 41.31649110288642 42.10286628253646 42.89148347903601 43.6822956671587 44.47500517195633 45.26909382745917 46.06388967449111
46.8586668409659 47.652768219197135 48.44573438804874 49.2374188382344 50.02807035912998 50.81836873687667 51.609408718564026 52.37603887982073
53.086170648977955 53.74050669933076 54.34066138972973 54.59067634392101 54.8152982611691 54.88233080934654 54.915334821312875 54.94274074273712
55.097101346125186 55.15059123820467 55.23720050115661 55.36351286939482 55.54108853506414 55.67724170691058 55.77259764483714 55.827815361420825
55.84376755118411 55.82156001808305 55.76252853744182 55.66822680025792 55.540407443001875 55.38099508818653 55.19203947362866 54.97566620747742
54.73402875777915 54.469241009255185 54.18329851464526 53.87798763090575 53.554790946290055 53.214903163424054 52.86116548219799 52.7251696428035
52.82670115408162 53.04831669468226 53.13277975166334 53.19839397121068 53.2533148791962 53.55814284008496 53.62389026665985 53.64091062842462
53.63671962360975 53.61140730259279 53.56843777249443 53.505408060902866 53.41758761519469 53.299267361311074 53.14353179593781 52.93364958481499
52.83732649490312 52.737138695432336 52.61714880553302 52.3643449675343 52.13533904901016 51.94829939135201 51.80811411802222 51.72188563590974
51.69971987838607 51.75475372498885 51.903043867924 52.16302066212742 52.549578132377675 52.72144877718141 52.60680647511794 51.899705443030584
51.44123643290956 51.296601863500435 51.16462910834237 50.25928668019631 50.165782928563125 50.41152148704114 51.26470756226473 52.70936774651504
55.23472459832604 57.9629253368678 60.91609743409137 64.1147852723923 67.57516102811117 71.30714843048135 75.31265991323299 79.5839912881991
84.10249960964161 88.83770220966096 93.74696220981618 98.77577594192744 103.85866390534646 108.92073398355718 113.87984390661202 118.64927626214495
123.14082310115687 127.26817087535971 130.9504666393652 134.11589925821468 136.70500265668784 138.6723555602859 139.971880426794 139.84911561710373
132.91648085330112 120.35002567807962 95.68205228042967 67.39520210502415 13.086895302208447 -44.94283035685481 -106.33959589721792 -170.74547982674244
-237.78508615773518 -307.0736521128615 -378.22471382716066 -450.85709644553464 -524.6004244265054 -599.0991950700924 -674.0191175045114 -749.0502818428824

position_z f8 [313]
00000000: 0000 0000 0000 0000 057b 4700 d98a ef3f
00000010: 45f5 07f0 7ce3 2540 a9cf f038 5bc2 4f40
00000020: 9028 49a6 6530 5e40 3298 3b06 4cd6 6640
00000030: 2230 c6b8 222c 6f40 d459 c2b7 7b0d 7440
00000040: 6e4a 7679 05d2 7840 bd98 c0c6 50e4 7d40
00000050: fe0e 2cb5 8fa2 8140 9a72 ca0c 877a 8440
00000060: c67b 164a 517a 8740 4c1a 0031 2ea2 8a40
00000070: 88b4 6633 5af2 8d40 5bfe ec1f 87b5 9040
00000080: 8ad1 f9ca 3f86 9240 0410 78d0 6f6b 9440
00000090: a261 8eec 2d65 9640 e37e a6c1 8e73 9840
000000a0: a6a6 e961 a396 9a40 a5e9 ad90 79ce 9c40
000000b0: fdf9 4ba8 1c1b 9f40 69e8 d3cd 4abe a040
000000c0: 4f3a af7f 75f9 a140 809b b72b 113f a340
000000d0: 69b2 342b 2b8f a440 3d80 c417 d9e9 a540
000000e0: b85b 9e8f 314f a740 a478 a453 4cbf a840
000000f0: f4ff 7056 423a aa40 1989 57ca 2dc0 ab40
00000100: 9c28 262e 2a51 ad40 419a 6a58 54ed ae40
00000110: d40d 7c40 654a b040 b394 3024 d623 b140
00000120: a4a5 865e 0d03 b240 a420 c32e 1ce8 b240
00000130: 36a2 dab4 13d3 b340 9b10 a9cf f1c3 b440
00000140: 8809 37be beba b540 ae14 2152 8bb7 b640
00000150: 2cff 0a06 69ba b740 fd77 eff6 69c3 b840
00000160: 0343 69da a0d2 b940 1c3a 77f1 20e8 ba40
00000170: fca9 28f7 fd03 bc40 45f2 800a 4c26 bd40
00000180: eae1 7f92 1f4f be40 427e e416 8d7e bf40
00000190: c515 920e 545a c040 be9c 5008 c0f8 c040
000001a0: 3a10 e8d5 d132 c140 89b4 0ca1 7245 c140
000001b0: e872 551b 5b56 c140 3545 7f6f 55b1 c140
000001c0: 5dc1 d175 660d c240 406b 487c ff84 c240
000001d0: 4c63 6e19 452f c340 b3d5 b3d1 14dd c340
000001e0: 78b1 46a3 718e c440 8038 f2e3 5c43 c540
000001f0: a599 b216 d6fb c540 995c df67 dbb7 c640
00000200: b296 6e1b 6977 c740 cc6a 0595 783a c840
00000210: d69f a6ec ff00 c940 f068 1885 f1ca c940
00000220: 09cc eb9c 3b98 ca40 9f08 00db c768 cb40
00000230: 240d a5d7 7a3c cc40 7030 cda3 3313 cd40
00000240: aa36 e44f cbec cd40 5099 d35b 14c9 ce40
00000250: d8e8 f02a daa7 cf40 a4e9 9347 7144 d040
00000260: 93fc 2edf ffb5 d040 7977 642f 8428 d140
00000270: 197b 7b74 e79b d140 b997 39be 1010 d240
00000280: bf68 c9d8 e484 d240 ebed bb19 a7f9 d240
00000290: 9039 d246 746b d340 35f3 b33b bed9 d340
000002a0: 0f87 1018 1d44 d440 0eac b6f6 29aa d440
000002b0: e78b fd69 7f0b d540 389b 29ed b967 d540
000002c0: 8a68 514d 78be d540 aa74 910c 5c0f d640
000002d0: 5ccc 81c2 095a d640 614d e27c 299e d640
000002e0: 352e 5823 67db d640 b9ce e4e0 7211 d740
000002f0: b5cb 7695 0140 d740 4736 9e51 cd66 d740
00000300: e8ee 06de 9585 d740 c1b7 eb4f 219c d740
00000310: 8cf0 3cab 3caa d740 df92 ba92 bcaf d740
00000320: 9796 c505 7eac d740 a527 352b 67a0 d740
00000330: d8ce 0b28 688b d740 5977 8300 7c6d d740
00000340: c53a 9081 a946 d740 9276 b330 0417 d740
00000350: 9208 c43f adde d640 8b1e 2d82 d49d d640
00000360: fbe0 0f61 b954 d640 cc7b a7cb ab03 d640
00000370: b374 4021 0dab d540 5298 eb11 514b d540
00000380: 3e26 afbf 8b11 d540 470a bb36 2ef3 d440
00000390: 83da c94a 59e9 d440 6d05 afea d7e7 d440
000003a0: 7fe6 253a 56e6 d440 edd6 3118 34d7 d440
000003b0: 32e7 cf8f a0be d440 b6f0 f9a4 dda6 d440
000003c0: 6105 0a2b 065a d440 76ca c615 19e7 d340
000003d0: 68b9 dcac dd6f d340 6577 7221 34f5 d240
000003e0: 1957 09a1 1278 d240 0a5c 6153 85f9 d140
000003f0: 899b e906 ae7a d140 9a22 d272 c3fc d040
00000400: be9a 54f0 0f81 d040 aa52 cd87 ef08 d040
00000410: 6b35 e555 9a2b cf40 eb8b baea 3d52 ce40
00000420: bee2 bea2 c288 cd40 ea9a dbd4 21d2 cc40
00000430: ac0e 3cd2 4631 cc40 e799 671d fea8 cb40
00000440: 2aed b8ca e23b cb40 a4a7 eab4 4aec ca40
00000450: 6955 4667 32bc ca40 7f37 c9be 29ad ca40
00000460: cefc 8e40 42c0 ca40 e905 e4f7 fff5 ca40
00000470: c210 2b5c 4d4e cb40 411b aaf8 6bc0 cb40
00000480: aa40 d64e dc3e cc40 86e1 54bb dcc4 cc40
00000490: 95c0 0402 1c4e cd40 7c80 04b5 c788 cd40
000004a0: 176d b977 63a4 cd40 705f 1bdc d7a8 cd40
000004b0: 723b 6f02 f6aa cd40 a4b8 5d82 e3ac cd40
000004c0: 3b1f cd4a 14bf cd40 a25c dff6 fad2 cd40
000004d0: ecdc edd2 5502 ce40 0b36 2bd8 7c51 ce40
000004e0: 8e36 b7c7 52d2 ce40 e1f1 a58d 004d cf40
000004f0: 92b6 e5be 61c1 cf40 d9f4 d0a6 1918 d040
00000500: afad ed69 7e4d d040 1ce6 4f8a f781 d040
00000510: 499f 17f6 ddb6 d040 e417 fece b4ed d040
00000520: 4728 bf95 1128 d140 de8e e8a2 8367 d140
00000530: 7d7a fcd5 7bad d140 008c 5a6b 35fb d140
00000540: 9ef2 c316 a051 d240 e8ed 8309 4cb1 d240
00000550: 93c5 908c 581a d340 cd1b 14f1 658c d340
00000560: 7cac aeb7 8b06 d440 9397 217e 5187 d440
00000570: 7abf d347 ac0c d540 2bba f8cf 6245 d540
00000580: 6934 7110 9560 d540 a54d 1365 ff68 d540
00000590: da29 84f6 5e6b d540 a3b4 bc95 276d d540
000005a0: 3b73 e8fa c56e d540 b5dc f5dd de7c d540
000005b0: 16c0 0f08 b38d d540 c141 2b9f 18b5 d540
000005c0: 5306 7674 dcf4 d540 d4ff ded7 dc73 d640
000005d0: 1cab e4a8 9bef d640 c4d7 1de6 805f d740
000005e0: b3a5 4e3c f8be d740 8ad6 e521 4809 d840
000005f0: 29e3 0119 4f3a d840 6502 2a70 a964 d840
00000600: 1695 c1ac bc76 d840 dc9b 4188 d088 d840
00000610: 397b 082a 099d d840 82b8 1098 56c4 d840
00000620: d4ff ced5 36df d840 3f1b 9303 acdc d840
00000630: 2f0d 0f32 e2be d840 f834 70c4 6889 d840
00000640: 1790 c400 f93f d840 a1e2 62fb 51e6 d740
00000650: 0f74 aa75 1a80 d740 dc24 af8f c810 d740
00000660: a14e 77e8 8e9b d640 81a9 bde8 e669 d640
00000670: 2965 fa01 ff4c d640 4208 f6ad 7640 d640
00000680: 51fd 3e9c c13b d640 2e0e 4a57 713a d640
00000690: 5cea af85 3b39 d640 e7e2 2fe2 1f2d d640
000006a0: 5725 6388 601c d640 da24 0c89 550b d640
000006b0: f0f6 ea94 7ddc d540 f51a 858a 1393 d540
000006c0: 2062 6512 7f1c d540 ca7a 3fbd 96a9 d440
000006d0: 63d1 a1eb a53b d440 58c1 4852 98d3 d340
000006e0: e932 4453 ff71 d340 4743 083f 1917 d340
000006f0: ce90 4686 d9c2 d240 ba40 50fd f174 d240
00000700: ab12 84f7 dc2c d240 4627 4b03 e8e9 d140
00000710: e80b e118 3fab d140 a189 2d35 f86f d140
00000720: f99f 25d6 1e37 d140 c028 0c30 bfff d040
00000730: f2d1 fc00 f1c8 d040 754c e1ba e191 d040
00000740: 68e9 34b0 dd59 d040 d01e 5ae8 5720 d040
00000750: b0da 467d e0c9 cf40 46cc deea ee4e cf40
00000760: a518 175c e2cf ce40 9aa3 d04c 284d ce40
00000770: 5eb4 cd5d 8dc7 cd40 b066 f226 3140 cd40
00000780: 258a 54e0 8102 cd40 f361 f823 7fc5 cc40
00000790: cb12 d855 c07a cc40 25ab abb4 6a2e cc40
000007a0: 5b8c 2efb d6a6 cb40 be20 8223 5f23 cb40
000007b0: 7c55 61c4 8fa5 ca40 6024 f2b3 cd2e ca40
000007c0: 12c5 f191 42c0 c940 07f7 d9b1 cc5a c940
000007d0: 8130 79e3 f5fe c840 431e 2bf1 efac c840
000007e0: f370 9a84 9664 c840 07f5 b331 7625 c840
000007f0: f326 b0f7 dbee c740 39a8 dc99 e6bf c740
0.0 0.9856991773084195 10.944312573405691 63.51840888746603 120.7562041963995 182.69678031577638 249.37923849781606 320.8427045432884
397.12633653838463 478.269720794993 564.3201697771144 655.3159423652862 751.2896920925639 852.2725543983483 958.2940433524936 1069.3819577245947
1185.5622977289336 1306.8591936836028 1433.2948477027026 1564.8894105925508 1701.6595531948055 1843.618715970407 1990.777985751279 2143.146101591225
2300.7294897803 2463.5335366608924 2631.5843140094553 2804.9240094572583 2983.5967988478624 3167.6490756413714 3357.1295657455867 3552.0894343714576
3752.5823833393642 3958.6647370637224 4170.395515206696 4387.836489712051 4611.0522236017605 4840.110088534802 5075.0769783636115 5315.944574896387
5562.7450899503965 5815.544221942471 6074.410248458193 6339.413924185556 6610.628332690106 6888.128684474646 7171.992052594662 7462.297035273693
7759.123329155593 8062.551130562615 8372.656694660787 8689.500253750357 8805.639340408252 8842.895539844658 8876.711771660906 9058.667465122979
9242.800470561424 9481.995980312699 9822.539838598714 10170.162649611802 10524.887795292525 10886.725706365192 11255.672567677519 11631.714107437338
12014.821149657804 12404.942047764918 12801.999409511609 13205.886874247779 13616.465726351382 14033.561370853624 14456.959705954949 14886.403436325694
15321.588375593845 15762.159052324161 16207.704435456937 16657.76999376122 17111.997997042326 17570.06539260547 18031.616484518254 18496.26161041085
18963.575731613437 19430.61094568476 19885.81682258245 20326.97239397765 20752.45459378423 21160.655683200857 21549.9908441416 21918.90510025175
22265.879719116296 22589.43826710122 22888.152496766634 23160.64824731404 23405.611532254337 23621.79497642696 23808.02474756139 23963.20810656834
24086.341676457698 24176.520502976844 24232.94795154086 24254.946455615453 24241.96910228449 24193.612012184825 24109.627444221493 23989.937531343985
23834.648532922165 23644.065472474853 23418.707016952867 23159.320445327594 22866.896549195964 22542.684305067916 22188.20515452763 21805.26671876788
21574.18357447371 21452.722090492283 21413.3951897272 21407.373698954867 21401.347299075216 21340.813976726426 21242.508777595307 21147.46319435603
20840.096376900914 20380.391954133716 19903.463675671635 19412.81454145107 18912.29107888704 18406.08321413029 17898.71917190732 17395.05388310794
16900.249043608776 16419.74266369889 15959.205746317943 15524.483725851363 15121.520591603006 14756.264308405534 14434.553290850796 14161.985272359989
13943.771811595729 13784.5836461371 13688.39377669497 13658.326134826753 13696.51759517044 13803.999752524267 13980.60437525099 14208.843526137645
14461.721155911993 14729.724466905707 15004.218811601671 15121.560211718308 15176.777091196314 15185.68640463028 15189.921949295069 15193.7774159576
15230.158532753228 15269.960658951026 15364.670499546883 15522.97534694804 15780.64671983875 16026.004322760682 16258.763638223787 16480.400806655034
16693.975215358365 16903.867816900936 17115.46814528041 17334.825133822756 17568.27476481374 17822.05681814148 18101.93493568384 18412.834677349776
18758.501389491015 19141.188080770808 19561.383579438156 20017.59283926692 20506.183086079065 21021.273323438665 21554.69188398074 21781.543943578534
21890.32912855261 21923.990544153046 21933.483796158667 21940.618514229205 21947.09343920949 22003.482297387633 22070.797367036423 22228.38471490308
22483.444608217407 22991.450675725777 23486.432183425044 23934.014045201024 24315.878680860344 24613.127068957816 24809.235901328884 24978.64747095331
25050.948044200508 25123.258316423613 25204.14319049867 25361.353031330284 25468.856799840767 25458.687718178375 25339.53430534637 25125.636989642837
24831.890671864236 24473.280968400304 24064.413431752528 23619.133769784923 23150.23293860129 22951.607955375224 22835.984495734014 22785.854367740692
22767.025161502246 22761.770952714774 22756.930034617297 22708.498180362305 22641.508324419465 22573.33648971175 22385.96221422305 22092.30532958634
21617.985497804475 21158.355300779258 20718.592506842117 20302.380022229016 19911.989457177846 19548.39447218485 19211.398820535098 18899.7810860283
18611.452607172232 18343.62520102344 18092.98589349902 17855.878245720294 17628.48182049391 17406.987307586474 17187.76568527701 16967.52703125445
16743.463879802643 16513.37355664262 16275.75382314375 16029.866542672866 15775.768435370477 15514.314844207653 15247.10442515666 14976.384001064434
14853.014658515409 14730.99328522475 14581.502619752098 14428.833638628546 14157.679540461095 13894.743271127689 13643.12318054842 13405.60705401207
13184.520078870035 12981.599177594775 12797.921004437145 12633.87454737642 12489.17592173114 12362.92339181389 12253.718496340769 12159.801570493832
