yeonu/results_6dof/SCUD-B_45.0deg_20251219_185235.npz (npz, 445208 bytes, 22 tensors)

time f8 [3672]
00000000: 0000 0000 0000 0000 7b14 ae47 e17a 843f
00000010: 295c 8fc2 f528 bc3f e27a 14ae 47e1 ca3f
00000020: d8a3 703d 0ad7 d33f 3e0a d7a3 703d da3f
00000030: 52b8 1e85 eb51 e03f 85eb 51b8 1e85 e33f
00000040: b81e 85eb 51b8 e63f eb51 b81e 85eb e93f
00000050: 1e85 eb51 b81e ed3f 295c 8fc2 f528 f03f
00000060: c3f5 285c 8fc2 f13f 5d8f c2f5 285c f33f
00000070: f728 5c8f c2f5 f43f 91c2 f528 5c8f f63f
00000080: 2b5c 8fc2 f528 f83f c5f5 285c 8fc2 f93f
00000090: 5f8f c2f5 285c fb3f f928 5c8f c2f5 fc3f
000000a0: 93c2 f528 5c8f fe3f 16ae 47e1 7a14 0040
000000b0: e37a 14ae 47e1 0040 b047 e17a 14ae 0140
000000c0: 7d14 ae47 e17a 0240 4ae1 7a14 ae47 0340
000000d0: 17ae 47e1 7a14 0440 e47a 14ae 47e1 0440
000000e0: b147 e17a 14ae 0540 7e14 ae47 e17a 0640
000000f0: 4be1 7a14 ae47 0740 18ae 47e1 7a14 0840
00000100: e57a 14ae 47e1 0840 b247 e17a 14ae 0940
00000110: 7f14 ae47 e17a 0a40 4ce1 7a14 ae47 0b40
00000120: 19ae 47e1 7a14 0c40 e67a 14ae 47e1 0c40
00000130: b347 e17a 14ae 0d40 8014 ae47 e17a 0e40
00000140: 4de1 7a14 ae47 0f40 0dd7 a370 3d0a 1040
00000150: 733d 0ad7 a370 1040 d9a3 703d 0ad7 1040
00000160: 3f0a d7a3 703d 1140 a570 3d0a d7a3 1140
00000170: 0bd7 a370 3d0a 1240 713d 0ad7 a370 1240
00000180: d7a3 703d 0ad7 1240 3d0a d7a3 703d 1340
00000190: a370 3d0a d7a3 1340 09d7 a370 3d0a 1440
000001a0: 6f3d 0ad7 a370 1440 d5a3 703d 0ad7 1440
000001b0: 3b0a d7a3 703d 1540 a170 3d0a d7a3 1540
000001c0: 07d7 a370 3d0a 1640 6d3d 0ad7 a370 1640
000001d0: d3a3 703d 0ad7 1640 390a d7a3 703d 1740
000001e0: 9f70 3d0a d7a3 1740 05d7 a370 3d0a 1840
000001f0: 6b3d 0ad7 a370 1840 d1a3 703d 0ad7 1840
00000200: 370a d7a3 703d 1940 9d70 3d0a d7a3 1940
00000210: 03d7 a370 3d0a 1a40 693d 0ad7 a370 1a40
00000220: cfa3 703d 0ad7 1a40 350a d7a3 703d 1b40
00000230: 9b70 3d0a d7a3 1b40 01d7 a370 3d0a 1c40
00000240: 673d 0ad7 a370 1c40 cda3 703d 0ad7 1c40
00000250: 330a d7a3 703d 1d40 9970 3d0a d7a3 1d40
00000260: ffd6 a370 3d0a 1e40 653d 0ad7 a370 1e40
00000270: cba3 703d 0ad7 1e40 310a d7a3 703d 1f40
00000280: 9770 3d0a d7a3 1f40 7feb 51b8 1e05 2040
00000290: b21e 85eb 5138 2040 e551 b81e 856b 2040
000002a0: 1885 eb51 b89e 2040 4bb8 1e85 ebd1 2040
000002b0: 7eeb 51b8 1e05 2140 b11e 85eb 5138 2140
000002c0: e451 b81e 856b 2140 1785 eb51 b89e 2140
000002d0: 4ab8 1e85 ebd1 2140 7deb 51b8 1e05 2240
000002e0: b01e 85eb 5138 2240 e351 b81e 856b 2240
000002f0: 1685 eb51 b89e 2240 49b8 1e85 ebd1 2240
00000300: 7ceb 51b8 1e05 2340 af1e 85eb 5138 2340
00000310: e251 b81e 856b 2340 1585 eb51 b89e 2340
00000320: 48b8 1e85 ebd1 2340 7beb 51b8 1e05 2440
00000330: ae1e 85eb 5138 2440 e151 b81e 856b 2440
00000340: 1485 eb51 b89e 2440 47b8 1e85 ebd1 2440
00000350: 7aeb 51b8 1e05 2540 ad1e 85eb 5138 2540
00000360: e051 b81e 856b 2540 1385 eb51 b89e 2540
00000370: 46b8 1e85 ebd1 2540 79eb 51b8 1e05 2640
00000380: ac1e 85eb 5138 2640 df51 b81e 856b 2640
00000390: 1285 eb51 b89e 2640 45b8 1e85 ebd1 2640
000003a0: 78eb 51b8 1e05 2740 ab1e 85eb 5138 2740
000003b0: de51 b81e 856b 2740 1185 eb51 b89e 2740
000003c0: 44b8 1e85 ebd1 2740 77eb 51b8 1e05 2840
000003d0: aa1e 85eb 5138 2840 dd51 b81e 856b 2840
000003e0: 1085 eb51 b89e 2840 43b8 1e85 ebd1 2840
000003f0: 76eb 51b8 1e05 2940 a91e 85eb 5138 2940
00000400: dc51 b81e 856b 2940 0f85 eb51 b89e 2940
00000410: 42b8 1e85 ebd1 2940 75eb 51b8 1e05 2a40
00000420: a81e 85eb 5138 2a40 db51 b81e 856b 2a40
00000430: 0e85 eb51 b89e 2a40 41b8 1e85 ebd1 2a40
00000440: 74eb 51b8 1e05 2b40 a71e 85eb 5138 2b40
00000450: da51 b81e 856b 2b40 0d85 eb51 b89e 2b40
00000460: 40b8 1e85 ebd1 2b40 73eb 51b8 1e05 2c40
00000470: a61e 85eb 5138 2c40 d951 b81e 856b 2c40
00000480: 0c85 eb51 b89e 2c40 3fb8 1e85 ebd1 2c40
00000490: 72eb 51b8 1e05 2d40 a51e 85eb 5138 2d40
000004a0: d851 b81e 856b 2d40 0b85 eb51 b89e 2d40
000004b0: 3eb8 1e85 ebd1 2d40 71eb 51b8 1e05 2e40
000004c0: a41e 85eb 5138 2e40 d751 b81e 856b 2e40
000004d0: 0a85 eb51 b89e 2e40 3db8 1e85 ebd1 2e40
000004e0: 70eb 51b8 1e05 2f40 a31e 85eb 5138 2f40
000004f0: d651 b81e 856b 2f40 0985 eb51 b89e 2f40
00000500: 3cb8 1e85 ebd1 2f40 b8f5 285c 8f02 3040
00000510: 528f c2f5 281c 3040 ec28 5c8f c235 3040
00000520: 86c2 f528 5c4f 3040 205c 8fc2 f568 3040
00000530: baf5 285c 8f82 3040 548f c2f5 289c 3040
00000540: ee28 5c8f c2b5 3040 88c2 f528 5ccf 3040
00000550: 225c 8fc2 f5e8 3040 bcf5 285c 8f02 3140
00000560: 568f c2f5 281c 3140 f028 5c8f c235 3140
00000570: 8ac2 f528 5c4f 3140 245c 8fc2 f568 3140
00000580: bef5 285c 8f82 3140 588f c2f5 289c 3140
00000590: f228 5c8f c2b5 3140 8cc2 f528 5ccf 3140
000005a0: 265c 8fc2 f5e8 3140 c0f5 285c 8f02 3240
000005b0: 5a8f c2f5 281c 3240 f428 5c8f c235 3240
000005c0: 8ec2 f528 5c4f 3240 285c 8fc2 f568 3240
000005d0: c2f5 285c 8f82 3240 5c8f c2f5 289c 3240
000005e0: f628 5c8f c2b5 3240 90c2 f528 5ccf 3240
000005f0: 2a5c 8fc2 f5e8 3240 c4f5 285c 8f02 3340
00000600: 5e8f c2f5 281c 3340 f828 5c8f c235 3340
00000610: 92c2 f528 5c4f 3340 2c5c 8fc2 f568 3340
00000620: c6f5 285c 8f82 3340 608f c2f5 289c 3340
00000630: fa28 5c8f c2b5 3340 94c2 f528 5ccf 3340
00000640: 2e5c 8fc2 f5e8 3340 c8f5 285c 8f02 3440
00000650: 628f c2f5 281c 3440 fc28 5c8f c235 3440
00000660: 96c2 f528 5c4f 3440 305c 8fc2 f568 3440
00000670: caf5 285c 8f82 3440 648f c2f5 289c 3440
00000680: fe28 5c8f c2b5 3440 98c2 f528 5ccf 3440
00000690: 325c 8fc2 f5e8 3440 ccf5 285c 8f02 3540
000006a0: 668f c2f5 281c 3540 0029 5c8f c235 3540
000006b0: 9ac2 f528 5c4f 3540 345c 8fc2 f568 3540
000006c0: cef5 285c 8f82 3540 688f c2f5 289c 3540
000006d0: 0229 5c8f c2b5 3540 9cc2 f528 5ccf 3540
000006e0: 365c 8fc2 f5e8 3540 d0f5 285c 8f02 3640
000006f0: 6a8f c2f5 281c 3640 0429 5c8f c235 3640
00000700: 9ec2 f528 5c4f 3640 385c 8fc2 f568 3640
00000710: d2f5 285c 8f82 3640 6c8f c2f5 289c 3640
00000720: 0629 5c8f c2b5 3640 a0c2 f528 5ccf 3640
00000730: 3a5c 8fc2 f5e8 3640 d4f5 285c 8f02 3740
00000740: 6e8f c2f5 281c 3740 0829 5c8f c235 3740
00000750: a2c2 f528 5c4f 3740 3c5c 8fc2 f568 3740
00000760: d6f5 285c 8f82 3740 708f c2f5 289c 3740
00000770: 0a29 5c8f c2b5 3740 a4c2 f528 5ccf 3740
00000780: 3e5c 8fc2 f5e8 3740 d8f5 285c 8f02 3840
00000790: 728f c2f5 281c 3840 0c29 5c8f c235 3840
000007a0: a6c2 f528 5c4f 3840 405c 8fc2 f568 3840
000007b0: daf5 285c 8f82 3840 748f c2f5 289c 3840
000007c0: 0e29 5c8f c2b5 3840 a8c2 f528 5ccf 3840
000007d0: 425c 8fc2 f5e8 3840 dcf5 285c 8f02 3940
000007e0: 768f c2f5 281c 3940 1029 5c8f c235 3940
000007f0: aac2 f528 5c4f 3940 445c 8fc2 f568 3940
0.0 0.01 0.11 0.21000000000000002 0.31000000000000005 0.41000000000000003 0.51 0.61
0.71 0.8099999999999999 0.9099999999999999 1.01 1.11 1.2100000000000002 1.3100000000000003 1.4100000000000004
1.5100000000000005 1.6100000000000005 1.7100000000000006 1.8100000000000007 1.9100000000000008 2.0100000000000007 2.1100000000000008 2.210000000000001
2.310000000000001 2.410000000000001 2.510000000000001 2.610000000000001 2.7100000000000013 2.8100000000000014 2.9100000000000015 3.0100000000000016
3.1100000000000017 3.2100000000000017 3.310000000000002 3.410000000000002 3.510000000000002 3.610000000000002 3.710000000000002 3.8100000000000023
3.9100000000000024 4.0100000000000025 4.110000000000002 4.210000000000002 4.310000000000001 4.410000000000001 4.510000000000001 4.61
4.71 4.81 4.909999999999999 5.009999999999999 5.1099999999999985 5.209999999999998 5.309999999999998 5.4099999999999975
5.509999999999997 5.609999999999997 5.709999999999996 5.809999999999996 5.909999999999996 6.009999999999995 6.109999999999995 6.209999999999995
6.309999999999994 6.409999999999994 6.509999999999994 6.609999999999993 6.709999999999993 6.8099999999999925 6.909999999999992 7.009999999999992
7.109999999999991 7.209999999999991 7.309999999999991 7.40999999999999 7.50999999999999 7.60999999999999 7.709999999999989 7.809999999999989
7.909999999999989 8.00999999999999 8.109999999999989 8.209999999999988 8.309999999999988 8.409999999999988 8.509999999999987 8.609999999999987
8.709999999999987 8.809999999999986 8.909999999999986 9.009999999999986 9.109999999999985 9.209999999999985 9.309999999999985 9.409999999999984
9.509999999999984 9.609999999999983 9.709999999999983 9.809999999999983 9.909999999999982 10.009999999999982 10.109999999999982 10.209999999999981
10.309999999999981 10.40999999999998 10.50999999999998 10.60999999999998 10.70999999999998 10.80999999999998 10.909999999999979 11.009999999999978
11.109999999999978 11.209999999999978 11.309999999999977 11.409999999999977 11.509999999999977 11.609999999999976 11.709999999999976 11.809999999999976
11.909999999999975 12.009999999999975 12.109999999999975 12.209999999999974 12.309999999999974 12.409999999999973 12.509999999999973 12.609999999999973
12.709999999999972 12.809999999999972 12.909999999999972 13.009999999999971 13.109999999999971 13.20999999999997 13.30999999999997 13.40999999999997
13.50999999999997 13.60999999999997 13.709999999999969 13.809999999999969 13.909999999999968 14.009999999999968 14.109999999999967 14.209999999999967
14.309999999999967 14.409999999999966 14.509999999999966 14.609999999999966 14.709999999999965 14.809999999999965 14.909999999999965 15.009999999999964
15.109999999999964 15.209999999999964 15.309999999999963 15.409999999999963 15.509999999999962 15.609999999999962 15.709999999999962 15.809999999999961
15.909999999999961 16.009999999999962 16.109999999999964 16.209999999999965 16.309999999999967 16.409999999999968 16.50999999999997 16.60999999999997
16.709999999999972 16.809999999999974 16.909999999999975 17.009999999999977 17.109999999999978 17.20999999999998 17.30999999999998 17.409999999999982
17.509999999999984 17.609999999999985 17.709999999999987 17.809999999999988 17.90999999999999 18.00999999999999 18.109999999999992 18.209999999999994
18.309999999999995 18.409999999999997 18.509999999999998 18.61 18.71 18.810000000000002 18.910000000000004 19.010000000000005
19.110000000000007 19.210000000000008 19.31000000000001 19.41000000000001 19.510000000000012 19.610000000000014 19.710000000000015 19.810000000000016
19.910000000000018 20.01000000000002 20.11000000000002 20.210000000000022 20.310000000000024 20.410000000000025 20.510000000000026 20.610000000000028
20.71000000000003 20.81000000000003 20.910000000000032 21.010000000000034 21.110000000000035 21.210000000000036 21.310000000000038 21.41000000000004
21.51000000000004 21.610000000000042 21.710000000000043 21.810000000000045 21.910000000000046 22.010000000000048 22.11000000000005 22.21000000000005
22.310000000000052 22.410000000000053 22.510000000000055 22.610000000000056 22.710000000000058 22.81000000000006 22.91000000000006 23.010000000000062
23.110000000000063 23.210000000000065 23.310000000000066 23.410000000000068 23.51000000000007 23.61000000000007 23.710000000000072 23.810000000000073
23.910000000000075 24.010000000000076 24.110000000000078 24.21000000000008 24.31000000000008 24.410000000000082 24.510000000000083 24.610000000000085
24.710000000000086 24.810000000000088 24.91000000000009 25.01000000000009 25.110000000000092 25.210000000000093 25.310000000000095 25.410000000000096

position_x f8 [3672]
00000000: 0000 0000 0000 0000 5aca 9a71 4542 c63f
00000010: 4a75 8e4e 6d0b ff3f 507e 826a 5f0d 0e40
00000020: 3cbf 3f9b 8d7d 1640 9f6b efb9 7227 1e40
00000030: f558 a017 2e02 2340 5e42 7841 230a 2740
00000040: 4a70 5bd3 962b 2b40 f27e 3b7b 8666 2f40
00000050: 692f 1cce 77dd 3140 3cb7 5ca7 6714 3440
00000060: d05e 4330 1158 3640 9a1f 71aa 72a8 3840
00000070: 9d57 5032 8a05 3b40 b4f8 20bf 556f 3d40
00000080: 7356 0423 d3e5 3f40 4e3a 8405 8034 4140
00000090: 0c5c 99ff 6c7c 4240 25ee 4431 afca 4340
000000a0: 2f87 8f39 451f 4540 1d08 0ba5 2d7a 4640
000000b0: 5222 d6ed 66db 4740 0843 9f7b ef42 4940
000000c0: d7d4 a6a3 c5b0 4a40 18c8 c0a8 e724 4c40
000000d0: ef52 55bb 539f 4d40 c5d9 60f9 0720 4f40
000000e0: 8b78 3937 8153 5040 b734 d689 201a 5140
000000f0: 502b dee7 e0e3 5140 9a01 6e3b c1b0 5240
00000100: a1e0 6465 c080 5340 f644 613d dd53 5440
00000110: 6f2e bd91 162a 5540 aea8 8927 6b03 5640
00000120: 36a5 89ba d9df 5640 c75a 349e 61bf 5740
00000130: fa73 4e54 02a2 5840 4d6c 3560 ba87 5940
00000140: c448 3b3a 8870 5a40 54c4 964f 6a5c 5b40
00000150: d9d5 5202 5f4b 5c40 be78 3da9 643d 5d40
00000160: a7b3 d58f 7932 5e40 8fd8 38f6 9b2a 5f40
00000170: 027d 8708 e512 6040 9948 bb04 0192 6040
00000180: 5fa8 77fe a012 6140 3f10 a2fe c394 6140
00000190: 2c1f 3a08 6918 6240 56c0 4d18 8f9d 6240
000001a0: 7bdb ec25 3524 6340 aa92 1c22 5aac 6340
000001b0: fe0b caf7 fc35 6440 d8c5 bc8b 1cc1 6440
000001c0: 4274 88bc b74d 6540 3266 7e62 cddb 6540
000001d0: 8971 9e4f 5c6b 6640 ab64 874f 63fc 6640
000001e0: b7fc 6627 e18e 6740 745f e995 d422 6840
000001f0: 1618 2853 3cb8 6840 2396 9810 174f 6940
00000200: ca2d fa78 63e7 6940 1599 4330 2081 6a40
00000210: 77f9 8fd3 4b1c 6b40 4859 0bf9 e4b8 6b40
00000220: d5ac de2f ea56 6c40 bc52 1b00 5af6 6c40
00000230: 6413 a6ea 3297 6d40 6b9f 2169 7339 6e40
00000240: fe8c d8ed 19dd 6e40 17d4 a6e3 2482 6f40
00000250: dc64 f156 4914 7040 1dcd 22d4 3068 7040
00000260: 76a1 6913 c8bc 7040 9a05 e13a 0e12 7140
00000270: c1be b06c 0268 7140 3770 00c7 a3be 7140
00000280: 2e98 ea63 f115 7240 114d 6f59 ea6d 7240
00000290: 8cbb 66b9 8dc6 7240 9365 7391 da1f 7340
000002a0: b893 f1ea cf79 7340 0ec3 d4c9 6cd4 7340
000002b0: 2fae 852b b02f 7440 a6f4 b608 998b 7440
000002c0: 1f2a 8955 26e8 7440 f0e0 7b01 5745 7540
000002d0: 387d 5ef7 29a3 7540 01d1 401d 9e01 7640
000002e0: d181 6354 b260 7640 2438 2879 65c0 7640
000002f0: 3299 0163 b620 7740 730b 63e4 a381 7740
00000300: 5546 b0ca 2ce3 7740 84ad 2cde 4f45 7840
00000310: 3078 eae1 0ba8 7840 bca4 b993 5f0b 7940
00000320: 2fb9 16ac 496f 7940 cf50 19de c8d3 7940
00000330: 403e 3ece 3539 7a40 70ff 8994 c59f 7a40
00000340: c018 c83c 7907 7b40 673c c7cb 5170 7b40
00000350: f0d8 403f 50da 7b40 3c87 c08d 7545 7c40
00000360: c057 8ba6 c2b1 7c40 c6fe 8671 381f 7d40
00000370: 5adf 20cf d78d 7d40 91f4 3498 a1fd 7d40
00000380: d698 f49d 966e 7e40 d62a cda9 b7e0 7e40
00000390: e58b 4f7d 0554 7f40 2d5a b6e2 80c8 7f40
000003a0: 7fc1 6660 151f 8040 2f9a bdfd 815a 8040
000003b0: e136 1ab8 8696 8040 afef f1fa 23d3 8040
000003c0: 092b 682e 5a10 8140 b158 41b7 294e 8140
000003d0: 63b0 d5f6 928c 8140 d3b2 034b 96cb 8140
000003e0: 9a6b 220e 340b 8240 b672 f396 6c4b 8240
000003f0: 2dac 9438 408c 8240 61c4 7142 afcd 8240
00000400: a267 3500 ba0f 8340 7b33 bab9 6052 8340
00000410: 3f60 fbb2 a395 8340 4621 052c 83d9 8340
00000420: 4eba e460 ff1d 8440 6c48 9889 1863 8440
00000430: ee3c fed9 cea8 8440 8b88 c481 22ef 8440
00000440: 4075 57ac 1336 8540 222d d080 a27d 8540
00000450: 76ec e221 cfc5 8540 4edd ccad 990e 8640
00000460: ec9a 413e 0258 8640 235b 58e8 08a2 8640
00000470: ddbb 78bc adec 8640 fe32 47c6 f037 8740
00000480: b91e 910c d283 8740 7874 3891 51d0 8740
00000490: 6e0c 1f51 6f1d 8840 de87 1144 2b6b 8840
000004a0: 1dd0 b15c 85b9 8840 542c 6188 7d08 8940
000004b0: f5eb 29af 1358 8940 dba3 a8b3 47a8 8940
000004c0: fdfb f472 19f9 8940 9a0b 8ac4 884a 8a40
000004d0: bb41 2e7a 959c 8a40 e4d7 da5f 3fef 8a40
000004e0: bfcc a23b 8642 8b40 9164 99cd 6996 8b40
000004f0: 392d b8cf e9ea 8b40 7183 c4f5 0540 8c40
00000500: 0e97 34ed bd95 8c40 e8eb 135d 11ec 8c40
00000510: 1355 e7e5 ff42 8d40 1468 9021 899a 8d40
00000520: a665 30a3 acf2 8d40 a195 0af7 694b 8e40
00000530: a413 66a2 c0a4 8e40 fe09 6f23 b0fe 8e40
00000540: 6258 17f1 3759 8f40 eaa3 f67a 57b4 8f40
00000550: efe6 9414 0708 9040 5ae7 18ae 2d36 9040
00000560: 68f9 6836 9f64 9040 2abb f655 5b93 9040
00000570: c13e 32b1 61c2 9040 8833 78e8 b1f1 9040
00000580: e9ba ff97 4b21 9140 8fe7 c757 2e51 9140
00000590: a3e5 84bb 5981 9140 caca 8c52 cdb1 9140
000005a0: 870c c4a7 88e2 9140 b89b 8941 8b13 9240
000005b0: 85b4 f1a0 d444 9240 d756 563f 6476 9240
000005c0: 6ae2 6290 39a8 9240 c6e3 dd02 54da 9240
000005d0: 461f 9400 b30c 9340 5643 43ee 553f 9340
000005e0: 0041 842b 3c72 9340 b149 b512 65a5 9340
000005f0: 4571 e3f8 cfd8 9340 57f3 b32d 7c0c 9440
00000600: ec1a 4dfb 6840 9440 83cb 3ea6 9574 9440
00000610: a3aa 6a6d 01a9 9440 10e9 eb89 abdd 9440
00000620: c6aa fe2e 9312 9540 ef0c e789 b747 9540
00000630: 0cc9 d7c1 177d 9540 9c74 d8f7 b2b2 9540
00000640: 875c ab46 88e8 9540 b0fb b2c2 961e 9640
00000650: 110c d779 dd54 9640 d931 6973 5b8b 9640
00000660: 0f40 09b0 0fc2 9640 4d16 8929 f9f8 9640
00000670: 3917 d0d2 1630 9740 7037 be97 6767 9740
00000680: aea4 0e5d ea9e 9740 0b05 3a00 9ed6 9740
00000690: 464e 5857 810e 9840 2335 0231 9346 9840
000006a0: fd34 3254 d27e 9840 c42f 2580 3db7 9840
000006b0: c8a6 3a6c d3ef 9840 b18c d4c7 9228 9940
000006c0: 43b1 363a 7a61 9940 9ac7 6562 889a 9940
000006d0: a807 06d7 bbd3 9940 fb6b 3926 130d 9a40
000006e0: cf8c 7dd5 8c46 9a40 c519 8961 2780 9a40
000006f0: 96f3 283e e1b9 9a40 67e7 1cd6 b8f3 9a40
00000700: 7a0d f48a ac2d 9b40 33cd e8b4 ba67 9b40
00000710: 9488 bca2 e1a1 9b40 93f1 9299 1fdc 9b40
00000720: d00b cdd4 7216 9c40 7ddd e385 d950 9c40
00000730: 84d2 42d4 518b 9c40 26d5 21dd d9c5 9c40
00000740: a71f 5fb3 6f00 9d40 cbca 585f 113b 9d40
00000750: 3a1d c6de bc75 9d40 2ea0 9024 70b0 9d40
00000760: 0ffe ac18 29eb 9d40 0740 db97 e525 9e40
00000770: 66ce 4472 a360 9e40 e987 f46b 609b 9e40
00000780: 7449 793d 1ad6 9e40 473c c093 ce10 9f40
00000790: 6579 ee0f 7b4b 9f40 baaa 3a47 1d86 9f40
000007a0: 6bb1 c6c2 b2c0 9f40 0959 79ff 38fb 9f40
000007b0: e50f ecb6 d61a a040 128e f0b8 0638 a040
000007c0: 4584 7231 2b55 a040 10bf b0c5 4272 a040
000007d0: bcb3 6d14 4c8f a040 2eda dcb5 45ac a040
000007e0: 3785 3829 16c9 a040 529c 8d99 ade5 a040
000007f0: 97a2 9a26 0a02 a140 6b3f 50e9 291e a140
0.0 0.17389743849851663 1.9402897900211706 3.7565296479295185 5.6226104982050025 7.538523583639203 9.504257906268757 11.519800229959568
13.585135083114569 15.700244761479073 17.86510933101764 20.079706630836185 22.344012276122896 24.65799966108134 27.021639961829 29.43490213923424
31.897752941664702 34.41015690761979 36.972076368219945 39.58347144952521 42.24430007465559 44.95451796568543 47.71407864528432 50.522933438076564
53.38103147169175 56.288319677478455 59.244742790853586 62.25024335125958 65.30476170170202 68.40823598784014 71.56060215660295 74.76179395430373
78.01174292422594 81.31037840365374 84.65762752032036 88.05341518824818 91.49766410295419 94.99033312905077 98.53139217053823 102.12075047700019
105.75831466474034 109.44398870204287 113.17767389382733 116.9592688656148 120.78866954678834 124.66576915313111 128.5904581686264 132.562624326504
136.58215258951802 140.6489251294424 144.76282130577 148.9237176436024 153.13148781071854 157.38600259380956 161.68712987386965 166.03473460073178
170.42867876673887 174.86882137954086 179.3550184340095 183.88712288326255 188.46498460879022 193.0884503896774 197.75736387091519 202.47156553079648
207.23089264739093 212.03517926409464 216.88425615425123 221.7779507848411 226.71608727923618 231.6984863790184 236.7249654048602 241.79533821646632
246.9094151715762 252.06700308402716 257.26790518087887 262.51192105859974 267.79884663831706 273.1284741201322 278.5005919365031 283.9149847046969
289.37143317831476 294.86971419789285 300.4096006405823 305.99086136891236 311.6132611691096 317.27655966863756 322.9805102559939 328.72486182658247
334.5093589170446 340.3337416495333 346.1977456751806 352.10110211676516 358.0435375105854 364.02477374754585 370.0445280134619 376.1025127285895
382.1984354863865 388.331998991511 394.5029009970631 400.7108342410754 406.9554863822586 413.2365399350064 419.57563614190803 425.9857373610057
432.4670989815022 439.01996972872297 445.64459157305737 452.34119963842727 459.1100221102788 465.9512801430941 472.865187767418 479.8519517963951
486.91177173181256 494.04483966964233 501.2513402087482 508.5314662097106 515.8854377773094 523.3134722531012 530.8157808349607 538.3925684834738
546.04403382665 553.7703690629188 561.5717598623709 569.4483852662037 577.4004175843322 585.4280222911245 593.5313579192203 601.7105759513908
609.9658207103969 618.2972292468033 626.7049312247035 635.1890488053111 643.7496965283733 652.3869811913587 661.1010017263741 669.8918490747614
678.7596060593278 687.7043472541593 696.726138851968 705.8250385289227 715.0010953069118 724.2543494131863 733.5848321373302 742.9925656855046
752.4775630319119 762.039827767424 771.679353945319 781.3961259240712 791.1901182071339 801.0612952796605 811.0096114421018 821.0350106406216
831.1374262942696 841.3167811188498 851.5729869474229 861.9059445473799 872.3155434340223 882.8016616805854 893.36416572464 904.0029101708043
914.7177375897024 925.5084783130997 936.374950225147 947.3169585496676 958.3342956334134 969.4267407252229 980.5940597510094 991.8360050845074
1003.1523153137061 1014.5427150028966 1026.0069144502593 1037.5446094409185 1049.1554809953905 1060.8391951133476 1072.5954025126268 1084.4237383634045
1096.3238220174628 1108.2952567324717 1120.3376293912086 1132.4505102156422 1144.6334524758001 1156.8859921933454 1169.20764520325 1181.5978978624823
1194.056214852399 1206.5820421858093 1219.1748068946922 1231.8339167127465 1244.5587597527192 1257.3487041784504 1270.2030978715786 1283.121268092849
1296.1025211379701 1309.146141987964 1322.2513939539574 1335.4175183163643 1348.6437339584095 1361.9292369939465 1375.2732003895244 1388.674773580663
1402.133082082293 1415.6472270933264 1429.2162850953212 1442.839307445209 1456.515319962058 1470.243322507845 1484.022288562219 1497.8511647912346
1511.7288706100476 1525.654297739561 1539.6263097570204 1553.6437416405613 1567.7053993077127 1581.8100591478733 1595.95646754878 1610.1433404169914
1624.369362692422 1638.6331878569677 1652.9334374372647 1667.2687005016476 1681.6375331513589 1696.0384580060938 1710.4699636839555 1724.9305042759167
1739.4184988148904 1753.9323307395214 1768.4703473528252 1783.0308592758126 1797.612139896246 1812.2124248126922 1826.8299112740506 1841.462757614741
1856.1090826857633 1870.7669652818465 1885.434443564924 1900.1095144841925 1914.7901331930223 1929.4742120988683 1944.1596155882812 1958.8441618164018
1973.5256251288492 1988.2017355000296 2002.8701779615014 2017.5285920302108 2032.1745711370265 2046.8056620560258 2061.419364335003 2076.0131297276903
2090.584361628195 2105.130414508174 2119.6485933572676 2134.1361531273205 2148.543283239614 2162.839062142689 2177.019825775478 2191.0818581654944

position_y f8 [3672]
00000000: 0000 0000 0000 0000 3db2 48f7 8e9e 81be
00000010: b672 ccdb 14b6 f0be 40e2 e707 bf8d 0ebf
00000020: 908a f175 1db3 20bf 3fb7 b2e8 604e 2dbf
00000030: 5bc6 2502 dabe 36bf 0ed9 b7ce 5c52 40bf
00000040: 696f c2cf 762e 46bf 3b00 47a9 c1f5 4cbf
00000050: 86da a16d 1d55 52bf d6e0 a00e eba6 56bf
00000060: 00b7 8a5a 3e71 5bbf fb36 ee31 835a 60bf
00000070: 96e3 0f29 9639 63bf 5aba 3882 4956 66bf
00000080: de8a 8a58 0bb1 69bf 40b0 0c41 464a 6dbf
00000090: d809 c48b 3091 70bf fecb f764 df9c 72bf
000000a0: 0a0a 2c11 5fc8 74bf b2d9 c1c7 dc13 77bf
000000b0: a9a4 0276 837f 79bf 2c71 00a2 7b0b 7cbf
000000c0: ffcf c74c ebb7 7ebf 506d f3e9 7ac2 80bf
000000d0: 198a 26e9 5d39 82bf 9b34 4480 adc0 83bf
000000e0: d3fb 310a 7758 85bf 3adc f64f c600 87bf
000000f0: f64a f477 a5b9 88bf b877 d8f4 1c83 8abf
00000100: 3d01 4d74 335d 8cbf 5895 65cd ed47 8ebf
00000110: b919 6977 a721 90bf d683 6ce6 ab27 91bf
00000120: 5b0a 8ea7 0336 92bf d6d8 41da ac4c 93bf
00000130: 114a 6c77 a46b 94bf a8ce dac3 e692 95bf
00000140: 98c2 1ed8 6ec2 96bf 138f 1497 36fa 97bf
00000150: 0be5 5ea4 363a 99bf 7424 dc5a 6682 9abf
00000160: c540 19c3 bbd2 9bbf d096 c589 2b2b 9dbf
00000170: 184b 2bf6 a88b 9ebf f1ea afe0 25f4 9fbf
00000180: b996 b054 49b2 a0bf dae9 4817 6f6e a1bf
00000190: df64 c5e1 7a2e a2bf 7e65 aa93 62f2 a2bf
000001a0: f176 cf3d 1bba a3bf 3a4d e31d 9985 a4bf
000001b0: 5dc7 029a cf54 a5bf 2b59 653c b127 a6bf
000001c0: f94b 21af 2ffe a6bf a453 0ab8 3bd8 a7bf
000001d0: ca02 ad34 c5b5 a8bf d8b5 6916 bb96 a9bf
000001e0: bb98 b15e 0b7b aabf 4076 681b a362 abbf
000001f0: 9b0a 6e63 6e4d acbf 2a9c 5153 583b adbf
00000200: 27a6 320a 4b2c aebf 8068 d1a6 2f20 afbf
00000210: 5b1b 6922 770b b0bf 7032 1bfd 3688 b0bf
00000220: 30db 866a 4a06 b1bf 4f9a b1ec a385 b1bf
00000230: 012b b47f 3506 b2bf d0ae f098 f087 b2bf
00000240: 80ed 6a26 c60a b3bf 8717 448e a68e b3bf
00000250: 857b 5bae 8113 b4bf 709c 15dc 4699 b4bf
00000260: 9a12 4be4 e41f b5bf 3a9d 600b 4aa7 b5bf
00000270: f7c4 890d 642f b6bf cb69 371f 20b8 b6bf
00000280: 948f b3ed 6a41 b7bf c5b4 eb9f 30cb b7bf
00000290: caf5 6ad7 5c55 b8bf 1436 85b1 dadf b8bf
000002a0: 36a0 b6c8 946a b9bf d623 1c37 75f5 b9bf
000002b0: 81db 1f99 6580 babf b5f7 e00d 4f0b bbbf
000002c0: 004c 3e39 1a96 bbbf f502 4346 af20 bcbf
000002d0: afaf cbe9 f5aa bcbf bb81 6465 d534 bdbf
000002e0: 7c4d 618a 34be bdbf 1a07 30bd f946 bebf
000002f0: 4e39 e6f8 0acf bebf 84eb 09d3 4d56 bfbf
00000300: 0554 967f a7dc bfbf b24d 9e6a fe30 c0bf
00000310: bf6e f028 1973 c0bf aebd a90f 96b4 c0bf
00000320: 505b 230c 67f5 c0bf 2b3a c0e6 7d35 c1bf
00000330: 4636 ddeb 9c74 c1bf e878 3005 99b2 c1bf
00000340: 5271 bb6f 62ef c1bf 6677 785e e92a c2bf
00000350: 9e62 e1fd 1d65 c2bf 8057 8b77 f09d c2bf
00000360: d2ff d6f5 50d5 c2bf 6953 b4a7 2f0b c3bf
00000370: 1809 79c4 7c3f c3bf 02b9 c88f 2872 c3bf
00000380: 4aab 8d5d 23a3 c3bf 1140 0196 5dd2 c3bf
00000390: db4c c2b9 c7ff c3bf 793c ce5e 522b c4bf
000003a0: ec70 b72b ee54 c4bf d586 f7e8 8b7c c4bf
000003b0: f32b 8d86 1ca2 c4bf aa0e 2b20 91c5 c4bf
000003c0: 45dd 6e01 dbe6 c4bf d708 1faa eb05 c5bf
000003d0: 40f4 6dd2 b422 c5bf aa2c 416f 283d c5bf
000003e0: 0e3e 7bb6 3855 c5bf abab 4623 d86a c5bf
000003f0: 5b8a 607a f97d c5bf d530 61ce 8f8e c5bf
00000400: a668 0184 8e9c c5bf b881 5a56 e9a7 c5bf
00000410: eba1 1f5b 94b0 c5bf 4ba2 ce06 84b6 c5bf
00000420: 1fc4 d630 adb9 c5bf 3181 b317 05ba c5bf
00000430: 84b4 f964 81b7 c5bf 0653 5531 18b2 c5bf
00000440: eae6 7508 c0a9 c5bf ecfb e7ec 6f9e c5bf
00000450: 3ea7 d95b 1f90 c5bf f452 c850 c67e c5bf
00000460: 82f2 1549 5d6a c5bf a0c4 8347 dd52 c5bf
00000470: 1cc6 90d7 3f38 c5bf 6ef9 b910 7f1a c5bf
00000480: bba7 9a99 95f9 c4bf dec1 eaaa 7ed5 c4bf
00000490: 938a 5912 36ae c4bf 82b6 4235 b883 c4bf
000004a0: 2033 3c13 0256 c4bf b4ca 7a48 1125 c4bf
000004b0: dce1 0b10 e4f0 c3bf 0292 e245 79b9 c3bf
000004c0: 006c b668 d07e c3bf 1937 b29b e940 c3bf
000004d0: 150a f1a7 c5ff c2bf e426 c8fd 65bb c2bf
000004e0: a70c dcb5 cc73 c2bf 7640 ff91 fc28 c2bf
000004f0: 545a d9fd f8da c1bf fcf1 540f c689 c1bf
00000500: 2d16 d386 6835 c1bf d308 23cf e5dd c0bf
00000510: 2f0b 3dfd 4383 c0bf 6f16 bfcf 8925 c0bf
00000520: e9de 545c 7d89 bfbf f32e c24f d5c1 bebf
00000530: f45d c4e5 2cf4 bdbf 43e9 88d4 9620 bdbf
00000540: 303e dc18 2747 bcbf 5ccc 12f2 f267 bbbf
00000550: 734c 6add 1083 babf 683e e290 9898 b9bf
00000560: 36d1 8af5 a2a8 b8bf 7b95 4921 4ab3 b7bf
00000570: d48c 1350 a9b8 b6bf ee58 9cdc dcb8 b5bf
00000580: ef7e 7a38 02b4 b4bf 21e6 c0e3 37aa b3bf
00000590: 3feb 0d64 9d9b b2bf b694 103b 5388 b1bf
000005a0: fda6 84dc 7a70 b0bf 5216 4d47 6da8 aebf
000005b0: 9091 3893 5367 acbf 2859 1dbe f01d aabf
000005c0: 4350 6b77 8ecc a7bf 0c19 abdf 7773 a5bf
000005d0: 995f 1a6e f912 a3bf ed1d 4ad5 60ab a0bf
000005e0: c958 87cd f979 9cbf bc9f 73eb 3a90 97bf
000005f0: faa0 9671 269a 92bf a4e4 73ab be30 8bbf
00000600: a0c3 44ac 1317 81bf 78b4 3abe 59a2 6bbf
00000610: 388e 01d2 67cb 5a3f 9d47 b108 535b 7b3f
00000620: 984d c4b2 d112 883f eaab 4e15 cc43 913f
00000630: 8aba 9222 5885 963f eca7 ce52 67cd 9b3f
00000640: 2043 6f74 aa8d a03f 3a95 2bb3 3e37 a33f
00000650: c916 1a6d 1fe3 a53f 7e9a 5398 fc90 a83f
00000660: a47e fc41 8740 ab3f 1479 36b7 71f1 ad3f
00000670: 1a23 46d7 b751 b03f c510 e838 1bab b13f
00000680: fa25 3384 be04 b33f 7cab fa30 7e5e b43f
00000690: 3b3c bbc0 37b8 b53f 6968 50d4 c911 b73f
000006a0: bca8 d541 146b b83f feeb b02a f8c3 b93f
000006b0: 268e c511 581c bb3f 9022 cff1 1774 bc3f
000006c0: ae2c e453 1dcb bd3f a2ae 2166 4f21 bf3f
000006d0: cbaf 4089 4b3b c03f 17b4 ee8a 6fe5 c03f
000006e0: 92db 920b 0a8f c13f 5030 665f 1238 c23f
000006f0: ac07 38e7 80e0 c23f 49af 661c 4f88 c33f
00000700: f704 019d 772f c43f 63a3 1738 f6d5 c43f
00000710: 4db0 45fa c77b c53f ecf3 7a3a eb20 c63f
00000720: febd 12a7 5fc5 c63f 4748 4553 2669 c73f
00000730: 16cf 03c5 410c c83f 2791 5203 b6ae c83f
00000740: fd67 37a5 8850 c93f 86cc 57e1 c0f1 c93f
00000750: 4005 669e 6792 ca3f cd16 8384 8732 cb3f
00000760: 2716 c20f 2dd2 cb3f e885 bca3 6671 cc3f
00000770: 5cf8 789d 4410 cd3f c17f 4c6c d9ae cd3f
00000780: 880d 8fad 394d ce3f a4b2 d148 7ceb ce3f
00000790: 8875 428f ba89 cf3f 1e3b 712f 0814 d03f
000007a0: f238 2b25 4e63 d03f 1772 24e3 bfb2 d03f
000007b0: fcc4 c8ae 6f02 d13f c731 d276 7152 d13f
000007c0: 0e68 98f6 daa2 d13f e16b b0df c3f3 d13f
000007d0: 81f9 6e0b 4645 d23f 070e 5bb6 7d97 d23f
000007e0: 56f2 1cb3 c2e9 d23f 261f c2e1 af3b d33f
000007f0: b835 f530 4f8d d33f e879 d723 abde d33f
0.0 -1.3127452870696819e-07 -1.593709542922996e-05 -5.827655057894345e-05 -0.00012740835788623396 -0.00022358830424223407 -0.0003470690009158333 -0.0004980996285997312
-0.0006769256720135899 -0.0008837886439820927 -0.0011189257989180647 -0.001382569835653815 -0.0016749485895774519 -0.0019962847140452245 -0.0023467953510558177 -0.0027266917911881574
-0.003136179122820478 -0.0035754558706653505 -0.004044713623672945 -0.004544136652373075 -0.005073901515745502 -0.005634176657727629 -0.006225121993488938 -0.006846888485622576
-0.007499617710426064 -0.008183441414465392 -0.00889848106163975 -0.009644847370987633 -0.010422639845499326 -0.01123194629222556 -0.012072842333997507 -0.012945390913099306
-0.013849641787260775 -0.014785631018365095 -0.01575338045429373 -0.016752897204358984 -0.017784173108802964 -0.0188471801961548 -0.019941873349191456 -0.021068196968100722
-0.022226077977111375 -0.023415425273142065 -0.024636129171743664 -0.02588806085171709 -0.027171071799160246 -0.028484993251729318 -0.02982963564393079 -0.03120478805429178
-0.032610217655287106 -0.03404566916693215 -0.03551086431498062 -0.03700550129469614 -0.03852925424119558 -0.04008177270739073 -0.04166268115058245 -0.04327157842878856
-0.04490803730791266 -0.04657160398088614 -0.04826179759993961 -0.04997810982318257 -0.05172000437669185 -0.05348691663332916 -0.055278253209526805 -0.05709339158129752
-0.05893167972073981 -0.06079243575432347 -0.06267494764425179 -0.06457847289420626 -0.0665022382807876 -0.06844543961197157 -0.07040724151390167 -0.07238677724734122
-0.0743831485551052 -0.07639542554178834 -0.07842264658709837 -0.08046381829409355 -0.08251791547361123 -0.08458388116615803 -0.08666062670251394 -0.08874703180428083
-0.09084194472558088 -0.09294418243708254 -0.09505253085349988 -0.09716574510567738 -0.09928254986027771 -0.10140163989502979 -0.10352168072118496 -0.10564130867802997
-0.10775913140814453 -0.1098737284219274 -0.11198365171338652 -0.11408742642789253 -0.11618355158252841 -0.1182705008395967 -0.12034672333377225 -0.12241064455331069
-0.12446066727564194 -0.12649517255759474 -0.12851252078040962 -0.1305110527496089 -0.13248909084969762 -0.1344449402535742 -0.13637124554445473 -0.1382628703440283
-0.14011793571161008 -0.14193455803700344 -0.143710850682301 -0.14544492566227163 -0.1471348953618859 -0.14877887428942962 -0.15037498086355394 -0.15192133923250856
-0.15341608112370358 -0.15485734772164553 -0.1562432915712638 -0.15757207516842067 -0.15884186873052586 -0.16005085826241464 -0.1611972481717597 -0.1622792632170918
-0.16329515047048396 -0.16424318129253976 -0.16512165331724482 -0.1659288924441616 -0.16666325483537076 -0.16732312891448706 -0.16790693736500625 -0.1684131391251699
-0.1688402313764687 -0.1691867515228418 -0.16945127915756983 -0.1696324380148034 -0.16972889790261633 -0.16973937661442443 -0.16966264181556678 -0.1694975129018063
-0.16924286282647155 -0.1688976198929305 -0.16846076950906225 -0.16793135590037134 -0.1673084837783741 -0.16659131996087684 -0.1657790949407606 -0.1648711043998889
-0.1638667106647612 -0.16276534410054827 -0.1615665044401636 -0.16026976204505067 -0.1588747590943962 -0.15738121069951705 -0.15578890594021189 -0.15409770881991852
-0.1523075591365739 -0.15041847326613647 -0.14843054485579957 -0.14634394542399953 -0.14415892486440393 -0.14187581185115378 -0.1394950141427268 -0.13701701878188988
-0.1344423921893151 -0.13177178014854593 -0.1290059076801184 -0.1261455788027663 -0.12319167617976813 -0.12014516064862928 -0.11700707063243226 -0.11377852143133275
-0.11046070439282896 -0.10705488595958584 -0.1035624065937542 -0.09998467957688606 -0.09632318968471484 -0.0925794917362363 -0.08875520901669925 -0.0848520315742893
-0.08087171439046491 -0.07681607542408432 -0.0726869935296408 -0.06848640625010458 -0.06421630748505076 -0.0598787450349333 -0.05547581836825366 -0.05100967713103649
-0.04648251731637789 -0.04189657788588094 -0.037254137697515684 -0.03255751231796098 -0.027809050721622684 -0.023011131878689403 -0.018166161234746327 -0.013276567084618947
-0.008344796843262448 -0.0033733132166476297 0.0016354097242804577 0.006678890563380249 0.011754644649534282 0.016860188293929136 0.02199304305093589 0.027150740079072408
0.032330824578485684 0.03753086030136861 0.04274843413172175 0.04798116073088908 0.05322668724533955 0.05848269807323639 0.06374691968643412 0.06901712550467483
0.07429114081892144 0.0795668477609705 0.08484219031673572 0.09011517938088932 0.09538389785089668 0.10064650575888831 0.10590124544028665 0.11114644673865315
0.11638053224685294 0.12160202258535915 0.12680954171935208 0.13200182231722188 0.13717771115417726 0.1423361745659144 0.1474763039587378 0.15259732138417295
0.15769858518800792 0.16277959574588427 0.1678400013000804 0.17287960391504897 0.1778983655726591 0.1828964144320386 0.1878740512835228 0.1928317562316206
0.1977701956482746 0.2026902294452137 0.20759291872313135 0.2124795338660789 0.21735156316224044 0.22221072192137048 0.227058960810555 0.2318984774401525
0.23673172926474373 0.2415614467203301 0.24639064784143394 0.25122265465772553 0.2560611117340975 0.2609100073039214 0.26577369755530333 0.2706569347726852
0.275564900222549 0.28050324291842627 0.28547812573005876 0.2904962807481017 0.29551761142264377 0.3005180077238826 0.3054998376945508 0.3104656076447143

position_z f8 [3672]
00000000: 0000 0000 0000 0000 4d3a c0f4 1b8b ef3f
00000010: d6c4 714b ace3 2540 8485 2eda af16 3540
00000020: 08bd 5482 fa6a 3f40 833d 1252 65f7 4440
00000030: 3d64 2163 1a51 4a40 e420 01b8 a6c2 4f40
00000040: 6047 594a 0aa6 5240 81f0 c71e b776 5540
00000050: acfb a6fb 5e53 5840 431f 7f03 073c 5b40
00000060: a86f 0859 b430 5e40 82cf 950f b698 6040
00000070: 40b3 81bc 191f 6240 0b0d efc4 87ab 6340
00000080: 10b4 9fba 023e 6540 e722 712f 8dd6 6640
00000090: d484 5db5 2975 6840 9bda 7cde da19 6a40
000000a0: 8737 063d a3c4 6b40 2617 5163 8575 6d40
000000b0: 5ecc d6e3 832c 6f40 2d05 9aa8 d074 7040
000000c0: fb43 151f 7056 7140 145f d19e 213b 7240
000000d0: 01e1 5671 e622 7340 6f9d 43e0 bf0d 7440
000000e0: 9cba 4b35 affb 7440 67c9 3aba b5ec 7540
000000f0: 46ec f4b8 d4e0 7640 6c0d 787b 0dd8 7740
00000100: 5b24 dd4b 61d2 7840 328b 5974 d1cf 7940
00000110: ef63 403f 5fd0 7a40 eb0d 04f7 0bd4 7b40
00000120: d1ab 37e6 d8da 7c40 d936 6e3b c8e4 7d40
00000130: e55e 9374 dcf1 7e40 a11e a45a 0b01 8040
00000140: dbc9 7f0f bc8a 8040 8ccb 79e8 0016 8140
00000150: ebf2 0d74 daa2 8140 d3cc 913f 4931 8240
00000160: d5ba 2fd7 4dc1 8240 2219 e2c5 e852 8340
00000170: 0574 6e95 1ae6 8340 7ecd 60ce e37a 8440
00000180: b1f3 06f8 4411 8540 cce8 6b98 3ea9 8540
00000190: ff5c 5334 d142 8640 333b 354f fddd 8640
000001a0: 1d49 396b c37a 8740 4edb 3209 2419 8840
000001b0: e09d 9ca8 1fb9 8840 5c72 94c7 b65a 8940
000001c0: 7b63 d7e2 e9fd 8940 56af bd75 b9a2 8a40
000001d0: 9ee8 36fa 2549 8b40 7b2f c6e8 2ff1 8b40
000001e0: 9a82 7eb8 d79a 8c40 0729 ffde 1d46 8d40
000001f0: 5e35 70d0 02f3 8d40 dd22 7fff 86a1 8e40
00000200: eb8c 5bdd aa51 8f40 c900 da6c b701 9040
00000210: ba77 59b1 695b 9040 e0d7 7d72 ecb5 9040
00000220: 4ed6 d3e5 3f11 9140 47d2 2140 646d 9140
00000230: a285 66b5 59ca 9140 27c4 d778 2028 9240
00000240: 0c4a e1bc b886 9240 d499 23b3 22e6 9240
00000250: bde9 728c 5e46 9340 f720 d678 6ca7 9340
00000260: c6e4 85a7 4c09 9440 cbb5 eb46 ff6b 9440
00000270: 931d a184 84cf 9440 9eec 6e8d dc33 9540
00000280: ff88 4c8d 0799 9540 b94d 5faf 05ff 9540
00000290: fcfa f91d d765 9640 6137 9c02 7ccd 9640
000002a0: 2767 ee85 f435 9740 babc 2dce 409f 9740
000002b0: fe4c 96fd 6009 9840 7c02 2135 5574 9840
000002c0: 2e48 cd94 1de0 9840 a6cb a03b ba4c 9940
000002d0: 0e54 a747 2bba 9940 1aae f2d5 7028 9a40
000002e0: f7ac 9a02 8b97 9a40 3f40 bde8 7907 9b40
000002f0: fe9e 7ea2 3d78 9b40 c987 0949 d6e9 9b40
00000300: ea95 8ff4 435c 9c40 94ab 49bc 86cf 9c40
00000310: 2571 78b6 9e43 9d40 5ee9 64f8 8bb8 9d40
00000320: 881a 6196 4e2e 9e40 70cc c8a3 e6a4 9e40
00000330: a88d cb6f 4f1c 9f40 83c2 562a 8694 9f40
00000340: f0b1 b361 c506 a040 7d62 0b95 ae43 a040
00000350: fec8 4ea6 fe80 a040 5774 2b8c b5be a040
00000360: 93c5 e13c d3fc a040 2e96 46ae 573b a140
00000370: 40eb c4d5 427a a140 79b5 5fa8 94b9 a140
00000380: d89d b31a 4df9 a140 04df f820 6c39 a240
00000390: 19e2 05af f179 a240 5d06 16c4 ddba a240
000003a0: cd99 c078 30fc a240 e47f 8ae8 e93d a340
000003b0: 06ec 732f 0a80 a340 20d1 fa69 91c2 a340
000003c0: e752 1db5 7f05 a440 b038 5c2e d548 a440
000003d0: c361 bdf3 918c a440 1b3b ce23 b6d0 a440
000003e0: 7636 a6dd 4115 a540 a942 e940 355a a540
000003f0: 1a45 ca6d 909f a540 4794 0d85 53e5 a540
00000400: 4273 0ba8 7e2b a640 0a8e b2f8 1172 a640
00000410: a176 8a99 0db9 a640 c122 b6ad 7100 a740
00000420: 146a f658 3e48 a740 cd84 acbf 7390 a740
00000430: 838a dc06 12d9 a740 25f1 2f54 1922 a840
00000440: e70b f8cd 896b a840 ff89 309b 63b5 a840
00000450: 0af5 81e3 a6ff a840 ed2e 44cf 534a a940
00000460: 07ef 8087 6a95 a940 883e f635 ebe0 a940
00000470: b5f3 1805 d62c aa40 ec2b 1720 2b79 aa40
00000480: 31c4 dab2 eac5 aa40 0cd0 0bea 1413 ab40
00000490: 800e 13f3 a960 ab40 d65c 1cfc a9ae ab40
000004a0: 0927 1934 15fd ab40 85d5 c2ca eb4b ac40
000004b0: f937 9df0 2d9b ac40 f2ec f8d6 dbea ac40
000004c0: f7c5 f5af f53a ad40 ca27 85ae 7b8b ad40
000004d0: 8f66 6c06 6edc ad40 701d 47ec cc2d ae40
000004e0: 7081 8995 987f ae40 09af 8238 d1d1 ae40
000004f0: 34f2 5e0c 7724 af40 7808 2a49 8a77 af40
00000500: 915c d127 0bcb af40 a11d 13f1 7c0f b040
00000510: 6c00 7059 ab39 b040 7d1f cfea 1064 b040
00000520: 146d 75c3 ad8e b040 410f 1e02 82b9 b040
00000530: a265 fbc5 8de4 b040 300a b82e d10f b140
00000540: dbcc 775c 4c3b b140 9ea9 d86f ff66 b140
00000550: c5b8 f389 ea92 b140 0719 5ecc 0dbf b140
00000560: 26d3 2959 69eb b140 b9b6 e652 fd17 b240
00000570: bd2f a3dc c944 b240 9614 ed19 cf71 b240
00000580: 106c d22e 0d9f b240 002b e23f 84cc b240
00000590: 12e9 2c72 34fa b240 578c 45eb 1d28 b340
000005a0: 19eb 41d1 4056 b340 8063 bb4a 9d84 b340
000005b0: 3f56 e67d 33b3 b340 db87 768d 03e2 b340
000005c0: 0df8 689b 0d11 b440 a0ac 28ca 5140 b440
000005d0: 56f4 8e3c d06f b440 919c e315 899f b440
000005e0: 3819 dd79 7ccf b440 2d9e a08c aaff b440
000005f0: bc29 c272 1330 b540 597f 4451 b760 b540
00000600: 0012 994d 9691 b540 83dd 9f8d b0c2 b540
00000610: 152e a737 06f4 b540 4b55 6b72 9725 b640
00000620: d04b 1665 6457 b640 063f 3f37 6d89 b640
00000630: bd09 ea10 b2bb b640 2797 861a 33ee b640
00000640: 2f2f f07c f020 b740 41ab 6c61 ea53 b740
00000650: a692 abf1 2087 b740 6b1d c557 94ba b740
00000660: e51c 39be 44ee b740 c6c8 ed4f 3222 b840
00000670: b36f 2e38 5d56 b840 520a aaa2 c58a b840
00000680: a1af 71bb 6bbf b840 80e9 f6ae 4ff4 b840
00000690: 34e8 09aa 7129 b940 b393 d7d9 d15e b940
000006a0: 7379 e76b 7094 b940 7695 198e 4dca b940
000006b0: 3df5 a36e 6900 ba40 4833 103c c436 ba40
000006c0: bcc9 3825 5e6d ba40 bd3a 4659 37a4 ba40
000006d0: 090d ac07 50db ba40 449b 2560 a812 bb40
000006e0: 77b4 b292 404a bb40 1b0c 94cf 1882 bb40
000006f0: 1778 4747 31ba bb40 01fb 832a 8af2 bb40
00000700: ea98 35aa 232b bc40 f5f4 78f7 fd63 bc40
00000710: eab5 9643 199d bc40 efaf febf 75d6 bc40
00000720: 85d1 429e 1310 bd40 dfd1 1110 f349 bd40
00000730: 949e 3147 1484 bd40 b486 7975 77be bd40
00000740: 2b21 cccc 1cf9 bd40 62ec 107f 0434 be40
00000750: f7a4 2dbe 2e6f be40 6451 ffbb 9baa be40
00000760: 5e00 53aa 4be6 be40 5546 a9ba 3e22 bf40
00000770: 82fa 7a1b 755e bf40 ab01 65f9 ee9a bf40
00000780: f4d6 c780 acd7 bf40 3811 e0ee 560a c040
00000790: 12cf 0e9e f928 c040 d0cf ac63 be47 c040
000007a0: eba1 4655 a566 c040 689d 3388 ae85 c040
000007b0: 6198 9011 daa4 c040 1769 3a06 28c4 c040
000007c0: 4734 c87a 98e3 c040 9586 8583 2b03 c140
000007d0: d237 6c34 e122 c140 e416 1ea1 b942 c140
000007e0: 0c6b c937 b662 c140 a7f5 f9d1 d782 c140
000007f0: 6c3e 2d7c 1ea3 c140 8f44 0c42 8ac3 c140
0.0 0.9857311039248288 10.944673879277996 21.08862079273014 31.417884965599143 41.93277955904616 52.63361777430007 63.520712853003516
74.59437807768472 85.85492677235926 97.30267230326598 108.93792807974118 120.76100755523532 132.77222422847632 144.97189164478368 157.3603233975376
169.93783312980713 182.70473453614179 195.66134136453059 208.80796741853268 222.14492655958404 235.67253270948385 249.39109985306544 263.3009420410552
277.40237339312415 291.69570810113623 306.18126043259696 320.8593447343073 335.73027543622607 350.7943670555455 366.0519342009833 381.50329157729607
397.1487539900169 412.9886363504221 429.02325368072974 445.25292111953485 461.677953927484 478.29888480236474 495.1163221127193 512.1305439779136
529.341826437328 546.7504434123271 564.3566666688688 582.1607657805092 600.1630080918209 618.3636586822433 636.7629803303868 655.3612334788047
674.1586761992568 693.1555641584796 712.3521505844836 731.7486862333957 751.3454193568647 771.1425956700493 791.1404583202057 811.3392478558922
831.7392021968111 852.3405566043027 873.1435436525096 894.1483932002296 915.3553323634726 936.7645854887386 958.3763741270338 980.1909170086398
1002.2084300186519 1024.4291261733035 1046.8532155970884 1069.480905500699 1092.312400159793 1115.347900894603 1138.587606050402 1162.031710978839
1185.6804080201573 1209.5338864863052 1233.592332644955 1257.8559297044392 1282.3248577996142 1306.9992939786632 1331.8794121908475 1356.9653832752151
1382.257374950277 1407.7555518046559 1433.460075288719 1459.3711037071992 1485.488792157217 1511.8132865091743 1538.344717358064 1565.083210483338
1592.0288879466348 1619.1818680881784 1646.5422655243924 1674.1101911467326 1701.8857521217412 1729.8690518923247 1758.060190180258 1786.4592629899146
1815.066362613225 1843.8815776358579 1872.9049929446276 1902.1366897361218 1931.5767455265468 1961.2252341627864 1991.0775749020777 2021.131020885107
2051.3855110316 2081.8409808690762 2112.497362577472 2143.354585035278 2174.412573867195 2205.671251493294 2237.130537179677 2268.790347090628
2300.650594342249 2332.7111890575634 2364.972038444376 2397.43313664272 2430.0946712672944 2462.95685227214 2496.019893286287 2529.2840116863517
2562.7494286693286 2596.4163693255614 2630.285062711891 2664.355741924968 2698.628644174717 2733.1040108579514 2767.7820876321175 2802.6631244891646
2837.7473758295246 2873.0351005361927 2908.526562048894 2944.2220284383225 2980.121772480439 3016.226071730815 3052.535208599003 3089.0494704229227
3125.7691495432405 3162.6945433777287 3199.8259544955845 3237.1636906916888 3274.7080650607854 3312.459396071561 3350.4180076405996 3388.5842292061916
3426.9583958019725 3465.5408481303657 3504.3319326358032 3543.3320015776944 3582.541413103118 3621.960531319203 3661.589726365168 3701.4293744839897
3741.479858093658 3781.7415658579894 3822.2148927569574 3862.9002401565012 3903.798015877772 3944.9086342657724 3986.232516257349 4027.770089448484
4069.5217881608482 4111.488053507551 4153.669333458045 4196.0660829021335 4238.678763713007 4281.507844809269 4324.553802215874 4367.8171191239235
4411.298285949243 4454.997800389681 4498.91616748105 4543.0538996516325 4587.411516775179 4631.989546222315 4676.788522910266 4721.80898935082
4767.0514956964325 4812.516599784372 4858.204867178823 4904.116871210826 4950.253193015954 4996.614421569626 5043.201139827782 5090.013877304237
5137.053152618942 5184.319490949769 5231.813424048092 5279.535490251278 5327.486234491975 5375.66620830404 5424.075969824971 5472.71608379468
5521.587121550459 5570.689661017971 5620.024286698103 5669.591589649509 5719.392167466649 5769.426624253165 5819.695570590379 5870.199623500731
5920.939406405944 5971.915549079714 6023.128687594703 6074.579464263613 6126.268527574114 6178.196532117383 6230.364138510008 6282.772013309021
6335.420828919771 6388.311263496405 6441.444000834646 6494.819730256614 6548.43914648738 6602.302949522962 6656.411844489453 6710.766541492958
6765.367755460025 6820.216205968228 6875.312617066557 6930.657717085272 6986.252238434848 7042.096917393642 7098.192493883914 7154.5397112357905
7211.13931593879 7267.992057380489 7325.098687571919 7382.459960859253 7440.076633621361 7497.949463952768 7556.079211331573 7614.466636271845
7673.112499960039 7732.017563874922 7791.18258939054 7850.608337361689 7910.295567691412 7970.245035724326 8030.457450567397 8090.933492958934
8151.673840036372 8212.679164894493 8273.950136042698 8335.487416841002 8397.29166491419 8459.363531543597 8521.703661035923 8584.312690068544
8647.191247010733 8710.33995122024 8773.75941231466 8837.450229417016 8901.423577477712 8965.686095471332 9030.238164573173 9095.080140622593
