yeonu/results_6dof/SCUD-B_45.0deg_20251219_102809.npz (npz, 104789 bytes, 22 tensors)

time f8 [941]
0.0 0.007167341319162511 0.01630826571685715 0.026888521578738597 0.038442761928713376 0.050629656977636626 0.06321950360113725 0.07606564150652145
0.08907630644074671 0.10219552521343332 0.11538866622997816 0.1286349189518384 0.14192093734054906 0.15523864520416028 0.16858221246903657 0.18194791109871306
0.19533235276048322 0.2087330899010112 0.22214733129566994 0.23557280446508985 0.24900666525223528 0.2624464460795042 0.27588905740933733 0.289331758594082
0.30277121270910806 0.3162044572839882 0.32962799495196293 0.34303875596662564 0.3564332131120292 0.369808333278151 0.38316070641184863 0.3964874856775073
0.4097855207637896 0.4230522875212956 0.43628501699872607 0.44948161662024577 0.4626397881085171 0.47575794329965393 0.4888343063171288 0.5018678278631428
0.5148572691933377 0.5278021190141617 0.540701658615802 0.553555885310262 0.5663645593353527 0.5791281371743037 0.5918468015395489 0.604521407087432
0.617152495047825 0.6297412529613535 0.6422885154825019 0.6547957389586597 0.6672639897421152 0.6796949337823025 0.6920898135339487 0.7044504522722085
0.716778220437464 0.7290750540996205 0.7413424113662416 0.7535823042817216 0.7657962457477172 0.7779862941156892 0.7901539909250529 0.8023014174907958
0.8144301236509195 0.8265421957407499 0.838639176446366 0.8507231436719301 0.862795621513962 0.8748586696505101 0.8869137853833745 0.898963003297499
0.9110077882555428 0.9230501451912589 0.935091502885048 0.9471338338596365 0.9591785287127901 0.9712275261784783 0.9832821777454903 0.9953443880300022
1.0074154693666244 1.0194972927112091 1.0315911318478195 1.0436988251074766 1.0558216087983998 1.0679612900811966 1.080119069193079 1.0922967238723111
1.1044954199154442 1.1167169075864605 1.1289623200151955 1.1412333820670677 1.153531196062015 1.1658574636168222 1.1782132581365348 1.1906002601734493
1.2030195161178359 1.2154726876470863 1.2279607960172163 1.2404854862047654 1.2530477561780018 1.2656492363567025 1.2782909032205552 1.2909743747390288
1.3037006076489226 1.3164712095304927 1.3292871190666795 1.3421499354630688 1.355060580978118 1.368020648410227 1.3810310451654233 1.394093359554227
1.4072084856449683 1.4203780091363807 1.4336028122195381 1.4468844798155995 1.4602238836474588 1.4736226096546816 1.4870815204535266 1.5006022047646776
1.5141855174158971 1.527833051641512 1.541545655759233 1.5553249292243225 1.5691717150878066 1.583087620713303 1.5970734850967419 1.6111309251817114
1.625260777094458 1.6394646690187575 1.6537434353737541 1.6680987172381414 1.6825313484684463 1.6970429846906832 1.7116344603296243 1.7263074472147015
1.7410627814597033 1.755902152761685 1.7708264000384346 1.7858372325318175 1.800935493078139 1.8161229121587712 1.8314003376448635 1.8467695229745587
1.8622313221780469 1.8777875133956112 1.8934389579520652 1.9091874604662702 1.9250338907090079 1.9409800815932559 1.9570269125073456 1.9731762465161231
1.9894289738213229 2.005786989545707 2.0222511959300973 2.0388235221156803 2.055504883642462 2.072297245688895 2.089201538393971 2.1062197650587344
2.123352871765446 2.1406029020946944 2.15797081946664 2.1754587099767675 2.193067555833943 2.210799487969169 2.228655508893356 2.246637796787593
2.2647473760467762 2.2829864746149116 2.301356140430143 2.319858653822847 2.338495088015953 2.357267778466973 2.376177825517286 2.395227622618409
2.4144182991652183 2.433752309607596 2.453230814437603 2.4728563322561428 2.4926300568165494 2.512554574182583 2.532631113663695 2.5528623322694446
2.5732494973041806 2.5937953403923943 2.6145011694263336 2.635369794515508 2.6564025669041103 2.6776023792704953 2.698970629160101 2.7205102961388117
2.742222827204442 2.7641112933804983 2.786177194488859 2.8084236978537405 2.8308523597330244 2.8534664488876933 2.876267581887548 2.8992591343868233
2.9224427874290515 2.9458220293635913 2.9693986101837573 2.993176137111245 3.0171564339087715 3.041343233254063 3.0657384378750936 3.090345912931761
3.1151676457251223 3.140207641406089 3.1654679779080235 3.190952808406506 3.2166643080235393 3.2426067865652772 3.268782523442995 3.2951959943254634
3.3218495906153573 3.3487479637610384 3.375893625518436 3.403291413782328 3.4309439697541535 3.4588563292651324 3.4870312728592885 3.515474046699419
3.544187581459337 3.5731773470240653 3.6024464359714234 3.6320005563983875 3.6618429756547624 3.691979655752424 3.7224140528959087 3.7531524000579997
3.7841983577329947 3.815558448389903 3.847236553755067 3.8792395059839313 3.9115714266580786 3.9442394796525075 3.9772480469097538 4.010604648111613
4.04431394817661 4.078383848981088 4.1128193234005535 4.147628684468984 4.182817240666131 4.218393748040732 4.254363881328571 4.290736874709579
4.3275188032243825 4.3647194179813535 4.402345232223532 4.440406556951324 4.478910385878677 4.517867637592053 4.55728583352596 4.59717655293193
00000000: 0000 0000 0000 0000 7289 0a89 805b 7d3f
00000010: 392e a22f 1db3 903f ac1d 4623 aa88 9b3f
00000020: c8e3 800a c5ae a33f 8b71 da61 21ec a93f
00000030: 57ad 6f44 272f b03f 3ca9 9eb2 0979 b33f
00000040: 70f0 026f b4cd b63f 67d8 9666 7c29 ba3f
00000050: c36c c993 1c8a bd3f ebc8 02e9 1b77 c03f
00000060: c266 3f1c 772a c23f 6715 1d24 dcde c33f
00000070: 77f4 9e18 1a94 c53f 624b dfb3 114a c73f
00000080: 547f 7a89 a600 c93f 32e3 5b11 c4b7 ca3f
00000090: 8a7f 67e1 526f cc3f 8b95 80e9 3f27 ce3f
000000a0: 8547 df4d 73df cf3f b839 b72d eccb d03f
000000b0: 846e b993 2aa8 d13f 98c4 365a 6984 d23f
000000c0: 5160 3082 9a60 d33f 0d96 b89e b13c d43f
000000d0: 008b 8a04 a018 d53f 97c7 88d3 58f4 d53f
000000e0: 2d8f 6140 cdcf d63f 84f2 4d92 f0aa d73f
000000f0: 66ac c97b b485 d83f bb85 100c 0d60 d93f
00000100: ee81 830c ed39 da3f 9bb9 d9e6 4913 db3f
00000110: 25a3 effd 17ec db3f ec60 e28a 4ec4 dc3f
00000120: eb48 f0e9 e39b dd3f ec30 d271 d172 de3f
00000130: e1df b2af 0f49 df3f b4c6 721e 4d0f e03f
00000140: 5662 a9f3 b579 e03f 429c fd44 c1e3 e03f
00000150: feba 9490 6d4d e13f 124f fdd4 bab6 e13f
00000160: 6bae 7e91 a81f e23f d76c 2bbb 3788 e23f
00000170: 9958 1bb4 68f0 e23f 7d84 2547 3d58 e33f
00000180: b901 dc96 b6bf e33f 8a27 cd20 d726 e43f
00000190: e1ff 12a5 a08d e43f 3167 8c31 16f4 e43f
000001a0: 29b5 b702 3a5a e53f 8f42 fb96 0fc0 e53f
000001b0: cfbc 6089 9925 e63f 5f2b c5ac db8a e63f
000001c0: 9472 e8e0 d8ef e63f 5efe 3535 9554 e73f
000001d0: cd95 7eb8 13b9 e73f 827f f7a2 581d e83f
000001e0: 505a dc20 6781 e83f e6d1 3e83 43e5 e83f
000001f0: a576 ba05 f148 e93f 8109 b505 74ac e93f
00000200: 68a7 3ec3 cf0f ea3f c20e 6f9e 0873 ea3f
00000210: 9368 7fd3 21d6 ea3f 13ae 00be 1f39 eb3f
00000220: 4e1a 3190 059c eb3f 1aac d89b d7fe eb3f
00000230: 23fb d204 9961 ec3f 1d41 6f0f 4ec4 ec3f
00000240: e5ae 1ece f926 ed3f a843 4575 a089 ed3f
00000250: a714 f503 45ec ed3f 7097 2b9d eb4e ee3f
00000260: 3c19 7b2b 97b1 ee3f 672b bdbf 4b14 ef3f
00000270: 6002 852f 0c77 ef3f 6112 5b79 dcd9 ef3f
00000280: 53a0 e6ae 5f1e f03f 07e2 a864 dc4f f03f
00000290: 8414 e2b3 6581 f03f 205d 0b8a fdb2 f03f
000002a0: 0f30 0333 a5e4 f03f efae e493 5e16 f13f
000002b0: 1686 dfee 2a48 f13f caf3 2821 0c7a f13f
000002c0: dee5 b163 03ac f13f ec95 4f8c 12de f13f
000002d0: d51a 2ecb 3a10 f23f f14d 51ef 7d42 f23f
000002e0: ad08 a020 dd74 f23f 1882 e027 5aa7 f23f
000002f0: 748f 3625 f6d9 f23f 6add c0db b20c f33f
00000300: 48d0 6264 913f f33f e101 2a7d 9372 f33f
00000310: 09a0 3a38 baa5 f33f 1298 264f 07d9 f33f
00000320: 6dc5 d1cd 7b0c f43f 26c0 e569 1940 f43f
00000330: 93b4 8129 e173 f43f 9da6 f7be d4a7 f43f
00000340: 090a 1a2b f5db f43f c9f1 701d 4410 f53f
00000350: ca2a f691 c244 f53f 3c47 f235 7279 f53f
00000360: 7c65 f600 54ae f53f 53cb 929e 69e3 f53f
00000370: 67f0 5b02 b418 f63f e4b2 add6 344e f63f
00000380: 2ffb 870b ed83 f63f 6b2c 934a deb9 f63f
00000390: 17fc 9e80 09f0 f63f 185e 1e57 7026 f73f
000003a0: c2a9 11b8 135d f73f face 314d f593 f73f
000003b0: 7557 0dfe 15cb f73f 0b51 1c75 7702 f83f
000003c0: c40c d697 1a3a f83f 51c5 e811 0172 f83f
000003d0: b16d 0cc7 2baa f83f 6ec0 9a64 9ce2 f83f
000003e0: 08c4 e1cc 531b f93f 4ca8 5aaf 5354 f93f
000003f0: bac9 3ced 9c8d f93f beac 9338 31c7 f93f
00000400: d479 d171 1101 fa3f e220 064e 3f3b fa3f
00000410: bb7a 2ead bb75 fa3f 1099 d047 88b0 fa3f
00000420: 09ab c2fd a5eb fa3f 8371 728b 1627 fb3f
00000430: 5428 ddd0 da62 fb3f e20d ca8e f49e fb3f
00000440: 7f6f aaa5 64db fb3f 2066 11db 2c18 fc3f
00000450: 93ef 3010 4e55 fc3f bb40 db0f ca92 fc3f
00000460: af9e 4fbc a1d0 fc3f aecf 13e6 d60e fd3f
00000470: b816 c170 6a4d fd3f d3cd 0633 5e8c fd3f
00000480: fe76 2512 b3cb fd3f e5f0 6deb 6a0b fe3f
00000490: e505 16a6 864b fe3f be2c 8a26 088c fe3f
000004a0: d896 4456 f0cc fe3f 4e16 4a21 410e ff3f
000004b0: 42c6 a973 fb4f ff3f 167e 8041 2192 ff3f
000004c0: 5270 c479 b3d4 ff3f 96ba 960c da0b 0040
000004d0: 8388 f608 922d 0040 466b eeb4 824f 0040
000004e0: ed19 608b ac71 0040 f298 0e94 1094 0040
000004f0: 6d3d d14b afb6 0040 b5ed 88bf 89d9 0040
00000500: 5ccd 306e a0fc 0040 56c1 116a f41f 0140
00000510: fea6 7a34 8643 0140 4330 69e5 5667 0140
00000520: b3cd b100 678b 0140 a0ba 56a4 b7af 0140
00000530: 45fa e556 49d4 0140 1a48 b93c 1df9 0140
00000540: ed94 4edf 331e 0240 7773 ad69 8e43 0240
00000550: 1dc5 7c68 2d69 0240 fd17 cc0d 128f 0240
00000560: cf14 a7e9 3cb5 0240 1871 8335 afdb 0240
00000570: fa9d 1085 6902 0340 a5f9 8c19 6d29 0340
00000580: 7c3a 8e8a ba50 0340 fba1 8221 5378 0340
00000590: 4064 2c7a 37a0 0340 20f9 95e6 68c8 0340
000005a0: fb6d f806 e8f0 0340 363c 6c36 b619 0440
000005b0: 1b24 f019 d442 0440 e74c 2216 436c 0440
000005c0: 8cf5 1ad5 0396 0440 2a05 7cc5 17c0 0440
000005d0: a151 d096 7fea 0440 977b 42c2 3c15 0540
000005e0: aae8 2efd 4f40 0540 be44 d5cb ba6b 0540
000005f0: 80db c8e9 7d97 0540 9fc7 f2e6 9ac3 0540
00000600: 7d80 8985 12f0 0540 8896 bc61 e61c 0640
00000610: 8486 d944 174a 0640 e0be fcd7 a677 0640
00000620: b5dc 06ec 95a5 0640 aea5 b137 e6d3 0640
00000630: 2304 f693 9802 0740 be90 e6c5 ae31 0740
00000640: c782 23af 2961 0740 b29f df23 0b91 0740
00000650: 7b37 fc0e 54c1 0740 b87b a054 06f2 0740
00000660: eb6e 94e9 2223 0840 95e5 d5c2 ab54 0840
00000670: f71b c6df a186 0840 13f4 2a47 07b9 0840
00000680: df92 bf03 ddeb 0840 57e8 132f 251f 0940
00000690: a233 0de0 e052 0940 7d7b 1944 1287 0940
000006a0: 615f 297f babb 0940 24af b0d3 dbf0 0940
000006b0: 6364 9f73 7726 0a40 f64d acb7 8f5c 0a40
000006c0: 3f64 cfe0 2593 0a40 b833 575f 3cca 0a40
000006d0: 2f03 6384 d401 0b40 229f 47d9 f039 0b40
000006e0: 2005 84c0 9272 0b40 020d fedd bcab 0b40
000006f0: ab7a e8a6 70e5 0b40 1516 64db b01f 0c40
00000700: b90e ca04 7f5a 0c40 1336 4201 de95 0c40
00000710: 51b6 e06f cfd1 0c40 6e47 c64e 560e 0d40
00000720: 3c32 7c54 744b 0d40 caa1 37a1 2c89 0d40
00000730: b4de da04 81c7 0d40 6139 f9c3 7406 0e40
00000740: 2b52 e0c9 0946 0e40 367d fe81 4386 0e40
00000750: 7fd4 52f5 23c7 0e40 de6a dcb8 ae08 0f40
00000760: 51b7 cbf5 e54a 0f40 bc98 a56d cd8d 0f40
00000770: 4875 8c6c 67d1 0f40 c44c e3f1 db0a 1040
00000780: 62b3 b8a2 602d 1040 2da2 0fdb 4350 1040
00000790: eb72 a1e8 8673 1040 b0fb 4ef9 2b97 1040
000007a0: 5639 5771 34bb 1040 78f1 559c a2df 1040
000007b0: fe5b 1ef7 7704 1140 bf79 62ed b629 1140
000007c0: f4b1 d216 614f 1140 c6c8 d101 7975 1140
000007d0: 0968 7863 009c 1140 1833 bcef f9c2 1140
000007e0: 3041 f47b 67ea 1140 6675 dce4 4b12 1240
000007f0: 8812 3623 a93a 1240 631f 1340 8263 1240

position_x f8 [941]
0.0 8.042074804490642e-10 5.3470034713119546e-08 1.4690812142457246e-07 4.66235109738526e-07 8.982238680711538e-07 1.8007906545301776e-06 2.892463855876261e-06
4.712878064609383e-06 6.796682383142538e-06 9.866578837261146e-06 1.3274120797266052e-05 1.7924912288601423e-05 2.2988958989682137e-05 2.9554688090724378e-05 3.6610471278626215e-05
4.542757219848462e-05 5.4811753406070516e-05 6.621677286197299e-05 7.826483162106946e-05 9.259103944935857e-05 0.00010763375295694585 0.00012520717810164062 0.00014356664980288487
0.00016470194188041102 0.0001866875849173486 0.00021168410667901703 0.00023758900319156918 0.00026672757478316813 0.0002968256234396273 0.0003303662973279365 0.0003649104864790523
0.00040309161498827353 0.0004423136166145268 0.0004853523017737609 0.0005294634013050303 0.0005775572306438165 0.0006267504335228756 0.0006800802507760075 0.000734533278313842
0.0007932666466586348 0.0008531454735310499 0.0009174404703601934 0.0009829030637662018 0.0010529120882792487 0.0011241120667609273 0.0011999854207950622 0.001277075433881183
0.0013589645265582246 0.0014420992418263123 0.001530159350402921 0.0016194980068926165 0.0017138905888621867 0.001809599128044614 0.0019104937205129187 0.0020127465381176496
0.0021203223022861124 0.002229303679659074 0.002343750655701841 0.002459655932997719 0.002581176068854708 0.0027042126186873987 0.002833020629460872 0.0029634086823819047
0.003099732788140768 0.003237706152740568 0.0033817887334912783 0.0035275954456294163 0.00367969364402609 0.0038335965723126256 0.003993982867685124 0.004156260296197937
0.004325223067899514 0.00449616927214816 0.004674013365782939 0.004853939194130253 0.0050409865009306025 0.00523021997074727 0.0054268100278351775 0.005625696943482463
0.005832187560929866 0.006041092159105794 0.00625786007842609 0.006477165705173661 0.0067046072928642775 0.006934717115841942 0.007173249095059108 0.007414586853978962
0.007664647076885548 0.007917657874768762 0.008179706137927798 0.008444857275499944 0.00871937618043097 0.00899715803586589 0.00928465389687131 0.00957558085305852
0.00987658465439491 0.010181196075880958 0.010496264480366094 0.01081512574210386 0.01114484215334264 0.011478545723593197 0.011823521404075762 0.012172687983741902
0.012533563231245973 0.012898842952130674 0.01327628833686758 0.013658362021475336 0.014053079686698106 0.014452660172288329 0.014865385201213463 0.015283218731078711
0.01571472058300268 0.016151588267981107 0.016602672286911344 0.017059391640471867 0.017530900639555286 0.018008327189853502 0.018501143115178573 0.01900017209780146
0.01951521777545351 0.020036785910756583 0.02057502688106221 0.02112011424016903 0.02168256068342808 0.022252192647340165 0.022839901405610288 0.02343515072199887
0.02404922742170128 0.024671216364363733 0.025312817644787305 0.02596272028094306 0.026633056134129883 0.027312100705109536 0.028012436932742264 0.02872190835394237
0.02945356914740176 0.03019481163371197 0.030959182283695236 0.03173360210699591 0.032532131849610874 0.03334120023546391 0.03417540524200123 0.03502066141278015
0.0358921279308939 0.03677518230349786 0.03768556995813309 0.03860810750454858 0.03955915276706774 0.04052293654676788 0.041516456381891706 0.042523331255649735
0.04356122695581666 0.04461312349091541 0.04569738470866726 0.04679632328647716 0.04792903227619146 0.04907712741350783 0.05026046349416455 0.05145992839060622
0.05269617264258405 0.05394932396714024 0.055240864176468917 0.05655012710713633 0.057899462971755335 0.059267376503189764 0.06067712511672169 0.06210634765198188
0.06357924928179536 0.06507256452501857 0.06661148870188399 0.06817181187047901 0.06977976380941651 0.0714101481851363 0.07309027555745724 0.07479391939742437
0.07654951947592806 0.07832977330634254 0.08016430050726707 0.08202467482379436 0.08394174867074541 0.08588592207188464 0.08788933560888192 0.08992116339014872
0.09201489207299773 0.0941384153125052 0.09632662641021884 0.0985460815779382 0.10083314411831233 0.10315297324449443 0.1055434685401288 0.10796832998080559
0.1104670627760213 0.11300184261693993 0.11561385289821786 0.11826367704182139 0.12099425255868937 0.12376449954233065 0.1266191890889428 0.12951550368737638
0.13250013120047527 0.13552843886942426 0.13864911840206803 0.14181564062537128 0.14507879226201342 0.14839006287015424 0.15180242965397003 0.1552653121880457
0.15883397813836433 0.16245568434067265 0.16618809364581033 0.16997620316567008 0.17388018064423658 0.17784266205656207 0.18192643498933775 0.18607166823232335
0.19034388967748264 0.19468069002785454 0.19915046374329048 0.20368810745777038 0.20836501456683934 0.21311326633362138 0.21800739388538906 0.222976536243392
0.2280985078341622 0.23329937273520793 0.23866038137633533 0.24410438408524082 0.2497162275233736 0.2554154030720979 0.26129052179029255 0.2672575642270648
0.27340908238233375 0.2796573870853531 0.2860991566683329 0.2926428660255804 0.29938951456194624 0.3062435673546174 0.31331054950771303 0.32049073437800724
0.3278943878566108 0.33541740128860104 0.34317500751694396 0.35105851681375927 0.3591883668790188 0.3674510786859762 0.37597254514934025 0.38463428014533185
0.39356789538223336 0.40264966984962486 0.4120172116791721 0.4215413267629699 0.4313659122348843 0.4413560518197379 0.4516622401566674 0.4621435784310944
00000000: 0000 0000 0000 0000 a60d 3041 e2a1 0b3e
00000010: 06a9 d198 ddb4 6c3e 48e4 7380 b9b7 833e
00000020: e811 9fb2 db49 9f3e 0e4c b12c af23 ae3e
00000030: 196e 8b43 5636 be3e 400e 3cd2 8443 c83e
00000040: 3878 de0e 6ac4 d33e 2e4e e0d3 e181 dc3e
00000050: 64d2 0d45 14b1 e43e 087a 4845 7dd6 eb3e
00000060: 1d98 cf97 aecb f23e 6e91 833b 0d1b f83e
00000070: 0370 60b3 86fd fe3e bf23 f436 c631 033f
00000080: 88b8 d47e 2fd1 073f 258d ab81 b5bc 0c3f
00000090: efb6 dc7e bb5b 113f 3c37 a791 4384 143f
000000a0: 9a7e 02f2 ad45 183f eb58 abcb 2d37 1c3f
000000b0: 1f55 6878 4169 203f 4a63 a321 4cd1 223f
000000c0: 1efa 6de8 7a96 253f 028f c124 3278 283f
000000d0: 14fc 6aa1 f0be 2b3f 1d1c 48ff 2924 2f3f
000000e0: 982e ec35 f27a 313f 88cb 6458 e873 333f
000000f0: d85d 5671 a0a6 353f 572a fb9a 2eea 373f
00000100: c315 bd4d c16a 3a3f 4561 9784 cafc 3c3f
00000110: 8e3b 5e43 dcce 3f3f 33bd 1bff 7559 413f
00000120: 0545 66b5 e6ec 423f 5b9f af4e 9089 443f
00000130: e346 c637 ed48 463f 954b 3f34 b611 483f
00000140: 2aca f626 67fe 493f 187a 2af4 b3f4 4b3f
00000150: 3d06 7a68 0c10 4e3f 249b e520 981a 503f
00000160: 43b1 05bf 3b40 513f c3ec 1424 de6a 523f
00000170: aeda d488 1aa9 533f 3e5d 464e 71ec 543f
00000180: 5fe5 ab0c e943 563f 05e1 3245 9aa0 573f
00000190: 4d90 8717 f411 593f 6543 6fbe aa88 5a3f
000001a0: 2d26 cc01 9414 5c3f cb7e b944 02a6 5d3f
000001b0: 9dce 1f03 314d 5f3f cea3 cd11 097d 603f
000001c0: 2de2 3f5e a35e 613f 9020 b44c 3043 623f
000001d0: 55a8 518d 3333 633f 5018 55b9 4526 643f
000001e0: 695f a159 1e25 653f 5336 4718 2527 663f
000001f0: d349 7a5e 4635 673f 4733 04ec b746 683f
00000200: bee5 715e 9c64 693f 2b53 4841 f685 6a3f
00000210: 20fa 6400 20b4 6b3f ffe4 5162 e7e5 6c3f
00000220: f752 887b e024 6e3f e7b7 ee7c a267 6f3f
00000230: df86 c29c fe5b 703f d1bb bba0 2706 713f
00000240: 8616 fe39 53b7 713f 21d1 b23f 936a 723f
00000250: c3f0 c0e8 0e25 733f 0e6c 8761 b9e1 733f
00000260: c3c2 9382 dba5 743f 229b 9a7b 486c 753f
00000270: fa60 7539 6c3a 763f f53e 3b86 f80a 773f
00000280: 96ce 69ed 7de3 773f ae73 1654 8bbe 783f
00000290: 7198 1386 d7a1 793f 0eed fded cc87 7a3f
000002a0: 12d1 e250 4a76 7b3f 9249 83f3 9367 7c3f
000002b0: f237 4f64 b261 7d3f d5ad d100 c25e 7e3f
000002c0: 1e5c 7d08 f764 7f3f d67b 100d 2237 803f
000002d0: e589 d392 85c0 803f 4991 8a8e 894b 813f
000002e0: 0cb2 4adc 76db 813f 8bfb 2a1c 1a6d 823f
000002f0: d4e2 bb26 d503 833f 342d d5b4 5c9c 833f
00000300: 0ac5 b1c0 2c3a 843f b8c9 7001 e1d9 843f
00000310: 75ff 62c5 107f 853f 006c ea9a 3d26 863f
00000320: 74a0 8a64 1bd3 863f c364 e853 1082 873f
00000330: 5851 082e ee36 883f ac4e 5b86 feed 883f
00000340: f5c3 7161 32ab 893f 20cb 1565 b56a 8a3f
00000350: 0cbe c041 9930 8b3f d4e3 9751 eaf8 8b3f
00000360: bdb2 4c6d dcc7 8c3f 10cf 3d36 5b99 8d3f
00000370: ebd3 403a be71 8e3f ef51 05e5 ce4c 8f3f
00000380: 950c e10b 8517 903f 59c8 8ebd 0a8a 903f
00000390: 1974 fe79 4a00 913f 1def bd64 0478 913f
000003a0: 984e aad3 9ef3 913f 8d27 5861 c670 923f
000003b0: 9c25 79b2 f6f1 923f 7d1c 1df7 c774 933f
000003c0: a0c4 7a18 ccfb 933f 708a d0f0 8584 943f
000003d0: 6d20 46ae 9e11 953f e317 ccdf 82a0 953f
000003e0: 388d 1d04 f433 963f 6a0c bd5e 47c9 963f
000003f0: 57e7 52d6 5763 973f 6115 b657 62ff 973f
00000400: 8dc2 1455 5ca0 983f 59fb bf4d 6943 993f
00000410: 5bde d06f 9aeb 993f e55e 16aa f895 9a3f
00000420: 36bf 5a24 b245 9b3f 3107 410d b4f7 9b3f
00000430: 6591 07d2 4aaf 9c3f 194e 3ca4 4669 9d3f
00000440: 6d4a f490 1329 9e3f e316 e781 63eb 9e3f
00000450: 4870 ad8d c3b3 9f3f ccb7 77fe 623f a03f
00000460: 6cfa b934 0da8 a03f 0bcd 3d09 1912 a13f
00000470: 0e13 af4f 707f a13f 2084 e766 3aee a13f
00000480: 7e48 4bf7 7360 a23f 618e 985a 32d4 a23f
00000490: 9eaa 00e5 854b a33f a15a 2f1e 71c4 a33f
000004a0: 5ab7 c8e6 1841 a43f c399 691e 6cbf a43f
000004b0: dee3 cf1c a541 a53f 0ab7 1e3a 9ec5 a53f
000004c0: 3138 4c3a a84d a63f 1256 bb04 88d7 a63f
000004d0: 0244 acc9 a565 a73f fa4a 2d0c b0f5 a73f
000004e0: 8b72 4f74 278a a83f 07fe 7122 a320 a93f
000004f0: 7c7d fa4d bdbb a93f d3fb fbaa f458 aa3f
00000500: 1ba0 3f24 fefa aa3f df0c 29ec 3e9f ab3f
00000510: 33d8 14d2 8748 ac3f ac03 0565 23f4 ac3f
00000520: a5dc d697 ffa4 ad3f 0a12 9a27 4b58 ae3f
00000530: 99b5 fb77 1211 af3f 021b 1438 67cc af3f
00000540: 579a 5ecc ba46 b03f 4376 8078 98a8 b03f
00000550: ec30 8355 730d b13f 4d26 7e36 b573 b13f
00000560: 97ea 7b2b 16dd b13f bcc3 0e7b ef47 b23f
00000570: b5c6 2c57 0bb6 b23f b568 c0bd b125 b33f
00000580: c272 acd2 bf98 b33f bb61 a786 6b0d b43f
00000590: 0745 fcc8 a585 b43f a64e d5af 91ff b43f
000005a0: ce55 4fd9 347d b53f f24c 7caa 9efc b53f
000005b0: 1179 1b5e ea7f b63f 349d fac7 1205 b73f
000005c0: 90d0 32b8 498e b73f 7781 1087 7419 b83f
000005d0: 6978 2a9e dca8 b83f 90b4 86e5 503a b93f
000005e0: 2f4c 5770 33d0 b93f fefc 91b6 3b68 ba3f
000005f0: 9cae af91 e504 bb3f ad73 45fe cfa3 bb3f
00000600: 2b7f e8c5 9147 bc3f 6270 6d52 b0ed bc3f
00000610: 1593 2995 de98 bd3f 3807 3341 8746 be3f
00000620: 5258 beb5 7af9 be3f 84ab f0bd 07af bf3f
00000630: 296e 17be 0e35 c03f 93c4 54ca f693 c03f
00000640: 5262 1ca9 c3f5 c03f 61a1 4ff2 fe58 c13f
00000650: 8bfb 931a 41bf c13f 920c 46d1 0327 c23f
00000660: 2ae4 0d1e f191 c23f b912 8a11 72fe c23f
00000670: 1b98 6813 436e c33f 7383 06d7 bbdf c33f
00000680: 7986 ccfa ab54 c43f 4270 a50d 59cb c43f
00000690: 64bf 98c5 a645 c53f 5cef d8bc c7c1 c53f
000006a0: 9310 a5ac b441 c63f f0e9 ae60 8cc3 c63f
000006b0: 424e 478c 5d49 c73f 108f e248 32d1 c73f
000006c0: 8d40 9446 305d c83f 668a 6afe 4beb c83f
000006d0: 845d 612c c37d c93f c2c0 0eb0 7312 ca3f
000006e0: 4dfa 986d b4ab ca3f f491 9fa6 4b47 cb3f
000006f0: 5910 8391 aae7 cb3f c169 78c1 7e8a cc3f
00000700: 1802 b5f7 5432 cd3f a79a 09fc c0dc cd3f
00000710: 225e 6e62 6c8c ce3f 1869 3afd cf3e cf3f
00000720: 3b27 3f8b b3f6 cf3f 65b7 c5d8 b958 d03f
00000730: 7005 76e1 fbb8 d03f eeaf 7d78 bf1a d13f
00000740: 4ebc d0ce 887f d13f 2b73 e718 e8e5 d13f
00000750: 556f 53d6 724f d23f 7734 bf24 a9ba d23f
00000760: 9bc4 73a3 3229 d33f 4980 999e 7e99 d33f
00000770: 9727 e8b0 470d d43f a8c5 b491 eb82 d43f
00000780: 95b5 18be 38fc d43f 6fce 428c 7a77 d53f
00000790: c0bf 854e 94f6 d53f 95a1 2c24 be77 d63f
000007a0: 9856 3634 f1fc d63f 2584 7587 5184 d73f
000007b0: 270f 6726 ef0f d83f ce42 8919 d99d d83f
000007c0: 0206 db65 3730 d93f 1ff5 ef1e 03c5 d93f
000007d0: 1946 6370 7d5e da3f 7f00 1779 88fa da3f
000007e0: 3c1d 6ac5 7f9b db3f f446 1d74 2d3f dc3f
000007f0: 2be7 93bd 08e8 dc3f e1bf daa8 c293 dd3f

position_y f8 [941]
0.0 -2.0841687225823426e-08 -1.735490975696973e-07 -6.783561263602193e-07 -1.8477791791914683e-06 -4.048829924883456e-06 -7.672083535751686e-06 -1.3114882366559603e-05
-2.0774419691088443e-05 -3.104691140806569e-05 -4.432772356157275e-05 -6.101330465088019e-05 -8.150091852057303e-05 -0.00010619034948905648 -0.0001354822084434748 -0.00016977950583942498
-0.00020948470789710887 -0.00025500157376224977 -0.0003067311258418639 -0.0003650740263316844 -0.0004304255335699197 -0.0005031786180934325 -0.0005837179505372499 -0.0006724239443522838
-0.0007696658271091999 -0.0008758068075784722 -0.000991196284188746 -0.0011161763413500335 -0.0012510731265204889 -0.0013962048718871366 -0.0015518724207749493 -0.001718368944909618
-0.0018959695296800155 -0.002084942721217565 -0.0022855390037712937 -0.002498004275746367 -0.0027225669879566102 -0.0029594536235737824 -0.0032088742253635555 -0.0034710399463945283
-0.003746146681572872 -0.0040343947630602705 -0.004335970422840192 -0.004651067723910918 -0.004979867607989738 -0.005322562174002471 -0.005679331098919325 -0.006050368393334164
-0.006435856016535159 -0.006835993251971905 -0.007250967365232811 -0.007680985749203225 -0.008126243493912133 -0.008586958453210277 -0.009063335608510227 -0.009555605207542435
-0.010063983810839033 -0.01058871565041078 -0.011130030249953647 -0.011688187148402956 -0.012263429983382788 -0.01285603472281313 -0.013466260097140978 -0.014094399481742629
-0.014740727557789634 -0.015405555989555694 -0.01608917618671481 -0.016791918923861608 -0.017514093068885763 -0.018256049296840222 -0.019018114640257818 -0.019800660455743725
-0.02060403264245701 -0.02142862402753784 -0.02227480008873922 -0.023142975933677576 -0.024033537351620823 -0.024946922571576727 -0.025883538456683466 -0.026843847237062537
-0.02782827764817395 -0.028837316846204997 -0.02987141627868089 -0.030931089003102926 -0.0320168100646541 -0.033129119452285846 -0.03426851674389767 -0.03543556994875728
-0.036630804165540605 -0.03785481657519293 -0.03910815884128441 -0.0403914585337576 -0.041705294984284734 -0.0430503274385901 -0.04442716406180667 -0.04583649713518716
-0.04727896488789821 -0.04875529407307104 -0.050266154282740394 -0.05181230825859348 -0.053394458326182184 -0.055013404816691196 -0.056669884234870835 -0.058364736190996955
-0.06009873289351087 -0.06187275501419923 -0.06368761207248987 -0.065544227681853 -0.06744345036675985 -0.06938624866534977 -0.07137351189268645 -0.07340625560244637
-0.0754854117818345 -0.07761204520495296 -0.07978713251383678 -0.08201179002779896 -0.08428704113289101 -0.08661405614484088 -0.08899390739519589 -0.09142782178084724
-0.09391692289881329 -0.09646249695267067 -0.09906572124988455 -0.10172794417501814 -0.10445039932305883 -0.10723450029126133 -0.11008153967863599 -0.11299299949317927
-0.11597023420212929 -0.11901479759823334 -0.12212810903726505 -0.12531179765727662 -0.12856735088827465 -0.13189647697144163 -0.1353007347719869 -0.13878191560142425
-0.14234165330678858 -0.14598182645909166 -0.14970414763076229 -0.15351058707702253 -0.1574029400485834 -0.16138327315960158 -0.16545346851376933 -0.16961569402451396
-0.1738719230593971 -0.17822443005394284 -0.18267528430143665 -0.18722687228216553 -0.19188136414401874 -0.19664126425459133 -0.20150884882959622 -0.20648674630644193
-0.21157734448465623 -0.21678340241632077 -0.22210742532383104 -0.22755230980525598 -0.23312068468950542 -0.2388155914635154 -0.24463978911431208 -0.2505964718005401
-0.25668853561189986 -0.2629193356310532 -0.26929191241516504 -0.2758097907249748 -0.2824761633995199 -0.2892947341681977 -0.29626885644782414 -0.3034024228016949
-0.3106989560361052 -0.31816254802748023 -0.3257969003371218 -0.33360631529345547 -0.3415946831717542 -0.3497665285978512 -0.35812594115820073 -0.3666776803794573
-0.37542604644297656 -0.38437604719440194 -0.39353220543156625 -0.40289979161308487 -0.4124835639703831 -0.4222890708109323 -0.43232131947429475 -0.4425861523665583
-0.45308884053594195 -0.463835537830375 -0.47483179460619807 -0.48608409467596686 -0.4975982843852813 -0.5093811973060064 -0.5214389936243657 -0.533778877842915
-0.5464073431078768 -0.5593319875119496 -0.5725596576564719 -0.586098369495849 -0.5999553450754991 -0.6141390442292335 -0.6286570880607202 -0.6435184081977536
-0.6587310501841007 -0.6743044474157994 -0.6902470971861538 -0.7065689668744382 -0.7232790349363285 -0.7403878373887104 -0.7579048655608032 -0.7758412614215465
-0.7942070633992575 -0.8130140596342756 -0.8322728726339313 -0.8519959801040113 -0.8721946286337101 -0.8928820323632108 -0.9140701052860594 -0.9357728486555971
-0.9580028908468294 -0.9807750750873881 -1.0041027951358235 -1.0280017956529173 -1.0524862912273976 -1.0775729924752102 -1.103276995173684 -1.1296160460005895
-1.15660618771912 -1.184266279344513 -1.2126133824569176 -1.2416675515130782 -1.2714469454448893 -1.3019729048243225 -1.3332647719319584 -1.3653452725370379
-1.3982350265887902 -1.4319582534934416 -1.4665369544895317 -1.5019969614952429 -1.538361771070961 -1.5756589581831755 -1.6139136404315744 -1.6531552794242745
-1.6934107526564313 -1.734711566630232 -1.7770865123962165 -1.8205693160912935 -1.8651908527077918 -1.9109872613534682 -1.9579916902854748 -2.0062429059424662
-2.0557765406661863 -2.1066342264193607 -2.15885431491314 -2.212481568917229 -2.2675573227147825 -2.3241297660465543 -2.3822435109241704 -2.4419505055299764
00000000: 0000 0000 0000 0000 3fc4 4b5b eb60 56be
00000010: a39b 9201 1a4b 87be e3cf bce5 08c3 a6be
00000020: 1eea 6db1 2600 bfbe 72f7 33e5 65fb d0be
00000030: 8188 d121 eb16 e0be 6817 16b5 ff80 ebbe
00000040: cc9f 2b40 97c8 f5be 4a2f ccc0 0b47 00bf
00000050: 6b0a e9fb 903d 07bf 5d2c 4d2f 11fd 0fbf
00000060: c6e6 591e 6f5d 15bf 7b50 1550 50d6 1bbf
00000070: aeab 144f 07c2 21bf 9a32 a8d9 da40 26bf
00000080: 9327 59f0 2375 2bbf eee8 736b 37b6 30bf
00000090: 9ec5 7627 181a 34bf 5460 f300 edec 37bf
000000a0: cc43 0d97 5735 3cbf 1293 b8da f77c 40bf
000000b0: 3a88 fac0 9420 43bf 8e1f ce6c b308 46bf
000000c0: 6146 34c7 6c38 49bf 9c17 4fcc ccb2 4cbf
000000d0: d4ed f7e7 603d 50bf 199f 7d38 9549 52bf
000000e0: a9ab 738a 617f 54bf 1e6f d990 1be0 56bf
000000f0: 72e2 dd52 066d 59bf f42f ef9a 5c27 5cbf
00000100: eeb2 f2c7 4510 5fbf 8238 a719 7114 61bf
00000110: 443a cc68 1fb9 62bf 7d5a 6dd5 b176 64bf
00000120: 3509 9505 a34d 66bf 4d76 df90 6c3e 68bf
00000130: 3274 5b3b 7f49 6abf 0225 b161 4c6f 6cbf
00000140: 9dcd 772f 3db0 6ebf b75f 1099 5e86 70bf
00000150: 95b0 9932 98c2 71bf 2738 407c ff0c 73bf
00000160: fd50 3c08 c565 74bf d305 7e67 1ccd 75bf
00000170: be06 54d5 3543 77bf f8c9 0c66 45c8 78bf
00000180: e8f5 cdf1 7b5c 7abf e60f 3ff7 0e00 7cbf
00000190: 1d2a 2bbb 30b3 7dbf bc7d 80e9 1876 7fbf
000001a0: 4d90 5df0 7da4 80bf de45 d40d 0a96 81bf
000001b0: 34f2 3f50 cc8f 82bf d709 e19e e391 83bf
000001c0: b022 ae0a 6d9c 84bf 10b9 665b 89af 85bf
000001d0: cc94 6a5f 57cb 86bf 1654 6aec f9ef 87bf
000001e0: 722b b9b5 911d 89bf af99 86c5 4354 8abf
000001f0: 25b3 bbd5 3294 8bbf 8291 a546 86dd 8cbf
00000200: b357 3df6 6230 8ebf 2bf7 36b9 f28c 8fbf
00000210: c584 2a56 ae79 90bf aed4 759a e631 91bf
00000220: 87c3 cce3 36ef 91bf c282 bcba b6b1 92bf
00000230: 9f5c a511 7c79 93bf 4af0 62d4 9f46 94bf
00000240: bbd4 7539 3919 95bf 7812 969d 62f1 95bf
00000250: 90d1 9f87 34cf 96bf acac 11d3 cab2 97bf
00000260: 9cc8 ba63 3f9c 98bf 64b4 52a2 af8b 99bf
00000270: 6471 b4dc 3681 9abf 5792 ed17 f47c 9bbf
00000280: ba95 9c19 047f 9cbf 700d 0993 8787 9dbf
00000290: 0e30 02d0 9c96 9ebf 7fbe ca3e 66ac 9fbf
000002a0: 05c4 4ce0 8164 a0bf 6689 2fc9 4cf6 a0bf
000002b0: a51a 659d a48b a1bf 8e0e 176c 9c24 a2bf
000002c0: 4998 d5d3 45c1 a2bf 2b81 5fde b461 a3bf
000002d0: 54ce 750e fc05 a4bf b265 e172 30ae a4bf
000002e0: 2b19 0e7c 655a a5bf 8796 dc48 b10a a6bf
000002f0: 0d23 6641 28bf a6bf b651 51a0 e177 a7bf
00000300: 25ea f6cf f234 a8bf b6f5 1933 74f6 a8bf
00000310: 30e9 7a41 7cbc a9bf dc79 0093 2487 aabf
00000320: 72e0 98b8 8456 abbf 1700 0f8d b72a acbf
00000330: aeeb e9c6 d503 adbf e628 5c92 fbe1 adbf
00000340: d109 9ed8 42c5 aebf b44b 9926 c9ad afbf
00000350: 61fd 02d3 d44d b0bf 82cb 55aa 81c7 b0bf
00000360: 0396 a755 f943 b1bf 1d4f cf14 4cc3 b1bf
00000370: a637 61d3 8845 b2bf 0e63 229b c0ca b2bf
00000380: 2596 ed0e 0353 b3bf 8452 ee0b 62de b3bf
00000390: 3bde c9f4 ed6c b4bf ec49 0e84 b9fe b4bf
000003a0: 9a72 24e5 d593 b5bf 8a18 84ba 562c b6bf
000003b0: 0a3d ce01 4ec8 b6bf fc45 7e50 d067 b7bf
000003c0: f22f 6480 f00a b8bf b4c4 b325 c4b1 b8bf
000003d0: 9843 ec00 5f5c b9bf 252e 52b1 d70a babf
000003e0: b48c 25e9 42bd babf 9efd c05f b873 bbbf
000003f0: 3825 d0c4 4d2e bcbf cd09 80f5 1bed bcbf
00000400: aa25 35ab 39b0 bdbf 2baa 6cf7 c077 bebf
00000410: a3c4 3caa c943 bfbf 30d8 5e8c 370a c0bf
00000420: ec01 b31b e574 c0bf 0e65 86d7 fbe1 c0bf
00000430: d437 7cd3 8851 c1bf 8f65 6416 9bc3 c1bf
00000440: 4bd6 e754 4038 c2bf eddf 3951 88af c2bf
00000450: b628 1369 8129 c3bf 06f4 8a23 3ca6 c3bf
00000460: e6c5 e68f c725 c4bf 25c4 2b04 35a8 c4bf
00000470: 3d61 234a 942d c5bf e99f 5c91 f7b5 c5bf
00000480: 63ca 9d67 6f41 c6bf c007 37e1 0ed0 c6bf
00000490: ac5b ee59 e761 c7bf c12f b1d6 0cf7 c7bf
000004a0: 4aef da8b 918f c8bf 863f 827b 8a2b c9bf
000004b0: d9f2 c9bd 0acb c9bf 70c8 385f 286e cabf
000004c0: 876c 9167 f714 cbbf 54cb d8fb 8ebf cbbf
000004d0: 8e78 fb1f 046e ccbf 3415 5f20 6f20 cdbf
000004e0: 5c9b 610a e6d6 cdbf 442b 8e61 8291 cebf
000004f0: 65ed c54a 5b50 cfbf 6615 b8c8 c509 d0bf
00000500: fa84 6dc0 956d d0bf f65e 019f abd3 d0bf
00000510: a6a0 3925 143c d1bf cc24 c51b dea6 d1bf
00000520: d5d4 ece6 1614 d2bf 3713 8a0f ce83 d2bf
00000530: ff11 51a6 11f6 d2bf eb77 ddfe f16a d3bf
00000540: f6e3 c4df 7de2 d3bf 7ec3 a572 c65c d4bf
00000550: d182 053e dbd9 d4bf 492a 7b4d ce59 d5bf
00000560: 5b73 2df2 afdc d5bf ca0b 6426 9362 d6bf
00000570: 94ea 4711 89eb d6bf 47c9 59a9 a577 d7bf
00000580: 9f81 e2f7 fa06 d8bf 9334 04fe 9d99 d8bf
00000590: cd15 10b4 a12f d9bf 4ec7 2235 1cc9 d9bf
000005a0: fefa 5876 2166 dabf efd5 25bd c806 dbbf
000005b0: cc5c 200a 27ab dbbf f6ea 84de 5453 dcbf
000005c0: 1934 1256 68ff dcbf da0e 6d40 7baf ddbf
000005d0: a6d0 3be5 a463 debf 854c 6f76 001c dfbf
000005e0: 5cc0 7e79 a6d8 dfbf 470d f4cb d94c e0bf
000005f0: c839 0fd4 a0af e0bf 5330 f470 b714 e1bf
00000600: a129 9e40 2b7c e1bf 5e0e 3f32 0ce6 e1bf
00000610: 9397 94a1 6852 e2bf b227 275e 51c1 e2bf
00000620: f61b 458d d532 e3bf 0129 c5ec 06a7 e3bf
00000630: 01d2 3378 f51d e4bf a4aa b2ea b397 e4bf
00000640: 77d0 ac23 5314 e5bf bd57 a6eb e693 e5bf
00000650: d259 9214 8116 e6bf d803 a385 369c e6bf
00000660: 1ae3 1d13 1a25 e7bf 071a 7ed5 41b1 e7bf
00000670: 7e03 62b4 c140 e8bf 792c 960d b1d3 e8bf
00000680: 10aa 71ee 246a e9bf 3428 aa0f 3604 eabf
00000690: 53f1 29b8 faa1 eabf a4d8 db12 8d43 ebbf
000006a0: 1a51 b7b5 04e9 ebbf bff3 0557 7d92 ecbf
000006b0: 8e8e 0ef3 0f40 edbf cdbc aee6 d9f1 edbf
000006c0: 8e23 b5ad f5a7 eebf cf6e 0769 8262 efbf
000006d0: 88e3 ae17 ce10 f0bf d7ef c802 b272 f0bf
000006e0: c7f5 84dd fbd6 f0bf fbbd 9b2d bd3d f1bf
000006f0: b433 4bc7 05a7 f1bf f4bf 6946 e812 f2bf
00000700: 7fad 697d 7581 f2bf 00a5 b832 c1f2 f2bf
00000710: ab82 454a dd66 f3bf 8f0c 64cb dedd f3bf
00000720: ef8e 94c0 d857 f4bf 35fa 678a e1d4 f4bf
00000730: e1b4 0571 0d55 f5bf 70b7 d448 74d8 f5bf
00000740: f320 f5b0 2b5f f6bf a2dd bf0e 4de9 f6bf
00000750: 1587 1e74 ef76 f7bf d903 45f7 2d08 f8bf
00000760: a4a9 823b 219d f8bf 1dbd f02a e635 f9bf
00000770: f78c 031c 97d2 f9bf 5b64 45f3 5273 fabf
00000780: 77aa 95df 3518 fbbf 62b7 6aea 60c1 fbbf
00000790: 9f78 4e44 f26e fcbf 3c69 8b4a 0d21 fdbf
000007a0: 65da 125d d2d7 fdbf 3c5f e960 6793 febf
000007b0: a0da 3918 ef53 ffbf d4d6 a614 c90c 00c0
000007c0: be5c 90f8 3a72 00c0 e3d7 980b 63da 00c0
000007d0: 1a0b 3b69 5545 01c0 a504 6c89 29b3 01c0
000007e0: 27ec f617 f523 02c0 02a4 c658 d197 02c0
000007f0: 6238 94af d50e 03c0 869d bd58 1d89 03c0

position_z f8 [941]
0.0 0.0012063472812704106 0.004165827358270347 0.00958054741144316 0.017932420322491295 0.029501140480528563 0.04442820447014984 0.06277709647551837
0.0845719240179722 0.10982133435096535 0.13852801920045807 0.17069553803320087 0.2063275845057866 0.2454305729136974 0.2880102290437086 0.3340738977620827
0.38362645340503737 0.43667317559873536 0.4932153638167796 0.5532538555995464 0.6167843873328523 0.6838017042920449 0.7542946735447074 0.8282509467785841
0.9056518399459526 0.9864775318501358 1.070701722305875 1.1582973594935613 1.2492310698231477 1.3434694065959307 1.4409730179667157 1.5417034044288145
1.6456167653901508 1.7526712490343277 1.8628204004097584 1.9760208879172945 2.092225470273798 2.211391190102404 2.3334717834556877 2.4584263411553136
2.586211099392043 2.716788580614121 2.8501187223635984 2.986168518801882 3.124902463130675 3.266292716478472 3.410308854092306 3.5569285899029515
3.706126827108012 3.8578869649784076 4.012189260553381 4.169022740357638 4.328372882597612 4.490234151703639 4.654597010695221 4.821461091817226
4.990821547542809 5.162682866683086 5.337044570571726 5.513915681114891 5.693299766443875 5.87521006557783 6.059653885510514 6.246648386272944
6.436204329190932 6.628342526062869 6.823076936180981 7.020431783900078 7.220423999956108 7.4230810126987805 7.6284225273368635 7.836478997387634
8.047272733612681 8.260837063763777 8.477196761188699 8.696387902589656 8.918437604516328 9.143384590581169 9.37125822234576 9.60209978917742
9.835940818379349 10.07282510263181 10.312786272500013 10.555870578219636 10.802113706084217 11.051564333071513 11.304260166917635 11.560252293897028
11.819580420744268 12.08229803763885 12.348446838450046 12.618082722772073 12.891249369268882 13.168005102403331 13.448395591934672 13.732481611781255
14.020310836989989 14.311946523989977 14.607438374554611 14.906852168590875 15.210239662821717 15.51766920906418 15.829194653530497 16.144886975535268
16.464802151323703 16.78901385013221 17.117580224543822 17.450577702821327 17.78806666572018 18.13012637618809 18.476819500434164 18.828228218177156
19.184417543682454 19.54547266200647 19.911461003371155 20.282470853201904 20.658572130872326 21.039856323743948 21.42639591888011 21.81828571381932
22.215600847281035 22.618439542010844 23.02687967788003 23.441023024859327 23.86095029915367 24.286766947210207 24.71855662258349 25.156428584921287
25.600469532225265 26.050792681824564 26.50748788955779 26.970672483037987 27.440439595908803 27.916910827106758 28.400182714937618 28.890381299580643
29.38760665806444 29.891989451040292 30.40363343589763 30.92267408278377 31.449218979110217 31.983408603854578 32.5253545325145 33.075202463117215
33.6330681262624 34.19910266077177 34.77342612881929 35.35619534388581 35.947534886224105 36.547607490786866 37.156542453071346 37.77450868996762
38.40164042070368 39.03811301909402 39.6840658486748 40.33968103062989 41.005103306264246 41.68052185094522 42.36608703096866 43.06199540021749
43.76840321188716 44.48551474133319 45.21349240628368 45.95254856640107 46.7028520984169 47.46462383035683 48.238039410482855 49.023328541980284
49.82067397652192 50.630314723421435 51.452440990503334 52.287301550244045 53.135094441674916 53.99607868530527 54.87046055052494 55.75850982057501
56.66044142034039 57.57653644257927 58.50701892072964 59.45218183833049 60.412258820649654 61.38755536031954 62.378315190336345 63.38485697059522
64.40743509306708 65.44638208611067 66.50196359005572 67.57452674934935 68.66434908354309 69.77179315076658 70.89714902559743 72.04079553166143
73.20303602317105 74.38426649961302 75.58480437253033 76.80506379112491 78.04537705973132 79.30617751984214 80.58781326708747 81.890737952613
83.21531643049907 84.56202386009623 85.93124289617485 87.32347149323874 88.73911123110025 90.17868424262267 91.64261224693597 93.13144304352191
94.64561980368534 96.18571759662515 97.75220246688448 99.34567848204024 100.96663609999088 102.61571025288379 104.2934174830287 106.00042560427623
107.7372790589245 109.5046807254991 111.3032049212449 113.13359195478472 114.99644816968066 116.89255387119044 118.82254977581516 120.78725897403469
122.78735911849346 124.82371911897089 126.89705636817843 129.0082889013121 131.1581769229204 133.34769120157657 135.577638124043 137.8490451358676
140.16276850997835 142.51989668641406 144.92133990151407 147.36825232474243 149.8616026514974 152.4026159825706 154.99232443831255 157.63202977608492
160.3228330364789 163.06611894696366 165.86306356076304 168.71514155129648 171.6236107523491 174.59004350690202 177.61578696276783 180.70251970241432
183.85168659108749 187.06508198109108 190.34425784951412 193.6911349416114 197.1073828725888 200.59506065076744 204.1559673524551 207.79231354626495
00000000: 0000 0000 0000 0000 5423 b987 c9c3 533f
00000010: 279c 3bc4 2f10 713f 65ba 7a4e f79e 833f
00000020: bafb 4a5b e05c 923f 46fa 3b06 8c35 9e3f
00000030: 6147 702a 4bbf a63f 23d9 4ce8 2812 b03f
00000040: 1826 d16f 81a6 b53f 23c3 703f 401d bc3f
00000050: 1fd7 0540 49bb c13f 0e7e b6f4 59d9 c53f
00000060: 1886 db39 f168 ca3f f82a 0dde 446a cf3f
00000070: 25ff a974 c26e d23f 1377 557c 7761 d53f
00000080: 9d53 d0f7 558d d83f 8f2b 0f0c 74f2 db3f
00000090: 7194 5e2c d790 df3f 5ff3 056e 41b4 e13f
000000a0: 5be5 889c b2bc e33f c744 9c1c b4e1 e53f
000000b0: 0c7d 4d95 2e23 e83f 1871 2921 0881 ea3f
000000c0: b829 4491 19fb ec3f cc1f 3154 3991 ef3f
000000d0: 9731 1121 9821 f13f 8816 e1cf 6288 f23f
000000e0: a699 e0b7 d9fc f33f c718 c8c6 d97e f53f
000000f0: 105e 29b9 390e f73f 3a75 6230 d1aa f83f
00000100: 9c99 d13e 7254 fa3f dcde f301 f10a fc3f
00000110: fa4d a1c3 1cce fd3f 2415 1d14 c89d ff3f
00000120: 3579 15b5 e0bc 0040 0038 41dd edb0 0140
00000130: d5a5 2041 f3aa 0240 9918 f76d dbaa 0340
00000140: 3b87 e371 8fb0 0440 3f12 bfa6 fbbb 0540
00000150: d426 720b 0bcd 0640 6fca 0452 ace3 0740
00000160: 53b0 d2dc ccff 0840 1a81 6313 5e21 0a40
00000170: 7eaf 2c02 5048 0b40 7eb9 fef9 9674 0c40
00000180: a90e 6ad2 25a6 0d40 c5f9 51d7 f3dc 0e40
00000190: bcc1 6d57 7b0c 1040 2677 184c 14ad 1040
000001a0: 9799 1efb 4050 1140 38cc 03f1 fff5 1140
000001b0: 39fb c3ad 4e9e 1240 6f2a b118 2d49 1340
000001c0: 5179 7bec 99f6 1340 f217 6056 96a6 1440
000001d0: 8799 3f36 2259 1540 fb28 8de9 3f0e 1640
000001e0: b4cd bc5f f0c5 1640 ae25 4311 3780 1740
000001f0: 5063 7de8 153d 1840 279d 0265 91fc 1840
00000200: a4fe 0059 acbe 1940 1381 2039 6c83 1a40
00000210: eff4 2bae d44a 1b40 5e99 ce11 ec14 1c40
00000220: 8d42 3cd4 b6e1 1c40 3866 2426 3cb1 1d40
00000230: 0ded eb31 8183 1e40 7548 46f3 8d58 1f40
00000240: cdb7 b921 3418 2040 72e6 846f 8c85 2040
00000250: 0b20 4622 53f4 2040 bce7 85f4 8c64 2140
00000260: e0a0 2574 3dd6 2140 cb97 7eb4 6949 2240
00000270: 39b1 c68e 15be 2240 1ae4 6e6c 4634 2340
00000280: 5ca9 586f 00ac 2340 5043 f454 4925 2440
00000290: f40c b685 25a0 2440 1e86 8411 9b1c 2540
000002a0: 329c cea5 ae9a 2540 495d e8a3 661a 2640
000002b0: 03c6 14fd c79b 2640 eb97 7f63 d91e 2740
000002c0: bd13 7f0b a0a3 2740 205e e8f7 222a 2840
000002d0: 3913 bf9f 67b2 2840 b00e b156 753c 2940
000002e0: 532e 5bd6 51c8 2940 52c4 c8c3 0456 2a40
000002f0: 590f 661b 94e5 2a40 310b 6fd4 0777 2b40
00000300: b640 992e 660a 2c40 9246 6d74 b79f 2c40
00000310: 4c18 a229 0237 2d40 19cf 6ced 4ed0 2d40
00000320: 5e48 7888 a46b 2e40 5827 46f0 0b09 2f40
00000330: f2dc 9d33 8ca8 2f40 538a 1550 1725 3040
00000340: b60b 1746 fd76 3040 ad68 cacf fcc9 3040
00000350: 7212 d3bc 191e 3140 a6ec 710f 5973 3140
00000360: 0056 acbc bec9 3140 2913 52f6 4f21 3240
00000370: b575 c0d7 107a 3240 fbb1 b6c3 06d4 3240
00000380: bfec f6fc 352f 3340 0b2e ac18 a48b 3340
00000390: f70e 2182 55e9 3340 4d93 8402 5048 3440
000003a0: 5727 e42e 98a8 3440 e004 2706 340a 3540
000003b0: eabc 6e48 286d 3540 54a3 2b2c 7bd1 3540
000003c0: db0f fc9d 3137 3640 637d c70d 529e 3640
000003d0: f76b 2996 e106 3740 c68d 8ce2 e670 3740
000003e0: b058 223d 67dc 3740 73d7 038f 6949 3840
000003f0: ff51 aa53 f3b7 3840 8065 28b4 0b28 3940
00000400: e526 0b5f b899 3940 0950 cbbf 000d 3a40
00000410: 4bc4 f0b9 ea81 3a40 78c6 e9fd 7df8 3a40
00000420: b14a 3ca6 c070 3b40 97c5 ffaa baea 3b40
00000430: e114 d95f 7266 3c40 39ab 6207 f0e3 3c40
00000440: 3f19 a030 3a63 3d40 5598 b06b 59e4 3d40
00000450: 9fc0 5685 5467 3e40 506c 625e 34ec 3e40
00000460: 5905 d803 0073 3f40 1229 90aa c0fb 3f40
00000470: 42fa 3bd1 3e43 4040 63d5 fb3b a089 4040
00000480: f037 5960 08d1 4040 da47 2c32 7c19 4140
00000490: 4b93 9ca0 ff62 4140 0f7d 1ccf 97ad 4140
000004a0: 6813 bad2 48f9 4140 b3fc 9300 1846 4240
000004b0: 4330 4695 0994 4240 7af0 ca19 23e3 4240
000004c0: 45d6 0bf4 6833 4340 c347 2de3 e084 4340
000004d0: 332f 4078 8fd7 4340 40d0 02ab 7a2b 4440
000004e0: d2c0 a239 a780 4440 f502 0b57 1bd7 4440
000004f0: 04c0 98f0 db2e 4540 e137 1c77 ef87 4540
00000500: 2e99 5409 5be2 4540 40e0 d758 253e 4640
00000510: 6477 1bb8 539b 4640 ab45 861c edf9 4640
00000520: 1250 bc0e f759 4740 9429 2ecb 78bb 4740
00000530: 6c97 4d13 781e 4840 316f fe6d fc82 4840
00000540: 82eb 48d8 0be9 4840 24a4 2127 ae50 4940
00000550: 74ca 1c96 e9b9 4940 b331 154c c624 4a40
00000560: bd6e 50c6 4a91 4a40 7dd0 a081 7fff 4a40
00000570: 3c7b 5640 6b6f 4b40 4188 8cd9 16e1 4b40
00000580: 94a4 2e58 8954 4c40 42ea 36f2 cbc9 4c40
00000590: 577e f9fe e540 4d40 c0bc 2f18 e1b9 4d40
000005a0: c216 a4e5 c434 4e40 20fb fe69 9bb1 4e40
000005b0: 8d09 d5a1 6c30 4f40 0c2c 43fe 42b1 4f40
000005c0: d0fd a36a 131a 5040 6657 2b86 915c 5040
000005d0: 9dc4 e42b 20a0 5040 7dc8 d70b c5e4 5040
000005e0: 7dbc 04b2 842a 5140 6f74 190f 6571 5140
000005f0: 1225 bfe3 6ab9 5140 c393 dc64 9c02 5240
00000600: 7edb cd8a fe4c 5240 5332 84d2 9798 5240
00000610: d6a4 516f 6de5 5240 d184 472a 8633 5340
00000620: 38e2 2e75 e782 5340 839f 9869 98d3 5340
00000630: eb92 89bb 9e25 5440 d8f1 c1d9 0179 5440
00000640: 3dd2 90be c7cd 5440 d7ab ec32 f823 5540
00000650: 03ed cd7b 997b 5540 8429 c7c1 b3d4 5540
00000660: a46b 3199 4d2f 5640 fe97 0890 6f8b 5640
00000670: 5726 1e8f 20e9 5640 a74d 1590 6948 5740
00000680: 9f9e b9d5 51a9 5740 fef2 0ecc e20b 5840
00000690: 52cf d015 2470 5840 cdd2 a398 1fd6 5840
000006a0: 0126 a95d dd3d 5940 a8fc f9cb 67a7 5940
000006b0: b56b 1f5a c712 5a40 a31c 1df9 0680 5a40
000006c0: cf86 8194 2fef 5a40 2cbc 62b0 4c60 5b40
000006d0: eb2e 9db5 67d3 5b40 c833 45c5 8c48 5c40
000006e0: 003c 8bce c5bf 5c40 98ab 459a 1f39 5d40
000006f0: 549d d0a7 a4b4 5d40 89bd 7673 6232 5e40
00000700: c108 8017 64b2 5e40 7944 65d0 b734 5f40
00000710: acff 1c5f 69b9 5f40 c501 16e7 4320 6040
00000720: 9add 0cc9 0f65 6040 1b7c 4c49 20ab 6040
00000730: 0076 f202 7cf2 6040 236c b460 2b3b 6140
00000740: 9f65 4e66 3585 6140 4f2e 60fe a2d0 6140
00000750: 1730 d19d 7b1d 6240 3b6e 19b9 c86b 6240
00000760: 814a b93f 92bb 6240 9bbf e93a e20c 6340
00000770: 5e32 2e1f c15f 6340 414c 8296 39b4 6340
00000780: d9b7 f2a5 540a 6440 5b5b 7ba5 1d62 6440
00000790: 17fb 7837 9ebb 6440 88da 8870 e216 6540
000007a0: bf58 899e f473 6540 90ab eba2 e1d2 6540
000007b0: 834c dc86 b433 6640 4955 990a 7b96 6640
000007c0: 33e5 3c04 41fb 6640 0b8b ce26 1562 6740
000007d0: bea1 0929 04cb 6740 016b 06c7 1d36 6840
000007e0: 6cbd 34ae 6fa3 6840 d845 a2bc 0a13 6940
000007f0: 3ac1 3eaf fd84 6940 582c f0a1 5af9 6940
