yeonu/results_6dof/SCUD-B_45deg_professor_20251217_140153.npz (npz, 6374 bytes, 19 tensors)

time f8 [10]
0	0x0000000000000000	0.0
1	0x3f61e5e60cc3f700	0.002184819522993986
2	0x3f937c840d0a5089	0.019029677673259946
3	0x3fb8a4f29eaf5dc7	0.09626690267702208
4	0x3fd840c01ed8cf58	0.3789520550956147
5	0x3ff6103007b633d6	1.3789520550956147
6	0x4003081803db19eb	2.3789520550956147
7	0x400b081803db19eb	3.3789520550956147
8	0x4011840c01ed8cf6	4.378952055095615
9	0x4014000000000003	5.000000000000003

V f8 [10]
0	0x3fb999999999999a	0.1
1	0x3fc6e50965b80909	0.17886464564077922
2	0x3fe95b9aca982950	0.7924322087213032
3	0x400ce24ef3769563	3.6105021496356797
4	0x402be2d9af4be1d9	13.943067052853552
5	0x404959e76e66c5cd	50.702375221425974
6	0x4055ef2afed475d3	87.73699923275062
7	0x405f3ef071cf7270	124.98342557199953
8	0x40644c2d440fd6e6	162.38052561849253
9	0x406735d27caf04c5	185.68194421943022

gamma f8 [10]
0	0x0000000000000000	0.0
1	0xbfebd8b24782f24a	-0.8702021977147265
2	0xbfee7c8481e4f3c4	-0.9526999032019536
3	0xbfef155158e2aee8	-0.9713522659344251
4	0xbfef326098741a4e	-0.9748995759590089
5	0xbfef299bec7382e8	-0.9738292329967324
6	0xbfef0fd1c2cff94a	-0.9706810765199319
7	0xbfeeeb46f6d25524	-0.9662203617796519
8	0xbfeebd03be6d9416	-0.9605730742738412
9	0xbfee9b9610a71c79	-0.956492455029447

psi f8 [10]
0	0x0000000000000000	0.0
1	0x0000000000000000	0.0
2	0x0000000000000000	0.0
3	0x0000000000000000	0.0
4	0x0000000000000000	0.0
5	0x0000000000000000	0.0
6	0x0000000000000000	0.0
7	0x0000000000000000	0.0
8	0x0000000000000000	0.0
9	0x0000000000000000	0.0

position_x f8 [10]
0	0x0000000000000000	0.0
1	0x3f2aa294617ebb65	0.00020320950784255134
2	0x3f74a6cd4a59ddc7	0.005041887202984658
3	0x3fb9f762054bcf32	0.10143101338672691
4	0x3ff7eb1e4738be89	1.4949019224258413
5	0x4033a1848daf6478	19.6309288552479
6	0x404d4f9734518457	58.62180189113922
7	0x405db81dda5a1f56	118.87682207871453
8	0x40691c1c50df3ecc	200.87845653154943
9	0x40706feaf56943ef	262.99486294860156

position_y f8 [10]
0	0x0000000000000000	0.0
1	0x0000000000000000	0.0
2	0x0000000000000000	0.0
3	0x0000000000000000	0.0
4	0x0000000000000000	0.0
5	0x0000000000000000	0.0
6	0x0000000000000000	0.0
7	0x0000000000000000	0.0
8	0x0000000000000000	0.0
9	0x0000000000000000	0.0

altitude f8 [10]
0	0x0000000000000000	0.0
1	0xbf2db3f197637f9f	-0.0002266151820498026
2	0xbf7becae3f47f04b	-0.006817513135043705
3	0xbfc2cca9c0f2ed4c	-0.14687082215628278
4	0xc0019744ebef9a77	-2.1988619263168476
5	0xc03cec53df9213aa	-28.92315480533913
6	0xc05585e1cb85300a	-86.09190643316848
7	0xc065b706b7dd34dd	-173.71957009510416
8	0xc0723b0ebd2c1d43	-291.6910983775344
9	0xc077c230ceff4c98	-380.1369161579728

phi f8 [10]
0	0x0000000000000000	0.0
1	0x0000000000000000	0.0
2	0x0000000000000000	0.0
3	0x0000000000000000	0.0
4	0x0000000000000000	0.0
5	0x0000000000000000	0.0
6	0x0000000000000000	0.0
7	0x0000000000000000	0.0
8	0x0000000000000000	0.0
9	0x0000000000000000	0.0

theta f8 [10]
0	0x3fe921fb54442d18	0.7853981633974483
1	0x3fe921fb54442d18	0.7853981633974483
2	0x3fe921fb54442d18	0.7853981633974483
3	0x3fe921fb54442d18	0.7853981633974483
4	0x3fe921fb54442d18	0.7853981633974483
5	0x3fe921fb54442d18	0.7853981633974483
6	0x3fe921fb54442d18	0.7853981633974483
7	0x3fe921fb54442d18	0.7853981633974483
8	0x3fe921fb54442d18	0.7853981633974483
9	0x3fe921fb54442d18	0.7853981633974483

p f8 [10]
0	0x0000000000000000	0.0
1	0x0000000000000000	0.0
2	0x0000000000000000	0.0
3	0x0000000000000000	0.0
4	0x0000000000000000	0.0
5	0x0000000000000000	0.0
6	0x0000000000000000	0.0
7	0x0000000000000000	0.0
8	0x0000000000000000	0.0
9	0x0000000000000000	0.0

q f8 [10]
0	0x0000000000000000	0.0
1	0x0000000000000000	0.0
2	0x0000000000000000	0.0
3	0x0000000000000000	0.0
4	0x0000000000000000	0.0
5	0x0000000000000000	0.0
6	0x0000000000000000	0.0
7	0x0000000000000000	0.0
8	0x0000000000000000	0.0
9	0x0000000000000000	0.0

r f8 [10]
0	0x0000000000000000	0.0
1	0x0000000000000000	0.0
2	0x0000000000000000	0.0
3	0x0000000000000000	0.0
4	0x0000000000000000	0.0
5	0x0000000000000000	0.0
6	0x0000000000000000	0.0
7	0x0000000000000000	0.0
8	0x0000000000000000	0.0
9	0x0000000000000000	0.0

mass f8 [10]
0	0x40b6e40000000000	5860.0
1	0x40b6e3d60d2cd215	5859.836138535776
2	0x40b6e292a1540b7f	5858.572774174506
3	0x40b6dcc7aceb82a0	5852.779982299224
4	0x40b6c7941edbd9ee	5831.57859586783
5	0x40b67c941edbd9ee	5756.57859586783
6	0x40b631941edbd9ee	5681.57859586783
7	0x40b5e6941edbd9ee	5606.57859586783
8	0x40b59b941edbd9ee	5531.57859586783
9	0x40b56d0000000001	5485.000000000001

mach f8 [10]
0	0x3f334679ace01347	0.00029411764705882356
1	0x3f413d04105a6128	0.0005260724871787624
2	0x3f6317cbe3d5f4f1	0.0023306829668273622
3	0x3f85bf7ab14a3a45	0.010619123969516706
4	0x3fa4ff2265dec82b	0.04100902074368692
5	0x3fc3168416e3f852	0.14912463300419404
6	0x3fd083e423429af9	0.25804999774338416
7	0x3fd786bb106c01d6	0.367598310505881
8	0x3fde90d4bad294ee	0.4775897812308604
9	0x3fe179d7b5387c10	0.5461233653512654

alpha f8 [10]
0	0x0000000000000000	0.0
1	0xbfb5b5b799f62990	-0.08480403431727823
2	0xbfc56a24b6831ab1	-0.16730173980450538
3	0xbfc7cd58127a0741	-0.1859541025369769
4	0xbfc8419510bfb4d7	-0.18950141256156058
5	0xbfc81e8260bd573e	-0.18843106959928407
6	0xbfc7b759ba2f30c5	-0.1852829131224835
7	0xbfc7252e8a38a02c	-0.18082219838220348
8	0xbfc66c21a8a59bf6	-0.17517491087639286
9	0xbfc5e66af18bbd82	-0.17109429163199869

beta f8 [10]
0	0x0000000000000000	0.0
1	0x0000000000000000	0.0
2	0x0000000000000000	0.0
3	0x0000000000000000	0.0
4	0x0000000000000000	0.0
5	0x0000000000000000	0.0
6	0x0000000000000000	0.0
7	0x0000000000000000	0.0
8	0x0000000000000000	0.0
9	0x0000000000000000	0.0

u f8 [10]
0	0x3fb999999999999a	0.1
1	0x3fc6cff94ea3fb4e	0.17822185840483445
2	0x3fe900f77e3a00f6	0.7813680138933978
3	0x400c62d52e6b50a4	3.548258173608774
4	0x402b630d773f40a8	13.693462110968838
5	0x4048e707450a0974	49.80490935316166
6	0x40558f0f480c1eff	86.23530770477008
7	0x405ebc869cd593d3	122.94571610314533
8	0x4063fca7a73f2ee2	159.89546549168068
9	0x4066df10e008aaf6	182.9708099526685

v f8 [10]
0	0x0000000000000000	0.0
1	0x0000000000000000	0.0
2	0x0000000000000000	0.0
3	0x0000000000000000	0.0
4	0x0000000000000000	0.0
5	0x0000000000000000	0.0
6	0x0000000000000000	0.0
7	0x0000000000000000	0.0
8	0x0000000000000000	0.0
9	0x0000000000000000	0.0

w f8 [10]
0	0x0000000000000000	0.0
1	0xbf8f071aaaafaa39	-0.015150268873147176
2	0xbfc0e3fd58368c54	-0.13195769126204715
3	0xbfe55c5d83d4cde0	-0.6675250601605818
4	0xc00502f5b01169d6	-2.6264451747240214
5	0xc022feb3d7c37a44	-9.497465841876995
6	0xc03029cefc9e0da9	-16.163314617717024
7	0xc0367a110dc5590a	-22.476822720223062
8	0xc03c4cbbae59c1f2	-28.299738785661198
9	0xc03f9d460795b47f	-31.614349817322815
