results_6dof/SCUD-B_45.0deg_20251217_132923.npz (npz, 42955 bytes, 22 tensors)

time f8 [622]
000000 00 00 00 00 00 00 00 00 fc ed 8e 79 88 d7 81 3f
       0.0 0.008711878022828572
000010 16 e9 10 29 09 df 95 3f 97 2d ad 0a 27 69 a1 3f
       0.021358626491044218 0.034005374959259864
000020 57 d5 9d e4 dc ec a4 3f 17 7d 8e be 92 70 a8 3f
       0.04086962023476797 0.04773386551027608
000030 68 b4 6f 5f 35 e3 ac 3f 64 f7 0e ea 63 57 c2 3f
       0.05642096319193329 0.14329194000850543
000040 c9 ab 01 b4 28 31 f0 3f e4 d5 00 5a 94 18 00 40
       1.0120017081742267 2.0120017081742265
000050 e4 d5 00 5a 94 18 08 40 f2 6a 00 2d 4a 0c 10 40
       3.0120017081742265 4.0120017081742265
000060 f2 6a 00 2d 4a 0c 14 40 f2 6a 00 2d 4a 0c 18 40
       5.0120017081742265 6.0120017081742265
000070 f2 6a 00 2d 4a 0c 1c 40 79 35 80 16 25 06 20 40
       7.0120017081742265 8.012001708174227
000080 79 35 80 16 25 06 22 40 79 35 80 16 25 06 24 40
       9.012001708174227 10.012001708174227
000090 79 35 80 16 25 06 26 40 79 35 80 16 25 06 28 40
       11.012001708174227 12.012001708174227
0000a0 79 35 80 16 25 06 2a 40 79 35 80 16 25 06 2c 40
       13.012001708174227 14.012001708174227
0000b0 6d a4 11 13 5b 01 2e 40 36 d2 88 89 ad 00 30 40
       15.002647968200302 16.0026479682003
0000c0 36 d2 88 89 ad 00 31 40 36 d2 88 89 ad 00 32 40
       17.0026479682003 18.0026479682003
0000d0 36 d2 88 89 ad 00 33 40 36 d2 88 89 ad 00 34 40
       19.0026479682003 20.0026479682003
0000e0 36 d2 88 89 ad 00 35 40 36 d2 88 89 ad 00 36 40
       21.0026479682003 22.0026479682003
0000f0 36 d2 88 89 ad 00 37 40 36 d2 88 89 ad 00 38 40
       23.0026479682003 24.0026479682003
000100 6d 89 70 04 55 3d 38 40 a4 40 58 7f fc 79 38 40
       24.23957851169091 24.476509055181523
000110 34 58 ea 2a f3 cf 38 40 f6 35 3d 8f ab f3 38 40
       24.81230419369986 24.951836540645637
000120 c6 51 12 cc b9 fd 38 40 91 a0 06 4d 10 ff 38 40
       24.99111628958942 24.996342481725666
000130 5c ef fa cd 66 00 39 40 83 87 b5 3a ad 01 39 40
       25.00156867386191 25.006549519842803
000140 09 79 ff 79 6d 0e 39 40 45 e8 e2 f2 ef 8d 39 40
       25.056357979651725 25.554442577740947
000150 45 e8 e2 f2 ef 8d 3a 40 45 e8 e2 f2 ef 8d 3b 40
       26.554442577740947 27.554442577740947
000160 45 e8 e2 f2 ef 8d 3c 40 45 e8 e2 f2 ef 8d 3d 40
       28.554442577740947 29.554442577740947
000170 45 e8 e2 f2 ef 8d 3e 40 45 e8 e2 f2 ef 8d 3f 40
       30.554442577740947 31.554442577740947
000180 22 74 71 f9 f7 46 40 40 22 74 71 f9 f7 c6 40 40
       32.55444257774094 33.55444257774094
000190 22 74 71 f9 f7 46 41 40 22 74 71 f9 f7 c6 41 40
       34.55444257774094 35.55444257774094
0001a0 22 74 71 f9 f7 46 42 40 22 74 71 f9 f7 c6 42 40
       36.55444257774094 37.55444257774094
0001b0 22 74 71 f9 f7 46 43 40 22 74 71 f9 f7 c6 43 40
       38.55444257774094 39.55444257774094
0001c0 22 74 71 f9 f7 46 44 40 22 74 71 f9 f7 c6 44 40
       40.55444257774094 41.55444257774094
0001d0 22 74 71 f9 f7 46 45 40 22 74 71 f9 f7 c6 45 40
       42.55444257774094 43.55444257774094
0001e0 22 74 71 f9 f7 46 46 40 22 74 71 f9 f7 c6 46 40
       44.55444257774094 45.55444257774094
0001f0 22 74 71 f9 f7 46 47 40 22 74 71 f9 f7 c6 47 40
       46.55444257774094 47.55444257774094
000200 22 74 71 f9 f7 46 48 40 22 74 71 f9 f7 c6 48 40
       48.55444257774094 49.55444257774094
000210 22 74 71 f9 f7 46 49 40 22 74 71 f9 f7 c6 49 40
       50.55444257774094 51.55444257774094
000220 22 74 71 f9 f7 46 4a 40 22 74 71 f9 f7 c6 4a 40
       52.55444257774094 53.55444257774094
000230 22 74 71 f9 f7 46 4b 40 22 74 71 f9 f7 c6 4b 40
       54.55444257774094 55.55444257774094
000240 22 74 71 f9 f7 46 4c 40 22 74 71 f9 f7 c6 4c 40
       56.55444257774094 57.55444257774094
000250 22 74 71 f9 f7 46 4d 40 22 74 71 f9 f7 c6 4d 40
       58.55444257774094 59.55444257774094
000260 22 74 71 f9 f7 46 4e 40 22 74 71 f9 f7 c6 4e 40
       60.55444257774094 61.55444257774094
000270 22 74 71 f9 f7 46 4f 40 22 74 71 f9 f7 c6 4f 40
       62.55444257774094 63.55444257774094
000280 11 ba b8 fc 7b 23 50 40 2f c3 8e 46 6b 3b 50 40
       64.55444257774094 64.92842258397717
000290 dc 54 ed 03 59 3f 50 40 79 60 1d be c6 3f 50 40
       64.98980806519415 64.99650528782685
0002a0 16 6c 4d 78 34 40 50 40 2a be 5c 07 a4 40 50 40
       65.00320251045954 65.01001152092854
0002b0 f2 f2 f5 9d ff 44 50 40 c2 02 f2 7f 93 70 50 40
       65.07810162561853 65.75900267251839
0002c0 c2 02 f2 7f 93 b0 50 40 c2 02 f2 7f 93 f0 50 40
       66.75900267251839 67.75900267251839
0002d0 c2 02 f2 7f 93 30 51 40 c2 02 f2 7f 93 70 51 40
       68.75900267251839 69.75900267251839
0002e0 c2 02 f2 7f 93 b0 51 40 c2 02 f2 7f 93 f0 51 40
       70.75900267251839 71.75900267251839
0002f0 c2 02 f2 7f 93 30 52 40 c2 02 f2 7f 93 70 52 40
       72.75900267251839 73.75900267251839
000300 c2 02 f2 7f 93 b0 52 40 c2 02 f2 7f 93 f0 52 40
       74.75900267251839 75.75900267251839
000310 c2 02 f2 7f 93 30 53 40 c2 02 f2 7f 93 70 53 40
       76.75900267251839 77.75900267251839
000320 c2 02 f2 7f 93 b0 53 40 c2 02 f2 7f 93 f0 53 40
       78.75900267251839 79.75900267251839
000330 c2 02 f2 7f 93 30 54 40 c2 02 f2 7f 93 70 54 40
       80.75900267251839 81.75900267251839
000340 c2 02 f2 7f 93 b0 54 40 c2 02 f2 7f 93 f0 54 40
       82.75900267251839 83.75900267251839
000350 c2 02 f2 7f 93 30 55 40 c2 02 f2 7f 93 70 55 40
       84.75900267251839 85.75900267251839
000360 c2 02 f2 7f 93 b0 55 40 c2 02 f2 7f 93 f0 55 40
       86.75900267251839 87.75900267251839
000370 c2 02 f2 7f 93 30 56 40 c2 02 f2 7f 93 70 56 40
       88.75900267251839 89.75900267251839
000380 c2 02 f2 7f 93 b0 56 40 c2 02 f2 7f 93 f0 56 40
       90.75900267251839 91.75900267251839
000390 c2 02 f2 7f 93 30 57 40 c2 02 f2 7f 93 70 57 40
       92.75900267251839 93.75900267251839
0003a0 c2 02 f2 7f 93 b0 57 40 c2 02 f2 7f 93 f0 57 40
       94.75900267251839 95.75900267251839
0003b0 c2 02 f2 7f 93 30 58 40 c2 02 f2 7f 93 70 58 40
       96.75900267251839 97.75900267251839
0003c0 c2 02 f2 7f 93 b0 58 40 c2 02 f2 7f 93 f0 58 40
       98.75900267251839 99.75900267251839
0003d0 c2 02 f2 7f 93 30 59 40 c2 02 f2 7f 93 70 59 40
       100.75900267251839 101.75900267251839
0003e0 c2 02 f2 7f 93 b0 59 40 c2 02 f2 7f 93 f0 59 40
       102.75900267251839 103.75900267251839
0003f0 c2 02 f2 7f 93 30 5a 40 c2 02 f2 7f 93 70 5a 40
       104.75900267251839 105.75900267251839
000400 c2 02 f2 7f 93 b0 5a 40 c2 02 f2 7f 93 f0 5a 40
       106.75900267251839 107.75900267251839
000410 c2 02 f2 7f 93 30 5b 40 c2 02 f2 7f 93 70 5b 40
       108.75900267251839 109.75900267251839
000420 c2 02 f2 7f 93 b0 5b 40 c2 02 f2 7f 93 f0 5b 40
       110.75900267251839 111.75900267251839
000430 c2 02 f2 7f 93 30 5c 40 c2 02 f2 7f 93 70 5c 40
       112.75900267251839 113.75900267251839
000440 c2 02 f2 7f 93 b0 5c 40 c2 02 f2 7f 93 f0 5c 40
       114.75900267251839 115.75900267251839
000450 c2 02 f2 7f 93 30 5d 40 c2 02 f2 7f 93 70 5d 40
       116.75900267251839 117.75900267251839
000460 c2 02 f2 7f 93 b0 5d 40 c2 02 f2 7f 93 f0 5d 40
       118.75900267251839 119.75900267251839
000470 c2 02 f2 7f 93 30 5e 40 c2 02 f2 7f 93 70 5e 40
       120.75900267251839 121.75900267251839
000480 c2 02 f2 7f 93 b0 5e 40 c2 02 f2 7f 93 f0 5e 40
       122.75900267251839 123.75900267251839
000490 c2 02 f2 7f 93 30 5f 40 c2 02 f2 7f 93 70 5f 40
       124.75900267251839 125.75900267251839
0004a0 c2 02 f2 7f 93 b0 5f 40 c2 02 f2 7f 93 f0 5f 40
       126.75900267251839 127.75900267251839
0004b0 61 01 f9 bf 49 18 60 40 61 01 f9 bf 49 38 60 40
       128.7590026725184 129.7590026725184
0004c0 61 01 f9 bf 49 58 60 40 61 01 f9 bf 49 78 60 40
       130.7590026725184 131.7590026725184
0004d0 61 01 f9 bf 49 98 60 40 61 01 f9 bf 49 b8 60 40
       132.7590026725184 133.7590026725184
0004e0 61 01 f9 bf 49 d8 60 40 61 01 f9 bf 49 f8 60 40
       134.7590026725184 135.7590026725184
0004f0 61 01 f9 bf 49 18 61 40 61 01 f9 bf 49 38 61 40
       136.7590026725184 137.7590026725184
000500 61 01 f9 bf 49 58 61 40 61 01 f9 bf 49 78 61 40
       138.7590026725184 139.7590026725184
000510 61 01 f9 bf 49 98 61 40 61 01 f9 bf 49 b8 61 40
       140.7590026725184 141.7590026725184
000520 61 01 f9 bf 49 d8 61 40 61 01 f9 bf 49 f8 61 40
       142.7590026725184 143.7590026725184
000530 61 01 f9 bf 49 18 62 40 61 01 f9 bf 49 38 62 40
       144.7590026725184 145.7590026725184
000540 61 01 f9 bf 49 58 62 40 61 01 f9 bf 49 78 62 40
       146.7590026725184 147.7590026725184
000550 61 01 f9 bf 49 98 62 40 61 01 f9 bf 49 b8 62 40
       148.7590026725184 149.7590026725184
000560 61 01 f9 bf 49 d8 62 40 61 01 f9 bf 49 f8 62 40
       150.7590026725184 151.7590026725184
000570 61 01 f9 bf 49 18 63 40 61 01 f9 bf 49 38 63 40
       152.7590026725184 153.7590026725184
000580 61 01 f9 bf 49 58 63 40 61 01 f9 bf 49 78 63 40
       154.7590026725184 155.7590026725184
000590 61 01 f9 bf 49 98 63 40 61 01 f9 bf 49 b8 63 40
       156.7590026725184 157.7590026725184
0005a0 61 01 f9 bf 49 d8 63 40 61 01 f9 bf 49 f8 63 40
       158.7590026725184 159.7590026725184
0005b0 61 01 f9 bf 49 18 64 40 61 01 f9 bf 49 38 64 40
       160.7590026725184 161.7590026725184
0005c0 61 01 f9 bf 49 58 64 40 61 01 f9 bf 49 78 64 40
       162.7590026725184 163.7590026725184
0005d0 61 01 f9 bf 49 98 64 40 61 01 f9 bf 49 b8 64 40
       164.7590026725184 165.7590026725184
0005e0 61 01 f9 bf 49 d8 64 40 61 01 f9 bf 49 f8 64 40
       166.7590026725184 167.7590026725184
0005f0 61 01 f9 bf 49 18 65 40 61 01 f9 bf 49 38 65 40
       168.7590026725184 169.7590026725184
000600 61 01 f9 bf 49 58 65 40 61 01 f9 bf 49 78 65 40
       170.7590026725184 171.7590026725184
000610 61 01 f9 bf 49 98 65 40 61 01 f9 bf 49 b8 65 40
       172.7590026725184 173.7590026725184
000620 61 01 f9 bf 49 d8 65 40 61 01 f9 bf 49 f8 65 40
       174.7590026725184 175.7590026725184
000630 61 01 f9 bf 49 18 66 40 61 01 f9 bf 49 38 66 40
       176.7590026725184 177.7590026725184
000640 61 01 f9 bf 49 58 66 40 61 01 f9 bf 49 78 66 40
       178.7590026725184 179.7590026725184
000650 61 01 f9 bf 49 98 66 40 61 01 f9 bf 49 b8 66 40
       180.7590026725184 181.7590026725184
000660 61 01 f9 bf 49 d8 66 40 61 01 f9 bf 49 f8 66 40
       182.7590026725184 183.7590026725184
000670 61 01 f9 bf 49 18 67 40 61 01 f9 bf 49 38 67 40
       184.7590026725184 185.7590026725184
000680 61 01 f9 bf 49 58 67 40 61 01 f9 bf 49 78 67 40
       186.7590026725184 187.7590026725184
000690 61 01 f9 bf 49 98 67 40 61 01 f9 bf 49 b8 67 40
       188.7590026725184 189.7590026725184
0006a0 61 01 f9 bf 49 d8 67 40 61 01 f9 bf 49 f8 67 40
       190.7590026725184 191.7590026725184
0006b0 61 01 f9 bf 49 18 68 40 61 01 f9 bf 49 38 68 40
       192.7590026725184 193.7590026725184
0006c0 61 01 f9 bf 49 58 68 40 61 01 f9 bf 49 78 68 40
       194.7590026725184 195.7590026725184
0006d0 61 01 f9 bf 49 98 68 40 61 01 f9 bf 49 b8 68 40
       196.7590026725184 197.7590026725184
0006e0 61 01 f9 bf 49 d8 68 40 61 01 f9 bf 49 f8 68 40
       198.7590026725184 199.7590026725184
0006f0 61 01 f9 bf 49 18 69 40 61 01 f9 bf 49 38 69 40
       200.7590026725184 201.7590026725184
000700 61 01 f9 bf 49 58 69 40 61 01 f9 bf 49 78 69 40
       202.7590026725184 203.7590026725184
000710 61 01 f9 bf 49 98 69 40 61 01 f9 bf 49 b8 69 40
       204.7590026725184 205.7590026725184
000720 61 01 f9 bf 49 d8 69 40 61 01 f9 bf 49 f8 69 40
       206.7590026725184 207.7590026725184
000730 61 01 f9 bf 49 18 6a 40 61 01 f9 bf 49 38 6a 40
       208.7590026725184 209.7590026725184
000740 61 01 f9 bf 49 58 6a 40 61 01 f9 bf 49 78 6a 40
       210.7590026725184 211.7590026725184
000750 61 01 f9 bf 49 98 6a 40 61 01 f9 bf 49 b8 6a 40
       212.7590026725184 213.7590026725184
000760 61 01 f9 bf 49 d8 6a 40 61 01 f9 bf 49 f8 6a 40
       214.7590026725184 215.7590026725184
000770 61 01 f9 bf 49 18 6b 40 61 01 f9 bf 49 38 6b 40
       216.7590026725184 217.7590026725184
000780 61 01 f9 bf 49 58 6b 40 61 01 f9 bf 49 78 6b 40
       218.7590026725184 219.7590026725184
000790 61 01 f9 bf 49 98 6b 40 61 01 f9 bf 49 b8 6b 40
       220.7590026725184 221.7590026725184
0007a0 61 01 f9 bf 49 d8 6b 40 61 01 f9 bf 49 f8 6b 40
       222.7590026725184 223.7590026725184
0007b0 61 01 f9 bf 49 18 6c 40 61 01 f9 bf 49 38 6c 40
       224.7590026725184 225.7590026725184
0007c0 61 01 f9 bf 49 58 6c 40 61 01 f9 bf 49 78 6c 40
       226.7590026725184 227.7590026725184
0007d0 61 01 f9 bf 49 98 6c 40 61 01 f9 bf 49 b8 6c 40
       228.7590026725184 229.7590026725184
0007e0 61 01 f9 bf 49 d8 6c 40 61 01 f9 bf 49 f8 6c 40
       230.7590026725184 231.7590026725184
0007f0 61 01 f9 bf 49 18 6d 40 61 01 f9 bf 49 38 6d 40
       232.7590026725184 233.7590026725184

position_x f8 [622]
000000 00 00 00 00 00 00 00 00 00 00 00 00 00 00 00 00
       0.0 0.0
000010 00 00 00 00 00 00 00 00 00 00 00 00 00 00 00 00
       0.0 0.0
000020 00 00 00 00 00 00 00 00 00 00 00 00 00 00 00 00
       0.0 0.0
000030 00 00 00 00 00 00 00 00 00 00 00 00 00 00 00 00
       0.0 0.0
000040 00 00 00 00 00 00 00 00 00 00 00 00 00 00 00 00
       0.0 0.0
000050 00 00 00 00 00 00 00 00 00 00 00 00 00 00 00 00
       0.0 0.0
000060 00 00 00 00 00 00 00 00 00 00 00 00 00 00 00 00
       0.0 0.0
000070 00 00 00 00 00 00 00 00 00 00 00 00 00 00 00 00
       0.0 0.0
000080 00 00 00 00 00 00 00 00 00 00 00 00 00 00 00 00
       0.0 0.0
000090 00 00 00 00 00 00 00 00 00 00 00 00 00 00 00 00
       0.0 0.0
0000a0 00 00 00 00 00 00 00 00 00 00 00 00 00 00 00 00
       0.0 0.0
0000b0 00 00 00 00 00 00 00 00 00 00 00 00 00 00 00 00
       0.0 0.0
0000c0 00 00 00 00 00 00 00 00 00 00 00 00 00 00 00 00
       0.0 0.0
0000d0 00 00 00 00 00 00 00 00 00 00 00 00 00 00 00 00
       0.0 0.0
0000e0 00 00 00 00 00 00 00 00 00 00 00 00 00 00 00 00
       0.0 0.0
0000f0 00 00 00 00 00 00 00 00 00 00 00 00 00 00 00 00
       0.0 0.0
000100 00 00 00 00 00 00 00 00 00 00 00 00 00 00 00 00
       0.0 0.0
000110 00 00 00 00 00 00 00 00 00 00 00 00 00 00 00 00
       0.0 0.0
000120 00 00 00 00 00 00 00 00 00 00 00 00 00 00 00 00
       0.0 0.0
000130 00 00 00 00 00 00 00 00 00 00 00 00 00 00 00 00
       0.0 0.0
000140 00 00 00 00 00 00 00 00 00 00 00 00 00 00 00 00
       0.0 0.0
000150 00 00 00 00 00 00 00 00 00 00 00 00 00 00 00 00
       0.0 0.0
000160 00 00 00 00 00 00 00 00 00 00 00 00 00 00 00 00
       0.0 0.0
000170 00 00 00 00 00 00 00 00 00 00 00 00 00 00 00 00
       0.0 0.0
000180 00 00 00 00 00 00 00 00 00 00 00 00 00 00 00 00
       0.0 0.0
000190 00 00 00 00 00 00 00 00 00 00 00 00 00 00 00 00
       0.0 0.0
0001a0 00 00 00 00 00 00 00 00 00 00 00 00 00 00 00 00
       0.0 0.0
0001b0 00 00 00 00 00 00 00 00 00 00 00 00 00 00 00 00
       0.0 0.0
0001c0 00 00 00 00 00 00 00 00 00 00 00 00 00 00 00 00
       0.0 0.0
0001d0 00 00 00 00 00 00 00 00 00 00 00 00 00 00 00 00
       0.0 0.0
0001e0 00 00 00 00 00 00 00 00 00 00 00 00 00 00 00 00
       0.0 0.0
0001f0 00 00 00 00 00 00 00 00 00 00 00 00 00 00 00 00
       0.0 0.0
000200 00 00 00 00 00 00 00 00 00 00 00 00 00 00 00 00
       0.0 0.0
000210 00 00 00 00 00 00 00 00 00 00 00 00 00 00 00 00
       0.0 0.0
000220 00 00 00 00 00 00 00 00 00 00 00 00 00 00 00 00
       0.0 0.0
000230 00 00 00 00 00 00 00 00 00 00 00 00 00 00 00 00
       0.0 0.0
000240 00 00 00 00 00 00 00 00 00 00 00 00 00 00 00 00
       0.0 0.0
000250 00 00 00 00 00 00 00 00 00 00 00 00 00 00 00 00
       0.0 0.0
000260 00 00 00 00 00 00 00 00 00 00 00 00 00 00 00 00
       0.0 0.0
000270 00 00 00 00 00 00 00 00 00 00 00 00 00 00 00 00
       0.0 0.0
000280 00 00 00 00 00 00 00 00 00 00 00 00 00 00 00 00
       0.0 0.0
000290 00 00 00 00 00 00 00 00 00 00 00 00 00 00 00 00
       0.0 0.0
0002a0 00 00 00 00 00 00 00 00 00 00 00 00 00 00 00 00
       0.0 0.0
0002b0 00 00 00 00 00 00 00 00 00 00 00 00 00 00 00 00
       0.0 0.0
0002c0 00 00 00 00 00 00 00 00 00 00 00 00 00 00 00 00
       0.0 0.0
0002d0 00 00 00 00 00 00 00 00 00 00 00 00 00 00 00 00
       0.0 0.0
0002e0 00 00 00 00 00 00 00 00 00 00 00 00 00 00 00 00
       0.0 0.0
0002f0 00 00 00 00 00 00 00 00 00 00 00 00 00 00 00 00
       0.0 0.0
000300 00 00 00 00 00 00 00 00 00 00 00 00 00 00 00 00
       0.0 0.0
000310 00 00 00 00 00 00 00 00 00 00 00 00 00 00 00 00
       0.0 0.0
000320 00 00 00 00 00 00 00 00 00 00 00 00 00 00 00 00
       0.0 0.0
000330 00 00 00 00 00 00 00 00 00 00 00 00 00 00 00 00
       0.0 0.0
000340 00 00 00 00 00 00 00 00 00 00 00 00 00 00 00 00
       0.0 0.0
000350 00 00 00 00 00 00 00 00 00 00 00 00 00 00 00 00
       0.0 0.0
000360 00 00 00 00 00 00 00 00 00 00 00 00 00 00 00 00
       0.0 0.0
000370 00 00 00 00 00 00 00 00 00 00 00 00 00 00 00 00
       0.0 0.0
000380 00 00 00 00 00 00 00 00 00 00 00 00 00 00 00 00
       0.0 0.0
000390 00 00 00 00 00 00 00 00 00 00 00 00 00 00 00 00
       0.0 0.0
0003a0 00 00 00 00 00 00 00 00 00 00 00 00 00 00 00 00
       0.0 0.0
0003b0 00 00 00 00 00 00 00 00 00 00 00 00 00 00 00 00
       0.0 0.0
0003c0 00 00 00 00 00 00 00 00 00 00 00 00 00 00 00 00
       0.0 0.0
0003d0 00 00 00 00 00 00 00 00 00 00 00 00 00 00 00 00
       0.0 0.0
0003e0 00 00 00 00 00 00 00 00 00 00 00 00 00 00 00 00
       0.0 0.0
0003f0 00 00 00 00 00 00 00 00 00 00 00 00 00 00 00 00
       0.0 0.0
000400 00 00 00 00 00 00 00 00 00 00 00 00 00 00 00 00
       0.0 0.0
000410 00 00 00 00 00 00 00 00 00 00 00 00 00 00 00 00
       0.0 0.0
000420 00 00 00 00 00 00 00 00 00 00 00 00 00 00 00 00
       0.0 0.0
000430 00 00 00 00 00 00 00 00 00 00 00 00 00 00 00 00
       0.0 0.0
000440 00 00 00 00 00 00 00 00 00 00 00 00 00 00 00 00
       0.0 0.0
000450 00 00 00 00 00 00 00 00 00 00 00 00 00 00 00 00
       0.0 0.0
000460 00 00 00 00 00 00 00 00 00 00 00 00 00 00 00 00
       0.0 0.0
000470 00 00 00 00 00 00 00 00 00 00 00 00 00 00 00 00
       0.0 0.0
000480 00 00 00 00 00 00 00 00 00 00 00 00 00 00 00 00
       0.0 0.0
000490 00 00 00 00 00 00 00 00 00 00 00 00 00 00 00 00
       0.0 0.0
0004a0 00 00 00 00 00 00 00 00 00 00 00 00 00 00 00 00
       0.0 0.0
0004b0 00 00 00 00 00 00 00 00 00 00 00 00 00 00 00 00
       0.0 0.0
0004c0 00 00 00 00 00 00 00 00 00 00 00 00 00 00 00 00
       0.0 0.0
0004d0 00 00 00 00 00 00 00 00 00 00 00 00 00 00 00 00
       0.0 0.0
0004e0 00 00 00 00 00 00 00 00 00 00 00 00 00 00 00 00
       0.0 0.0
0004f0 00 00 00 00 00 00 00 00 00 00 00 00 00 00 00 00
       0.0 0.0
000500 00 00 00 00 00 00 00 00 00 00 00 00 00 00 00 00
       0.0 0.0
000510 00 00 00 00 00 00 00 00 00 00 00 00 00 00 00 00
       0.0 0.0
000520 00 00 00 00 00 00 00 00 00 00 00 00 00 00 00 00
       0.0 0.0
000530 00 00 00 00 00 00 00 00 00 00 00 00 00 00 00 00
       0.0 0.0
000540 00 00 00 00 00 00 00 00 00 00 00 00 00 00 00 00
       0.0 0.0
000550 00 00 00 00 00 00 00 00 00 00 00 00 00 00 00 00
       0.0 0.0
000560 00 00 00 00 00 00 00 00 00 00 00 00 00 00 00 00
       0.0 0.0
000570 00 00 00 00 00 00 00 00 00 00 00 00 00 00 00 00
       0.0 0.0
000580 00 00 00 00 00 00 00 00 00 00 00 00 00 00 00 00
       0.0 0.0
000590 00 00 00 00 00 00 00 00 00 00 00 00 00 00 00 00
       0.0 0.0
0005a0 00 00 00 00 00 00 00 00 00 00 00 00 00 00 00 00
       0.0 0.0
0005b0 00 00 00 00 00 00 00 00 00 00 00 00 00 00 00 00
       0.0 0.0
0005c0 00 00 00 00 00 00 00 00 00 00 00 00 00 00 00 00
       0.0 0.0
0005d0 00 00 00 00 00 00 00 00 00 00 00 00 00 00 00 00
       0.0 0.0
0005e0 00 00 00 00 00 00 00 00 00 00 00 00 00 00 00 00
       0.0 0.0
0005f0 00 00 00 00 00 00 00 00 00 00 00 00 00 00 00 00
       0.0 0.0
000600 00 00 00 00 00 00 00 00 00 00 00 00 00 00 00 00
       0.0 0.0
000610 00 00 00 00 00 00 00 00 00 00 00 00 00 00 00 00
       0.0 0.0
000620 00 00 00 00 00 00 00 00 00 00 00 00 00 00 00 00
       0.0 0.0
000630 00 00 00 00 00 00 00 00 00 00 00 00 00 00 00 00
       0.0 0.0
000640 00 00 00 00 00 00 00 00 00 00 00 00 00 00 00 00
       0.0 0.0
000650 00 00 00 00 00 00 00 00 00 00 00 00 00 00 00 00
       0.0 0.0
000660 00 00 00 00 00 00 00 00 00 00 00 00 00 00 00 00
       0.0 0.0
000670 00 00 00 00 00 00 00 00 00 00 00 00 00 00 00 00
       0.0 0.0
000680 00 00 00 00 00 00 00 00 00 00 00 00 00 00 00 00
       0.0 0.0
000690 00 00 00 00 00 00 00 00 00 00 00 00 00 00 00 00
       0.0 0.0
0006a0 00 00 00 00 00 00 00 00 00 00 00 00 00 00 00 00
       0.0 0.0
0006b0 00 00 00 00 00 00 00 00 00 00 00 00 00 00 00 00
       0.0 0.0
0006c0 00 00 00 00 00 00 00 00 00 00 00 00 00 00 00 00
       0.0 0.0
0006d0 00 00 00 00 00 00 00 00 00 00 00 00 00 00 00 00
       0.0 0.0
0006e0 00 00 00 00 00 00 00 00 00 00 00 00 00 00 00 00
       0.0 0.0
0006f0 00 00 00 00 00 00 00 00 00 00 00 00 00 00 00 00
       0.0 0.0
000700 00 00 00 00 00 00 00 00 00 00 00 00 00 00 00 00
       0.0 0.0
000710 00 00 00 00 00 00 00 00 00 00 00 00 00 00 00 00
       0.0 0.0
000720 00 00 00 00 00 00 00 00 00 00 00 00 00 00 00 00
       0.0 0.0
000730 00 00 00 00 00 00 00 00 00 00 00 00 00 00 00 00
       0.0 0.0
000740 00 00 00 00 00 00 00 00 00 00 00 00 00 00 00 00
       0.0 0.0
000750 00 00 00 00 00 00 00 00 00 00 00 00 00 00 00 00
       0.0 0.0
000760 00 00 00 00 00 00 00 00 00 00 00 00 00 00 00 00
       0.0 0.0
000770 00 00 00 00 00 00 00 00 00 00 00 00 00 00 00 00
       0.0 0.0
000780 00 00 00 00 00 00 00 00 00 00 00 00 00 00 00 00
       0.0 0.0
000790 00 00 00 00 00 00 00 00 00 00 00 00 00 00 00 00
       0.0 0.0
0007a0 00 00 00 00 00 00 00 00 00 00 00 00 00 00 00 00
       0.0 0.0
0007b0 00 00 00 00 00 00 00 00 00 00 00 00 00 00 00 00
       0.0 0.0
0007c0 00 00 00 00 00 00 00 00 00 00 00 00 00 00 00 00
       0.0 0.0
0007d0 00 00 00 00 00 00 00 00 00 00 00 00 00 00 00 00
       0.0 0.0
0007e0 00 00 00 00 00 00 00 00 00 00 00 00 00 00 00 00
       0.0 0.0
0007f0 00 00 00 00 00 00 00 00 00 00 00 00 00 00 00 00
       0.0 0.0

position_y f8 [622]
000000 00 00 00 00 00 00 00 00 6b b4 93 9e 77 3b 79 3f
       0.0 0.006160228026812135
000010 9e 25 a8 7a 3b ee 8e 3f 83 38 03 93 5d 9f 98 3f
       0.015102829628648003 0.02404543123048387
000020 c4 e7 58 84 bf 97 9d 3f 36 49 1b a2 17 76 a1 3f
       0.028899185612523373 0.03410409787979278
000030 ad c5 e7 ad a9 5e a5 3f 48 31 19 e6 62 5d c7 3f
       0.04173784492366948 0.18253742442392196
000040 8e 67 64 a9 8f 24 20 40 2e 3d e6 9b 0f e6 3f 40
       8.071408551699076 31.89867567416257
000050 3c 3c 2f 86 0d f0 51 40 25 d9 88 ec 16 f8 5f 40
       71.75082544911214 127.876399167672
000060 fe 41 07 56 93 10 69 40 54 89 23 ec 96 1e 72 40
       200.51798535745178 289.9118462932722
000070 13 41 58 55 9a c4 78 40 5d 31 d0 03 11 3f 80 40
       396.2876790473394 519.8833080544533
000080 6f 00 d2 06 47 a7 84 40 5c 79 f8 c9 16 9c 89 40
       660.9096809774763 819.5111274158512
000090 0a c1 df 3d 90 1f 8f 40 c3 cd 25 aa 5a 9c 92 40
       995.9454305153643 1191.088539686855
0000a0 d0 00 73 fd 51 f8 95 40 77 2d ce bb 78 a8 99 40
       1406.080068394589 1642.1179039206743
0000b0 de bb 22 f6 a9 a7 9d 40 46 b4 9d 89 45 07 a1 40
       1897.9159779956021 2179.635815552002
0000c0 df 02 91 e5 6c 6c a3 40 a9 d5 ab 46 5e 05 a6 40
       2486.2126889530186 2818.6841329286876
0000d0 79 a4 e7 02 a5 d3 a8 40 f4 c1 46 78 30 d8 ab 40
       3177.8222877872727 3564.0946676360854
0000e0 bf 04 eb 2a 41 13 af 40 da 8d d0 04 23 42 b1 40
       3977.6272805636686 4418.13679221595
0000f0 02 0a 24 45 fa 14 b3 40 29 1d f1 97 2d 01 b5 40
       4884.977617504543 5377.178099698657
000100 4f 4d 24 d0 60 79 b5 40 4e b2 3f 87 e9 f2 b5 40
       5497.378175991892 5618.912219983131
000110 ba 49 55 96 67 a1 b6 40 3d 6f b0 50 ac ea b6 40
       5793.40463765192 5866.673106219442
000120 a2 8d 45 ed 60 ff b6 40 6c 8c 4d d9 22 02 b7 40
       5887.378620478705 5890.136128279479
000130 0e e7 f7 e9 e4 04 b7 40 2d 52 b5 da 85 07 b7 40
       5892.894195073995 5895.522868473589
000140 06 57 ce 52 cf 21 b7 40 a7 58 2b b0 93 28 b8 40
       5921.809857269522 6184.576906880516
000150 3a ce 89 e8 8b 35 ba 40 d0 09 b6 9b 90 3a bc 40
       6709.546517002915 7226.564875962635
000160 5f a2 2b a2 1d 32 be 40 60 6a d0 ec 55 0b c0 40
       7730.115755774633 8214.671289493504
000170 cb 4c c2 77 67 f1 c0 40 85 19 05 c3 a8 c8 c1 40
       8674.808342254159 9105.318451535664
000180 8a 2a 9e 08 a7 8e c2 40 a1 4d 68 93 21 41 c3 40
       9501.304950495502 9858.2623110179
000190 fa 02 6a 39 11 de c3 40 d0 f6 6f 43 ac 63 c4 40
       10172.134564639524 10439.345808024897
0001a0 53 7e 22 23 90 d0 c4 40 7e ab 59 4c f6 23 c5 40
       10657.126072227175 10823.924205025422
0001b0 e8 19 06 c7 4d 5d c5 40 8a d3 12 5c 25 7c c5 40
       10938.607636225366 11000.29187236146
0001c0 06 c7 89 6c 21 80 c5 40 c0 78 9a e8 f2 68 c5 40
       11008.261124822788 10961.897723492584
0001d0 64 ef be 70 4f 36 c5 40 d4 3a 27 df ea e7 c4 40
       10860.62062822999 10703.834935096478
0001e0 d1 97 8c 77 72 7d c4 40 92 e0 24 89 87 f6 c3 40
       10490.894273351792 10221.058872804311
0001f0 bd 3b 29 a6 ba 52 c3 40 aa 79 51 95 87 91 c2 40
       9893.458195833367 9507.059244331747
000200 20 4d 16 99 55 b2 c1 40 b6 66 4c ea 82 b4 c0 40
       9060.668734347972 8553.022775221016
000210 5a f3 bf 53 98 2e bf 40 55 85 53 1f 83 b3 bc 40
       7982.595027920639 7347.51219675069
000220 82 fd 6d 0b 8d f5 b9 40 b1 ed 3e 48 21 f2 b6 40
       6645.55095565261 5874.130008633642
000230 66 de 99 f0 4b a6 b3 40 31 30 b1 fc b4 0e b0 40
       5030.296640030667 4110.706980776086
000240 66 be 6c b1 32 4f a8 40 f1 c4 6a 2f 07 b3 9f 40
       3111.599009893648 2028.757016819258
000250 7e 89 15 0e ba cb 8a 40 9c f0 aa b9 c1 78 79 c0
       857.4658471758446 -407.5472962071742
000260 79 97 ce f5 be b0 9b c0 70 d8 ca 0c 29 56 a9 c0
       -1772.1864845542862 -3243.080175723
000270 68 08 b4 09 b3 db b2 c0 00 ba 53 2f 82 86 b9 c0
       -4827.699366809895 -6534.508534653578
000280 ad a1 8c 86 94 5a c0 c0 e8 7f 6d 86 6d c4 c1 c0
       -8373.160356120055 -9096.855664908842
000290 79 31 9d 3f cc 00 c2 c0 62 b2 1a b1 66 07 c2 c0
       -9217.595691346318 -9230.802279793836
0002a0 82 86 d8 e7 01 0e c2 c0 20 a3 dd 76 b9 14 c2 c0
       -9244.014887872388 -9257.448939995433
0002b0 80 b6 37 fd e4 57 c2 c0 30 9d 70 75 92 f7 c4 c0
       -9391.78897758876 -10735.144208981277
0002c0 12 e0 8c 6b f6 d1 c8 c0 71 8a 0f 22 4b ac cc c0
       -12707.9251571745 -14680.586976950262
0002d0 4f ce f3 10 4a 43 d0 c0 4d 37 9a 09 6a 30 d2 c0
       -16653.157284690355 -18625.65683608437
0002e0 d3 4b 54 7c 86 1d d4 c0 6c 67 2c 2d a0 0a d6 c0
       -20598.101338457152 -22570.502757168768
0002f0 88 43 6a b2 b7 f7 d7 c0 48 8f f3 7f cd e4 d9 c0
       -24542.870264593075 -26515.210934534
000300 16 32 ae ef e1 d1 db c0 bf 78 b8 47 f5 be dd c0
       -28487.530253933823 -30459.832502477566
000310 45 d0 0d bf 07 ac df c0 f9 e0 81 c0 8c cc e0 c0
       -32432.12103600825 -34404.39849943104
000320 77 5e f6 57 15 c3 e1 c0 2b 72 8c b3 9d b9 e2 c0
       -36376.66698759508 -38348.928167555794
000330 d8 f2 2e de 25 b0 e3 c0 23 fa a1 e0 ad a6 e4 c0
       -40321.183371996216 -42293.4336709867
000340 64 13 f7 c1 35 9d e5 c0 2a 5e e7 87 bd 93 e6 c0
       -44265.67992738521 -46237.922839816965
000350 f7 cf 19 37 45 8a e7 c0 59 37 5a d3 cc 80 e8 c0
       -48210.16297617548 -50182.400799854375
000360 c1 7f c4 5f 54 77 e9 c0 56 dd e6 de db 6d ea c0
       -52154.63669037773 -54126.87095969419
000370 8c e6 dc 52 63 64 eb c0 04 28 65 bd ea 5a ec c0
       -56099.10386509923 -58071.33561952415
000380 d0 63 f2 1f 72 51 ed c0 bf 67 b9 7b f9 47 ee c0
       -60043.566399760195 -62015.796353056554
000390 a5 31 bc d1 80 3e ef c0 0d 78 69 11 84 1a f0 c0
       -63988.02560243317 -65960.25425097365
0003a0 91 a7 d9 b7 c7 95 f0 c0 27 34 7b 5c 0b 11 f1 c0
       -67932.48238530594 -69904.71007843372
0003b0 a9 cd 8e ff 4e 8c f1 c0 d0 42 4b a1 92 07 f2 c0
       -71876.93739204727 -73849.1643784151
0003c0 2e 22 df 41 d6 82 f2 c0 98 11 72 e1 19 fe f2 c0
       -75821.39108193733 -77793.61754042504
0003d0 ca e9 25 80 5d 79 f3 c0 57 a1 17 1e a1 f4 f3 c0
       -79765.84378615688 -81738.0698467543
0003e0 c3 0f 60 bb e4 6f f4 c0 fe 8f 14 58 28 eb f4 c0
       -83710.29574590833 -85682.5215039849
0003f0 0a 88 47 f4 6b 66 f5 c0 83 da 08 90 af e1 f5 c0
       -87654.74713853016 -89626.97266469341
000400 e2 45 66 2b f3 5c f6 c0 9d b4 6b c6 36 d8 f6 c0
       -91599.19809558199 -93571.42344255974
000410 b0 80 23 61 7a 53 f7 c0 b0 ac 96 fb bd ce f7 c0
       -95543.64871549862 -97515.87392299133
000420 21 14 cd 95 01 4a f8 c0 78 94 cd 2f 45 c5 f8 c0
       -99488.09907253135 -101460.3241706657
000430 fe 2f 9e c9 88 40 f9 c0 8d 2b 44 63 cc bb f9 c0
       -103432.54922312495 -105404.77423493397
000440 f0 27 c4 fc 0f 37 fa c0 9f 37 22 96 53 b2 fa c0
       -107376.99921050644 -109349.22415372588
000450 5e f1 61 2f 97 2d fb c0 3e 80 86 c8 da a8 fb c0
       -111321.44906801495 -113293.6739563951
000460 60 b1 92 61 1e 24 fc c0 d5 ff 88 fa 61 9f fc c0
       -115265.89882153785 -117238.123665809
000470 de 9e 6b 93 a5 1a fd c0 ca 82 3c 2c e9 95 fd c0
       -119210.34849130685 -121182.57329989519
000480 a6 68 fd c4 2c 11 fe c0 ea dc af 5d 70 8c fe c0
       -123154.79809323195 -125127.0228727941
000490 46 41 55 f6 b3 07 ff c0 ae d1 ee 8e f7 82 ff c0
       -127099.24763989923 -129071.47239572436
0004a0 c5 a8 7d 27 3b fe ff c0 da 61 01 60 bf 3c 00 c1
       -131043.69714132238 -133015.9218776364
0004b0 c5 82 3f 2c 61 7a 00 c1 18 9d 79 f8 02 b8 00 c1
       -134988.14660551227 -136960.37132570962
0004c0 7f 0c b0 c4 a4 f5 00 c1 83 23 e3 90 46 33 01 c1
       -138932.59603891146 -140904.82074573272
0004d0 88 2c 13 5d e8 70 01 c1 b0 6a 40 29 8a ae 01 c1
       -142877.04544672766 -144849.27014239645
0004e0 a3 1a 6b f5 2b ec 01 c1 3f 73 93 c1 cd 29 02 c1
       -146821.494833191 -148793.71951952015
0004f0 31 a6 b9 8d 6f 67 02 c1 84 e0 dd 59 11 a5 02 c1
       -150765.94420175397 -152738.16888022807
000500 17 4b 00 26 b3 e2 02 c1 0d 0b 21 f2 54 20 03 c1
       -154710.39355524696 -156682.61822708734
000510 2c 42 40 be f6 5d 03 c1 32 0f 5e 8a 98 9b 03 c1
       -158654.84289600083 -160627.06756221649
000520 25 8e 7a 56 3a d9 03 c1 93 d8 95 22 dc 16 04 c1
       -162599.2922259431 -164571.51688737105
000530 d4 05 b0 ee 7d 54 04 c1 3d 2b c9 ba 1f 92 04 c1
       -166543.74154667428 -168515.96620401173
000540 52 5c e1 86 c1 cf 04 c1 f3 aa f8 52 63 0d 05 c1
       -170488.19085952878 -172460.41551335863
000550 81 27 0f 1f 05 4b 05 c1 03 e1 24 eb a6 88 05 c1
       -174432.6401656233 -176404.86481643477
000560 46 e5 39 b7 48 c6 05 c1 f9 40 4e 83 ea 03 06 c1
       -178377.08946589584 -180349.31411410103
000570 c5 ff 61 4f 8c 41 06 c1 68 2c 75 1b 2e 7f 06 c1
       -182321.5387611372 -184293.7634070844
000580 c7 d0 87 e7 cf bc 06 c1 02 f6 99 b3 71 fa 06 c1
       -186265.98805201633 -188238.212696001
000590 85 a4 ab 7f 13 38 07 c1 16 e4 bc 4b b5 75 07 c1
       -190210.43733910113 -192182.66198137467
0005a0 e7 bb cd 17 57 b3 07 c1 9d 32 de e3 f8 f0 07 c1
       -194154.8866228752 -196127.11126365224
0005b0 61 4e ee af 9a 2e 08 c1 e8 14 fe 7b 3c 6c 08 c1
       -198099.3359037517 -200071.56054321607
0005c0 7b 8b 0d 48 de a9 08 c1 03 b7 1c 14 80 e7 08 c1
       -202043.78518208474 -204016.0098203943
0005d0 0f 9c 2b e0 21 25 09 c1 da 3e 3a ac c3 62 09 c1
       -205988.23445817872 -207960.4590954695
0005e0 55 a3 48 78 65 a0 09 c1 29 cd 56 44 07 de 09 c1
       -209932.68373229602 -211904.90836868554
0005f0 c0 bf 64 10 a9 1b 0a c1 47 7e 72 dc 4a 59 0a c1
       -213877.1330046635 -215849.35764025358
000600 b5 0b 80 a8 ec 96 0a c1 ce 6a 8d 74 8e d4 0a c1
       -217821.58227547785 -219793.8069103569
000610 26 9e 9a 40 30 12 0b c1 28 a8 a7 0c d2 4f 0b c1
       -221766.03154491 -223738.25617915508
000620 14 8b b4 d8 73 8d 0b c1 06 49 c1 a4 15 cb 0b c1
       -225710.48081310897 -227682.70544678735
000630 f7 e3 cd 70 b7 08 0c c1 c0 5d da 3c 59 46 0c c1
       -229654.93008020494 -231627.1547133755
000640 1d b8 e6 08 fb 83 0c c1 ae f4 f2 d4 9c c1 0c c1
       -233599.37934631194 -235571.60397902637
000650 f8 14 ff a0 3e ff 0c c1 6a 1a 0b 6d e0 3c 0d c1
       -237543.82861153013 -239516.05324383389
000660 5c 06 17 39 82 7a 0d c1 11 da 22 05 24 b8 0d c1
       -241488.27787594765 -243460.50250788082
000670 b8 96 2e d1 c5 f5 0d c1 70 3d 3a 9d 67 33 0e c1
       -245432.72713964223 -247404.95177124022
000680 45 cf 45 69 09 71 0e c1 36 4d 51 35 ab ae 0e c1
       -249377.17640268258 -251349.40103397676
000690 31 b8 5c 01 4d ec 0e c1 17 11 68 cd ee 29 0f c1
       -253321.62566512966 -255293.85029614784
0006a0 bc 58 73 99 90 67 0f c1 e9 8f 7e 65 32 a5 0f c1
       -257266.07492703747 -259238.2995578044
0006b0 5c b7 89 31 d4 e2 0f c1 e4 67 ca fe 3a 10 10 c1
       -261210.52418845415 -263182.74881899194
0006c0 ea ec cf e4 0b 2f 10 c1 11 6b d5 ca dc 4d 10 c1
       -265154.9734494226 -267127.19807975093
0006d0 a4 e2 da b0 ad 6c 10 c1 ea 53 e0 96 7e 8b 10 c1
       -269099.4227099812 -271071.6473401176
0006e0 28 bf e5 7c 4f aa 10 c1 9d 24 eb 62 20 c9 10 c1
       -273043.8719701641 -275016.09660012444
0006f0 87 84 f0 48 f1 e7 10 c1 1f df f5 2e c2 06 11 c1
       -276988.32123000216 -278960.5458598006
000700 9c 34 fb 14 93 25 11 c1 32 85 00 fb 63 44 11 c1
       -280932.77048952295 -282904.99511917226
000710 12 d1 05 e1 34 63 11 c1 6b 18 0b c7 05 82 11 c1
       -284877.2197487514 -286849.444378263
000720 6a 5b 10 ad d6 a0 11 c1 39 9a 15 93 a7 bf 11 c1
       -288821.66900770983 -290793.89363709424
000730 00 d5 1a 79 78 de 11 c1 e5 0b 20 5f 49 fd 11 c1
       -292766.1182664186 -294738.34289568505
000740 0d 3f 25 45 1a 1c 12 c1 9b 6e 2a 2b eb 3a 12 c1
       -296710.5675248958 -298682.79215405294
000750 b0 9a 2f 11 bc 59 12 c1 6b c3 34 f7 8c 78 12 c1
       -300655.0167831583 -302627.2414122137
000760 ea e8 39 dd 5d 97 12 c1 4a 0b 3f c3 2e b6 12 c1
       -304599.46604122093 -306571.69067018165
000770 a6 2a 44 a9 ff d4 12 c1 19 47 49 8f d0 f3 12 c1
       -308543.9152990974 -310516.13992796984
000780 bb 60 4e 75 a1 12 13 c1 a4 77 53 5b 72 31 13 c1
       -312488.3645568003 -314460.58918559016
000790 eb 8b 58 41 43 50 13 c1 a5 9d 5d 27 14 6f 13 c1
       -316432.8138143408 -318405.03844305343
0007a0 e7 ac 62 0d e5 8d 13 c1 c6 b9 67 f3 b5 ac 13 c1
       -320377.2630717293 -322349.48770036956
0007b0 54 c4 6c d9 86 cb 13 c1 a3 cc 71 bf 57 ea 13 c1
       -324321.7123289753 -326293.9369575476
0007c0 c4 d2 76 a5 28 09 14 c1 c9 d6 7b 8b f9 27 14 c1
       -328266.16158608743 -330238.3862145958
0007d0 c1 d8 80 71 ca 46 14 c1 bb d8 85 57 9b 65 14 c1
       -332210.61084307363 -334182.8354715218
0007e0 c6 d6 8a 3d 6c 84 14 c1 f1 d2 8f 23 3d a3 14 c1
       -336155.0600999411 -338127.2847283325
0007f0 48 cd 94 09 0e c2 14 c1 d9 c5 99 ef de e0 14 c1
       -340099.5093566966 -342071.73398503434

position_z f8 [622]
000000 00 00 00 00 00 00 00 00 6b b4 93 9e 77 3b 79 3f
       0.0 0.006160228026812135
000010 9e 25 a8 7a 3b ee 8e 3f 83 38 03 93 5d 9f 98 3f
       0.015102829628648003 0.02404543123048387
000020 c4 e7 58 84 bf 97 9d 3f 36 49 1b a2 17 76 a1 3f
       0.028899185612523373 0.03410409787979278
000030 ad c5 e7 ad a9 5e a5 3f 48 31 19 e6 62 5d c7 3f
       0.04173784492366948 0.18253742442392196
000040 8e 67 64 a9 8f 24 20 40 2e 3d e6 9b 0f e6 3f 40
       8.071408551699076 31.89867567416257
000050 3c 3c 2f 86 0d f0 51 40 25 d9 88 ec 16 f8 5f 40
       71.75082544911214 127.876399167672
000060 fe 41 07 56 93 10 69 40 54 89 23 ec 96 1e 72 40
       200.51798535745178 289.9118462932722
000070 13 41 58 55 9a c4 78 40 5d 31 d0 03 11 3f 80 40
       396.2876790473394 519.8833080544533
000080 6f 00 d2 06 47 a7 84 40 5c 79 f8 c9 16 9c 89 40
       660.9096809774763 819.5111274158512
000090 1c 18 ce 60 1d 1d 8f 40 e3 54 d9 67 28 92 92 40
       995.63934479724 1188.5394586523114
0000a0 2f 75 15 3d 38 d4 95 40 56 f3 c8 b2 2a 4f 99 40
       1397.0549205162786 1619.7916976355095
0000b0 7f 3a 26 5e fa f3 9c 40 d2 19 e4 99 61 67 a0 40
       1852.994499776192 2099.6906272202987
0000c0 9b fd 3d 84 dc 68 a2 40 73 b9 fb 31 1e 7c a4 40
       2356.4306964275434 2622.058975092304
0000d0 57 33 5f d3 58 9f a6 40 75 f3 ed ef 74 d1 a8 40
       2895.6734876394435 3176.7283930167855
0000e0 c5 a9 e3 c1 39 12 ab 40 84 fe 0b 22 5b 62 ad 40
       3465.1128073830355 3761.177994131869
0000f0 64 7b 37 0c 9d c3 af 40 33 5c c6 46 6d 1c b1 40
       4065.8067338312267 4380.426861188421
000100 a1 a2 fe b3 a2 68 b1 40 74 50 be 8a 8a b5 b1 40
       4456.635559000687 4533.541179556505
000110 75 0c bb 9d ca 23 b2 40 de 88 d0 16 0e 52 b2 40
       4643.791469278852 4690.055035622992
000120 74 ed 2b c4 20 5f b2 40 72 09 52 77 de 60 b2 40
       4703.127993340942 4704.8690081856785
000130 dd 76 e8 49 9c 62 b2 40 a5 f3 f2 78 45 64 b2 40
       4706.610502747554 4708.271376785739
000140 28 cd 10 9f f2 74 b2 40 35 05 5c ff 88 22 b3 40
       4724.947739648902 4898.535146476051
000150 d6 21 61 38 5d a5 b4 40 8c 59 91 03 e0 5c b6 40
       5285.364141531716 5724.87505443989
000160 8e 7c f0 14 5f 4a b8 40 ed fa 58 1e 8d 6e ba 40
       6218.371413259896 6766.551244317304
000170 ab f7 a9 77 85 c9 bc 40 83 6f 21 d2 d6 5a bf 40
       7369.521357176748 8026.83914383862
000180 79 d0 0f 12 ca 10 c1 40 4b 38 2f 44 35 8e c2 40
       8737.578676201623 9500.416143324363
000190 e2 9b 27 42 dd 24 c4 40 12 fc db 9f d8 d3 c5 40
       10313.728581381907 11175.692378519136
0001a0 db 21 22 30 29 9a c7 40 f8 ac e1 27 d3 76 c9 40
       12084.321781412631 13037.649654588182
0001b0 64 a0 42 33 fc 68 cb 40 8e 59 28 8c f0 6f cd 40
       14033.970314338985 15071.879277271011
0001c0 09 82 a8 0e 24 8b cf 40 c8 a2 dd d2 18 dd d0 40
       16150.281697333807 17268.38787022492
0001d0 d6 d9 f5 c7 6c fe d1 40 17 f1 9b 5d 7e 29 d3 40
       18425.69970461152 19621.974463448943
0001e0 4d 12 08 08 4b 5e d4 40 99 65 eb a4 de 9c d5 40
       20857.172365205643 22131.47881588861
0001f0 c9 43 ef ab 52 e5 d6 40 80 34 bc ab cc 37 d8 40
       23445.29174405689 24799.197981883306
000200 36 37 f5 e3 7d 94 d9 40 fc a5 b8 47 a6 fb da 40
       26193.96703844444 27630.598127519697
000210 c8 1a b9 48 8e 6d dc 40 b4 49 85 46 83 ea dd 40
       29110.22318866363 30634.05117923925
000220 ec 95 ff ef d6 72 df 40 2c 7f 20 78 6f 83 e0 40
       32203.358398338707 33819.483413933165
000230 c9 b7 4e 6d 7a 53 e1 40 ad ce 85 26 bb 29 e2 40
       35483.82584319969 37197.84845247618
000240 f7 8d 9d a1 62 06 e3 40 f7 bd a8 4b a4 e9 e3 40
       38963.08222844818 40781.13423573592
000250 3a e8 e4 57 b6 d3 e4 40 b8 39 3c 2e d2 c4 e5 40
       42653.698229268615 44582.568143952114
000260 6d 68 b9 f3 34 bd e6 40 63 a4 e7 30 20 bd e7 40
       46569.65475149532 48617.00596983058
000270 e8 97 17 9c da c4 e8 40 f5 a9 21 10 b1 d4 e9 40
       50726.83155421895 52901.533219177196
000280 79 35 d6 bb f7 ec ea 40 43 fa 3a a4 06 58 eb 40
       55143.74167929119 56000.207547653954
000290 f1 c8 35 b2 b7 69 eb 40 a4 ac 0a 58 a6 6b eb 40
       56141.74050416228 56157.19824727744
0002a0 90 97 69 15 95 6d eb 40 8d 38 3c 15 8c 6f eb 40
       56172.65886382677 56188.377592192126
0002b0 24 4f 8b 45 31 83 eb 40 b2 0c b1 db 54 47 ec 40
       56345.53973927934 57914.65181782226
0002c0 58 3d b7 f8 5b 66 ed 40 54 e4 1f b1 2a 84 ee 40
       60210.87411081296 62497.33412165256
0002d0 b7 ca 6d 47 c2 a0 ef 40 57 8f 71 dd 11 5e f0 40
       64774.07121934502 67041.1165633773
0002e0 b0 58 ae ec 27 eb f0 40 bb 72 13 a6 a3 77 f1 40
       69298.49528345722 71546.22804589097
0002f0 b5 3e a4 50 85 03 f2 40 eb f4 24 29 cd 8e f2 40
       73784.33218788619 76012.82254501029
000300 49 08 98 64 7b 19 f3 40 4e 88 15 32 90 a3 f3 40
       78231.71205905186 80441.01222756619
000310 d1 fc 29 bc 0b 2d f4 40 f8 29 dd 29 ee b5 f4 40
       82640.73343847996 84830.885220684
000320 22 06 78 9f 37 3e f5 40 cd b7 1a 3f e8 c5 f5 40
       87011.47643282314 89182.51540633962
000330 97 db 2e 29 00 4d f6 40 8e 0a bf 7c 7f d3 f6 40
       91344.01005445268 93495.96795562861
000340 0e 3c ba 57 66 59 f7 40 27 e8 27 d7 b4 de f7 40
       95638.39641784152 97771.30252829251
000350 cc 8f 50 17 6b 63 f8 40 d4 65 dd 33 89 e7 f8 40
       99894.693192064 102008.57516231324
000360 f6 26 f1 47 0f 6b f9 40 dc ae 3b 6e fd ed f9 40
       104112.95506396503 106207.83941238694
000370 e7 78 09 c1 53 70 fa 40 c6 f3 4f 5a 12 f2 fa 40
       108293.23462817409 110369.14704890465
000380 36 59 b7 53 39 73 fb 40 86 92 a2 c6 c8 f3 fb 40
       112435.58293852661 114492.54849488483
000390 9f 93 35 cc c0 73 fc 40 b4 7e 5a 7d 21 f3 fc 40
       116540.04985578217 118578.09310388082
0003a0 ae d0 c5 f2 ea 71 fd 40 84 c8 f9 44 1d f0 fd 40
       120606.68427068248 122625.82933977438
0003b0 f1 30 49 8c b8 6d fe 40 a6 ab d9 e0 bc ea fe 40
       124635.53424948805 126635.80489508677
0003c0 9b 96 a5 5a 2a 67 ff 40 0d 9f 7d 11 01 e3 ff 40
       128626.64713057356 130608.06677019242
0003d0 e4 08 85 8e 20 2f 00 41 9a fa 65 4a 75 6c 00 41
       132580.0695896811 134542.66132732184
0003e0 92 fb 0e c8 7e a9 00 41 3b 9b 1a 13 3d e6 00 41
       136495.84768482723 138439.63432809137
0003f0 83 f7 10 37 b0 22 01 41 99 06 68 3f d8 5e 01 41
       140374.02688783043 142299.03096013216
000400 9b d6 83 37 b5 9a 01 41 ee c4 b6 2a 47 d6 01 41
       144214.65210693036 146120.8958564172
000410 aa ae 41 24 8e 11 02 41 40 1b 54 2f 8a 4c 02 41
       148017.767703404 149905.27310963906
000420 55 62 0c 57 3b 87 02 41 95 cd 77 a6 a1 c1 02 41
       151783.41750408956 153652.2062831937
000430 26 b7 92 28 bd fb 02 41 3f a5 48 e8 8d 35 03 41
       155511.64481108746 157361.73841981028
000440 5b 63 74 f0 13 6f 03 41 64 19 e0 4b 4f a8 03 41
       159202.4924094927 161033.91204852902
000450 21 61 45 05 40 e1 03 41 2b 5a 4d 27 e6 19 04 41
       162856.00257373697 164668.7691905064
000460 9f bc 90 bc 41 52 04 41 bd ea 97 cf 52 8a 04 41
       166472.21707293854 168266.35136397733
000470 96 01 db 6a 19 c2 04 41 ec e8 c1 98 95 f9 04 41
       170051.17717553367 171826.6995886037
000480 63 62 a4 63 c7 30 05 41 10 18 ca d5 ae 67 05 41
       173592.92365338196 175349.85438936995
000490 83 aa 6a f9 4b 9e 05 41 58 be ad d8 9e d4 05 41
       177097.49678548062 178835.85580013948
0004a0 60 09 ab 7d a7 0a 06 41 6b 5f 6a f2 65 40 06 41
       180564.93636138272 182284.74336695237
0004b0 bd be e3 40 da 75 06 41 38 5c ff 72 04 ab 06 41
       183995.28168438925 185696.55615112348
0004c0 47 af 95 92 e4 df 06 41 86 7d 6f a9 7a 14 07 41
       187388.57157456336 189071.33273218217
0004d0 36 e6 45 c1 c6 48 07 41 7d 6d c2 e3 c8 7c 07 41
       190744.8443716035 192409.11121068514
0004e0 79 07 7f 1a 81 b0 07 41 25 23 06 6f ef e3 07 41
       194064.13793760145 195709.9292109247
0004f0 17 b5 d2 ea 13 17 08 41 1a 42 50 97 ee 49 08 41
       197346.48965970494 198973.82388354914
000500 a6 e9 da 7d 7f 7c 08 41 30 70 bf a7 c6 ae 08 41
       200591.93645269907 202200.8319081082
000510 65 49 3b 1e c4 e0 08 41 3f a2 7c ea 77 12 09 41
       203800.5147615179 205390.98949553256
000520 00 6b a2 15 e2 43 09 41 14 61 bc a8 02 75 09 41
       206972.26056369394 208544.33239055483
000530 d8 18 cb ac d9 a5 09 41 46 07 c0 2a 67 d6 09 41
       210107.20937175187 211660.89587407763
000540 88 8b 7d 2b ab 06 0a 41 7a f8 d6 b7 a5 36 0a 41
       213205.39623555192 214740.71476549265
000550 0d 9e 90 d8 56 66 0a 41 96 d2 5f 96 be 95 0a 41
       216266.85574458577 217783.8234249546
000560 0b fc ea f9 dc c4 0a 41 26 99 c9 0b b2 f3 0a 41
       219291.6220302287 220790.25575561187
000570 76 4a 84 d4 3d 22 0b 41 58 db 94 5c 80 50 0b 41
       222279.7287679498 223760.04520579684
000580 e2 4a 66 ac 79 7e 0b 41 b3 d4 54 cc 29 ac 0b 41
       225231.20917948248 226693.22477117702
000590 b3 f9 ad c4 90 d9 0b 41 c1 88 b0 9d ae 06 0c 41
       228146.09603495672 229589.8269968685
0005a0 4b a7 8c 5f 83 33 0c 41 d6 d9 63 12 0f 60 0c 41
       231024.421654994 232449.88397951302
0005b0 70 0c 49 be 51 8c 0c 41 12 9b 40 6b 4b b8 0c 41
       233866.21791276662 235273.42736931943
0005c0 f0 59 40 21 fc e3 0c 41 b6 9d 2f e8 63 0f 0d 41
       236671.51623602165 238060.48837207042
0005d0 b2 43 e7 c7 82 3a 0d 41 f0 b9 31 c8 58 65 0d 41
       239440.34760907065 240811.09775109543
0005e0 3f 07 cb f0 e5 8f 0d 41 29 d3 60 49 2a ba 0d 41
       242172.74257474576 243525.28582920998
0005f0 d9 6d 92 d9 25 e4 0d 41 ed d7 f0 a8 d8 0d 0e 41
       244868.73123632258 246203.08249062244
000600 3a ca fe be 42 37 0e 41 7d bd 30 23 64 60 0e 41
       247528.34325941076 248844.51718280828
000610 fd f1 ec dc 3c 89 0e 41 19 77 8b f3 cc b1 0e 41
       250151.60787381223 251449.61891835256
000620 ca 32 56 6e 14 da 0e 41 11 e9 88 54 13 02 0f 41
       252738.5538753479 254018.4162767609
000630 55 43 51 ad c9 29 0f 41 b2 d7 ce 7f 37 51 0f 41
       255289.20962765315 256550.93740623962
000640 35 30 13 d3 5c 78 0f 41 0b d2 21 ae 39 9f 0f 41
       257803.60306394254 259047.21002544495
000650 9e 44 f0 17 ce c5 0f 41 a2 18 66 17 1a ec 0f 41
       260281.76168874366 261507.26142520184
000660 8a 77 ae d9 0e 09 10 41 13 40 50 79 ec 1b 10 41
       262723.7125796011 263931.11847019306
000670 0e 51 f7 ed a5 2e 10 41 0e a8 fb 3a 3b 41 10 41
       265129.48238875053 266318.8076006182
000680 75 58 ae 63 ac 53 10 41 ce 8e 59 6b f9 65 10 41
       267499.09734476294 268670.3548338235
000690 18 94 40 55 22 78 10 41 12 d1 9f 24 27 8a 10 41
       269832.5832541599 270985.78576590226
0006a0 7a d1 ac dc 07 9c 10 41 45 47 96 80 c4 ad 10 41
       272129.9655029994 273265.1255732666
0006b0 d0 0d 84 13 5d bf 10 41 0a 2d 97 98 d1 d0 10 41
       274391.26905843336 275508.3990141904
0006c0 95 dc e9 12 22 e2 10 41 e2 86 8f 85 4e f3 10 41
       276616.5184702364 277715.6304303241
0006d0 41 cc 94 f3 56 04 11 41 ee 85 ff 5f 3b 15 11 41
       278805.7378723063 279886.843748181
0006e0 15 c9 ce cd fb 25 11 41 ce e9 fa 3f 98 36 11 41
       280958.9509841365 282022.0624805958
0006f0 14 7e 75 b9 10 47 11 41 ae 60 29 3d 65 57 11 41
       283076.1811122608 284121.3097281557
000700 1b b4 fa cd 95 67 11 41 6e e5 c6 6e a2 77 11 41
       285157.4511516706 286184.6081806038
000710 27 af 64 22 8b 87 11 41 03 1c a4 eb 4f 97 11 41
       287202.7835872047 288211.98011821526
000720 c6 89 4e cd f0 a6 11 41 fe ab 26 ca 6d b6 11 41
       289212.2004949119 290203.4474131464
000730 bd 8e e8 e4 c6 c5 11 41 4c 99 49 20 fc d4 11 41
       291185.72354338673 292159.0315307572
000740 dc 90 f8 7e 0d e4 11 41 29 9b 9d 03 fb f2 11 41
       293123.3739950785 294078.75353090704
000750 17 41 da b0 c4 01 12 41 4f 71 49 89 6a 10 12 41
       295025.1727075739 295962.63406922383
000760 cc 82 7f 8f ec 1e 12 41 65 37 0a c6 4a 2d 12 41
       296891.1401348531 297810.6933983474
000770 52 be 70 2f 85 3b 12 41 a7 b6 33 ce 9b 49 12 41
       298721.2963285196 299622.9513691463
000780 c8 31 cd a4 8e 57 12 41 d8 b5 b0 b5 5d 65 12 41
       300515.66093900474 301399.4274319089
000790 23 40 4b 03 09 73 12 41 7a 47 03 90 90 80 12 41
       302274.2532167455 303140.1406375092
0007a0 90 be 38 5e f4 8d 12 41 4b 16 45 70 34 9b 12 41
       303997.09201333765 304845.1096385463
0007b0 13 40 7b c8 50 a8 12 41 15 b0 27 69 49 b5 12 41
       305684.19578266254 306514.3526904595
0007c0 83 5f 90 54 1e c2 12 41 cb ce f4 8c cf ce 12 41
       307335.58258198964 308147.8876526176
0007d0 c9 07 8e 14 5d db 12 41 f2 9f 8e ed c6 e7 12 41
       308951.270073053 309745.7319893829
0007e0 78 ba 22 1a 0d f4 12 41 68 0a 70 9c 2f 00 13 41
       310531.2755231033 311307.90277115116
0007f0 c0 d4 95 76 2e 0c 13 41 7f f2 ac aa 09 18 13 41
       312075.6158059351 312834.4166753664
