results_6dof/SCUD-B_45.0deg_20251216_194012.npz (npz, 49166 bytes, 22 tensors)

time f8 [624]
00000000: 0000 0000 0000 0000 b7bd d104 7dd7 813f
00000010: f074 5140 dcde 953f 8205 1dff fc68 a13f
00000020: 283a 69c4 61ec a43f ce6e b589 c66f a83f
00000030: c6d3 9bd0 73dc ac3f 5ef1 6625 ce46 c23f
00000040: 4143 17f8 bde7 e13f d94e da53 aa76 f03f
00000050: 6262 1d29 b448 fb3f 31b1 8e14 5aa4 0540
00000060: 31b1 8e14 5aa4 0d40 9858 470a 2dd2 1240
00000070: 9858 470a 2dd2 1640 9858 470a 2dd2 1a40
00000080: 9858 470a 2dd2 1e40 ab2f 0c09 8e67 2140
00000090: ab2f 0c09 8e67 2340 ab2f 0c09 8e67 2540
000000a0: 2fea 7ad0 3354 2740 2fea 7ad0 3354 2940
000000b0: 2fea 7ad0 3354 2b40 2fea 7ad0 3354 2d40
000000c0: 2fea 7ad0 3354 2f40 1875 3de8 19aa 3040
000000d0: 1875 3de8 19aa 3140 1875 3de8 19aa 3240
000000e0: 1875 3de8 19aa 3340 1875 3de8 19aa 3440
000000f0: 1875 3de8 19aa 3540 1875 3de8 19aa 3640
00000100: 1875 3de8 19aa 3740 1875 3de8 19aa 3840
00000110: 79c4 0b8a c8c6 3840 da13 da2b 77e3 3840
00000120: a365 3160 2bfe 3840 892f cd20 5404 3940
00000130: 9b3e c650 e009 3940 4fd5 8030 5a41 3940
00000140: 4fd5 8030 5a41 3a40 4fd5 8030 5a41 3b40
00000150: 4fd5 8030 5a41 3c40 4fd5 8030 5a41 3d40
00000160: 4fd5 8030 5a41 3e40 4fd5 8030 5a41 3f40
00000170: a86a 4018 ad20 4040 a86a 4018 ada0 4040
00000180: a86a 4018 ad20 4140 a86a 4018 ada0 4140
00000190: a86a 4018 ad20 4240 a86a 4018 ada0 4240
000001a0: a86a 4018 ad20 4340 a86a 4018 ada0 4340
000001b0: a86a 4018 ad20 4440 a86a 4018 ada0 4440
000001c0: a86a 4018 ad20 4540 a86a 4018 ada0 4540
000001d0: a86a 4018 ad20 4640 a86a 4018 ada0 4640
000001e0: a86a 4018 ad20 4740 a86a 4018 ada0 4740
000001f0: a86a 4018 ad20 4840 a86a 4018 ada0 4840
00000200: a86a 4018 ad20 4940 a86a 4018 ada0 4940
00000210: a86a 4018 ad20 4a40 a86a 4018 ada0 4a40
00000220: a86a 4018 ad20 4b40 a86a 4018 ada0 4b40
00000230: a86a 4018 ad20 4c40 a86a 4018 ada0 4c40
00000240: a86a 4018 ad20 4d40 a86a 4018 ada0 4d40
00000250: a86a 4018 ad20 4e40 a86a 4018 ada0 4e40
00000260: a86a 4018 ad20 4f40 a86a 4018 ada0 4f40
00000270: 5435 208c 5610 5040 48cf 8472 5d28 5040
00000280: 039c 9fb0 2230 5040 be68 baee e737 5040
00000290: f2c6 6f6c 653f 5040 4233 859f cf3f 5040
000002a0: 929f 9ad2 3940 5040 eca4 7898 a640 5040
000002b0: 70da 2453 e644 5040 98f1 de9d 636f 5040
000002c0: 98f1 de9d 63af 5040 98f1 de9d 63ef 5040
000002d0: 98f1 de9d 632f 5140 98f1 de9d 636f 5140
000002e0: 98f1 de9d 63af 5140 98f1 de9d 63ef 5140
000002f0: 98f1 de9d 632f 5240 98f1 de9d 636f 5240
00000300: 98f1 de9d 63af 5240 98f1 de9d 63ef 5240
00000310: 98f1 de9d 632f 5340 98f1 de9d 636f 5340
00000320: 98f1 de9d 63af 5340 98f1 de9d 63ef 5340
00000330: 98f1 de9d 632f 5440 98f1 de9d 636f 5440
00000340: 98f1 de9d 63af 5440 98f1 de9d 63ef 5440
00000350: 98f1 de9d 632f 5540 98f1 de9d 636f 5540
00000360: 98f1 de9d 63af 5540 98f1 de9d 63ef 5540
00000370: 98f1 de9d 632f 5640 98f1 de9d 636f 5640
00000380: 98f1 de9d 63af 5640 98f1 de9d 63ef 5640
00000390: 98f1 de9d 632f 5740 98f1 de9d 636f 5740
000003a0: 98f1 de9d 63af 5740 98f1 de9d 63ef 5740
000003b0: 98f1 de9d 632f 5840 98f1 de9d 636f 5840
000003c0: 98f1 de9d 63af 5840 98f1 de9d 63ef 5840
000003d0: 98f1 de9d 632f 5940 98f1 de9d 636f 5940
000003e0: 98f1 de9d 63af 5940 98f1 de9d 63ef 5940
000003f0: 98f1 de9d 632f 5a40 98f1 de9d 636f 5a40
00000400: 98f1 de9d 63af 5a40 98f1 de9d 63ef 5a40
00000410: 98f1 de9d 632f 5b40 98f1 de9d 636f 5b40
00000420: 98f1 de9d 63af 5b40 98f1 de9d 63ef 5b40
00000430: 98f1 de9d 632f 5c40 98f1 de9d 636f 5c40
00000440: 98f1 de9d 63af 5c40 98f1 de9d 63ef 5c40
00000450: 98f1 de9d 632f 5d40 98f1 de9d 636f 5d40
00000460: 98f1 de9d 63af 5d40 98f1 de9d 63ef 5d40
00000470: 98f1 de9d 632f 5e40 98f1 de9d 636f 5e40
00000480: 98f1 de9d 63af 5e40 98f1 de9d 63ef 5e40
00000490: 98f1 de9d 632f 5f40 98f1 de9d 636f 5f40
000004a0: 98f1 de9d 63af 5f40 98f1 de9d 63ef 5f40
000004b0: cc78 efce b117 6040 cc78 efce b137 6040
000004c0: cc78 efce b157 6040 cc78 efce b177 6040
000004d0: cc78 efce b197 6040 cc78 efce b1b7 6040
000004e0: cc78 efce b1d7 6040 cc78 efce b1f7 6040
000004f0: cc78 efce b117 6140 cc78 efce b137 6140
00000500: cc78 efce b157 6140 cc78 efce b177 6140
00000510: cc78 efce b197 6140 cc78 efce b1b7 6140
00000520: cc78 efce b1d7 6140 cc78 efce b1f7 6140
00000530: cc78 efce b117 6240 cc78 efce b137 6240
00000540: cc78 efce b157 6240 cc78 efce b177 6240
00000550: cc78 efce b197 6240 cc78 efce b1b7 6240
00000560: cc78 efce b1d7 6240 cc78 efce b1f7 6240
00000570: cc78 efce b117 6340 cc78 efce b137 6340
00000580: cc78 efce b157 6340 cc78 efce b177 6340
00000590: cc78 efce b197 6340 cc78 efce b1b7 6340
000005a0: cc78 efce b1d7 6340 cc78 efce b1f7 6340
000005b0: cc78 efce b117 6440 cc78 efce b137 6440
000005c0: cc78 efce b157 6440 cc78 efce b177 6440
000005d0: cc78 efce b197 6440 cc78 efce b1b7 6440
000005e0: cc78 efce b1d7 6440 cc78 efce b1f7 6440
000005f0: cc78 efce b117 6540 cc78 efce b137 6540
00000600: cc78 efce b157 6540 cc78 efce b177 6540
00000610: cc78 efce b197 6540 cc78 efce b1b7 6540
00000620: cc78 efce b1d7 6540 cc78 efce b1f7 6540
00000630: cc78 efce b117 6640 cc78 efce b137 6640
00000640: cc78 efce b157 6640 cc78 efce b177 6640
00000650: cc78 efce b197 6640 cc78 efce b1b7 6640
00000660: cc78 efce b1d7 6640 cc78 efce b1f7 6640
00000670: cc78 efce b117 6740 cc78 efce b137 6740
00000680: cc78 efce b157 6740 cc78 efce b177 6740
00000690: cc78 efce b197 6740 cc78 efce b1b7 6740
000006a0: cc78 efce b1d7 6740 cc78 efce b1f7 6740
000006b0: cc78 efce b117 6840 cc78 efce b137 6840
000006c0: cc78 efce b157 6840 cc78 efce b177 6840
000006d0: cc78 efce b197 6840 cc78 efce b1b7 6840
000006e0: cc78 efce b1d7 6840 cc78 efce b1f7 6840
000006f0: cc78 efce b117 6940 cc78 efce b137 6940
00000700: cc78 efce b157 6940 cc78 efce b177 6940
00000710: cc78 efce b197 6940 cc78 efce b1b7 6940
00000720: cc78 efce b1d7 6940 cc78 efce b1f7 6940
00000730: cc78 efce b117 6a40 cc78 efce b137 6a40
00000740: cc78 efce b157 6a40 cc78 efce b177 6a40
00000750: cc78 efce b197 6a40 cc78 efce b1b7 6a40
00000760: cc78 efce b1d7 6a40 cc78 efce b1f7 6a40
00000770: cc78 efce b117 6b40 cc78 efce b137 6b40
00000780: cc78 efce b157 6b40 cc78 efce b177 6b40
00000790: cc78 efce b197 6b40 cc78 efce b1b7 6b40
000007a0: cc78 efce b1d7 6b40 cc78 efce b1f7 6b40
000007b0: cc78 efce b117 6c40 cc78 efce b137 6c40
000007c0: cc78 efce b157 6c40 cc78 efce b177 6c40
000007d0: cc78 efce b197 6c40 cc78 efce b1b7 6c40
000007e0: cc78 efce b1d7 6c40 cc78 efce b1f7 6c40
000007f0: cc78 efce b117 6d40 cc78 efce b137 6d40
0.0 0.008711792668889424 0.021357957292242824 0.03400412191559622 0.04086595079990146 0.0477277796842067 0.05636941834919855 0.14278580499911703
0.5595388265156559 1.0289710307596833 1.7052499395414533 2.7052499395414533 3.7052499395414533 4.705249939541453 5.705249939541453 6.705249939541453
7.705249939541453 8.702255518663 9.702255518663 10.702255518663 11.664457812313314 12.664457812313314 13.664457812313314 14.664457812313314
15.664457812313314 16.664457812313316 17.664457812313316 18.664457812313316 19.664457812313316 20.664457812313316 21.664457812313316 22.664457812313316
23.664457812313316 24.664457812313316 24.776497485993307 24.888537159673298 24.992849361476726 25.016908693403398 25.03857903327899 25.2552824320349
26.2552824320349 27.2552824320349 28.2552824320349 29.2552824320349 30.2552824320349 31.2552824320349 32.2552824320349 33.2552824320349
34.2552824320349 35.2552824320349 36.2552824320349 37.2552824320349 38.2552824320349 39.2552824320349 40.2552824320349 41.2552824320349
42.2552824320349 43.2552824320349 44.2552824320349 45.2552824320349 46.2552824320349 47.2552824320349 48.2552824320349 49.2552824320349
50.2552824320349 51.2552824320349 52.2552824320349 53.2552824320349 54.2552824320349 55.2552824320349 56.2552824320349 57.2552824320349
58.2552824320349 59.2552824320349 60.2552824320349 61.2552824320349 62.2552824320349 63.2552824320349 64.2552824320349 64.63070357293793
64.75211730563028 64.87353103832262 64.99056540408836 64.9970473099502 65.00352921581205 65.01016818792021 65.07655790900185 65.7404551198182
66.7404551198182 67.7404551198182 68.7404551198182 69.7404551198182 70.7404551198182 71.7404551198182 72.7404551198182 73.7404551198182
74.7404551198182 75.7404551198182 76.7404551198182 77.7404551198182 78.7404551198182 79.7404551198182 80.7404551198182 81.7404551198182
82.7404551198182 83.7404551198182 84.7404551198182 85.7404551198182 86.7404551198182 87.7404551198182 88.7404551198182 89.7404551198182
90.7404551198182 91.7404551198182 92.7404551198182 93.7404551198182 94.7404551198182 95.7404551198182 96.7404551198182 97.7404551198182
98.7404551198182 99.7404551198182 100.7404551198182 101.7404551198182 102.7404551198182 103.7404551198182 104.7404551198182 105.7404551198182
106.7404551198182 107.7404551198182 108.7404551198182 109.7404551198182 110.7404551198182 111.7404551198182 112.7404551198182 113.7404551198182
114.7404551198182 115.7404551198182 116.7404551198182 117.7404551198182 118.7404551198182 119.7404551198182 120.7404551198182 121.7404551198182
122.7404551198182 123.7404551198182 124.7404551198182 125.7404551198182 126.7404551198182 127.7404551198182 128.7404551198182 129.7404551198182
130.7404551198182 131.7404551198182 132.7404551198182 133.7404551198182 134.7404551198182 135.7404551198182 136.7404551198182 137.7404551198182
138.7404551198182 139.7404551198182 140.7404551198182 141.7404551198182 142.7404551198182 143.7404551198182 144.7404551198182 145.7404551198182
146.7404551198182 147.7404551198182 148.7404551198182 149.7404551198182 150.7404551198182 151.7404551198182 152.7404551198182 153.7404551198182
154.7404551198182 155.7404551198182 156.7404551198182 157.7404551198182 158.7404551198182 159.7404551198182 160.7404551198182 161.7404551198182
162.7404551198182 163.7404551198182 164.7404551198182 165.7404551198182 166.7404551198182 167.7404551198182 168.7404551198182 169.7404551198182
170.7404551198182 171.7404551198182 172.7404551198182 173.7404551198182 174.7404551198182 175.7404551198182 176.7404551198182 177.7404551198182
178.7404551198182 179.7404551198182 180.7404551198182 181.7404551198182 182.7404551198182 183.7404551198182 184.7404551198182 185.7404551198182
186.7404551198182 187.7404551198182 188.7404551198182 189.7404551198182 190.7404551198182 191.7404551198182 192.7404551198182 193.7404551198182
194.7404551198182 195.7404551198182 196.7404551198182 197.7404551198182 198.7404551198182 199.7404551198182 200.7404551198182 201.7404551198182
202.7404551198182 203.7404551198182 204.7404551198182 205.7404551198182 206.7404551198182 207.7404551198182 208.7404551198182 209.7404551198182
210.7404551198182 211.7404551198182 212.7404551198182 213.7404551198182 214.7404551198182 215.7404551198182 216.7404551198182 217.7404551198182
218.7404551198182 219.7404551198182 220.7404551198182 221.7404551198182 222.7404551198182 223.7404551198182 224.7404551198182 225.7404551198182
226.7404551198182 227.7404551198182 228.7404551198182 229.7404551198182 230.7404551198182 231.7404551198182 232.7404551198182 233.7404551198182

position_x f8 [624]
00000000: 0000 0000 0000 0000 0000 0000 0000 0000
00000010: 0000 0000 0000 0000 0000 0000 0000 0000
00000020: 0000 0000 0000 0000 0000 0000 0000 0000
00000030: 0000 0000 0000 0000 0000 0000 0000 0000
00000040: 0000 0000 0000 0000 0000 0000 0000 0000
00000050: 0000 0000 0000 0000 0000 0000 0000 0000
00000060: 0000 0000 0000 0000 0000 0000 0000 0000
00000070: 0000 0000 0000 0000 0000 0000 0000 0000
00000080: 0000 0000 0000 0000 0000 0000 0000 0000
00000090: 0000 0000 0000 0000 0000 0000 0000 0000
000000a0: 0000 0000 0000 0000 0000 0000 0000 0000
000000b0: 0000 0000 0000 0000 0000 0000 0000 0000
000000c0: 0000 0000 0000 0000 0000 0000 0000 0000
000000d0: 0000 0000 0000 0000 0000 0000 0000 0000
000000e0: 0000 0000 0000 0000 0000 0000 0000 0000
000000f0: 0000 0000 0000 0000 0000 0000 0000 0000
00000100: 0000 0000 0000 0000 0000 0000 0000 0000
00000110: 0000 0000 0000 0000 0000 0000 0000 0000
00000120: 0000 0000 0000 0000 0000 0000 0000 0000
00000130: 0000 0000 0000 0000 0000 0000 0000 0000
00000140: 0000 0000 0000 0000 0000 0000 0000 0000
00000150: 0000 0000 0000 0000 0000 0000 0000 0000
00000160: 0000 0000 0000 0000 0000 0000 0000 0000
00000170: 0000 0000 0000 0000 0000 0000 0000 0000
00000180: 0000 0000 0000 0000 0000 0000 0000 0000
00000190: 0000 0000 0000 0000 0000 0000 0000 0000
000001a0: 0000 0000 0000 0000 0000 0000 0000 0000
000001b0: 0000 0000 0000 0000 0000 0000 0000 0000
000001c0: 0000 0000 0000 0000 0000 0000 0000 0000
000001d0: 0000 0000 0000 0000 0000 0000 0000 0000
000001e0: 0000 0000 0000 0000 0000 0000 0000 0000
000001f0: 0000 0000 0000 0000 0000 0000 0000 0000
00000200: 0000 0000 0000 0000 0000 0000 0000 0000
00000210: 0000 0000 0000 0000 0000 0000 0000 0000
00000220: 0000 0000 0000 0000 0000 0000 0000 0000
00000230: 0000 0000 0000 0000 0000 0000 0000 0000
00000240: 0000 0000 0000 0000 0000 0000 0000 0000
00000250: 0000 0000 0000 0000 0000 0000 0000 0000
00000260: 0000 0000 0000 0000 0000 0000 0000 0000
00000270: 0000 0000 0000 0000 0000 0000 0000 0000
00000280: 0000 0000 0000 0000 0000 0000 0000 0000
00000290: 0000 0000 0000 0000 0000 0000 0000 0000
000002a0: 0000 0000 0000 0000 0000 0000 0000 0000
000002b0: 0000 0000 0000 0000 0000 0000 0000 0000
000002c0: 0000 0000 0000 0000 0000 0000 0000 0000
000002d0: 0000 0000 0000 0000 0000 0000 0000 0000
000002e0: 0000 0000 0000 0000 0000 0000 0000 0000
000002f0: 0000 0000 0000 0000 0000 0000 0000 0000
00000300: 0000 0000 0000 0000 0000 0000 0000 0000
00000310: 0000 0000 0000 0000 0000 0000 0000 0000
00000320: 0000 0000 0000 0000 0000 0000 0000 0000
00000330: 0000 0000 0000 0000 0000 0000 0000 0000
00000340: 0000 0000 0000 0000 0000 0000 0000 0000
00000350: 0000 0000 0000 0000 0000 0000 0000 0000
00000360: 0000 0000 0000 0000 0000 0000 0000 0000
00000370: 0000 0000 0000 0000 0000 0000 0000 0000
00000380: 0000 0000 0000 0000 0000 0000 0000 0000
00000390: 0000 0000 0000 0000 0000 0000 0000 0000
000003a0: 0000 0000 0000 0000 0000 0000 0000 0000
000003b0: 0000 0000 0000 0000 0000 0000 0000 0000
000003c0: 0000 0000 0000 0000 0000 0000 0000 0000
000003d0: 0000 0000 0000 0000 0000 0000 0000 0000
000003e0: 0000 0000 0000 0000 0000 0000 0000 0000
000003f0: 0000 0000 0000 0000 0000 0000 0000 0000
00000400: 0000 0000 0000 0000 0000 0000 0000 0000
00000410: 0000 0000 0000 0000 0000 0000 0000 0000
00000420: 0000 0000 0000 0000 0000 0000 0000 0000
00000430: 0000 0000 0000 0000 0000 0000 0000 0000
00000440: 0000 0000 0000 0000 0000 0000 0000 0000
00000450: 0000 0000 0000 0000 0000 0000 0000 0000
00000460: 0000 0000 0000 0000 0000 0000 0000 0000
00000470: 0000 0000 0000 0000 0000 0000 0000 0000
00000480: 0000 0000 0000 0000 0000 0000 0000 0000
00000490: 0000 0000 0000 0000 0000 0000 0000 0000
000004a0: 0000 0000 0000 0000 0000 0000 0000 0000
000004b0: 0000 0000 0000 0000 0000 0000 0000 0000
000004c0: 0000 0000 0000 0000 0000 0000 0000 0000
000004d0: 0000 0000 0000 0000 0000 0000 0000 0000
000004e0: 0000 0000 0000 0000 0000 0000 0000 0000
000004f0: 0000 0000 0000 0000 0000 0000 0000 0000
00000500: 0000 0000 0000 0000 0000 0000 0000 0000
00000510: 0000 0000 0000 0000 0000 0000 0000 0000
00000520: 0000 0000 0000 0000 0000 0000 0000 0000
00000530: 0000 0000 0000 0000 0000 0000 0000 0000
00000540: 0000 0000 0000 0000 0000 0000 0000 0000
00000550: 0000 0000 0000 0000 0000 0000 0000 0000
00000560: 0000 0000 0000 0000 0000 0000 0000 0000
00000570: 0000 0000 0000 0000 0000 0000 0000 0000
00000580: 0000 0000 0000 0000 0000 0000 0000 0000
00000590: 0000 0000 0000 0000 0000 0000 0000 0000
000005a0: 0000 0000 0000 0000 0000 0000 0000 0000
000005b0: 0000 0000 0000 0000 0000 0000 0000 0000
000005c0: 0000 0000 0000 0000 0000 0000 0000 0000
000005d0: 0000 0000 0000 0000 0000 0000 0000 0000
000005e0: 0000 0000 0000 0000 0000 0000 0000 0000
000005f0: 0000 0000 0000 0000 0000 0000 0000 0000
00000600: 0000 0000 0000 0000 0000 0000 0000 0000
00000610: 0000 0000 0000 0000 0000 0000 0000 0000
00000620: 0000 0000 0000 0000 0000 0000 0000 0000
00000630: 0000 0000 0000 0000 0000 0000 0000 0000
00000640: 0000 0000 0000 0000 0000 0000 0000 0000
00000650: 0000 0000 0000 0000 0000 0000 0000 0000
00000660: 0000 0000 0000 0000 0000 0000 0000 0000
00000670: 0000 0000 0000 0000 0000 0000 0000 0000
00000680: 0000 0000 0000 0000 0000 0000 0000 0000
00000690: 0000 0000 0000 0000 0000 0000 0000 0000
000006a0: 0000 0000 0000 0000 0000 0000 0000 0000
000006b0: 0000 0000 0000 0000 0000 0000 0000 0000
000006c0: 0000 0000 0000 0000 0000 0000 0000 0000
000006d0: 0000 0000 0000 0000 0000 0000 0000 0000
000006e0: 0000 0000 0000 0000 0000 0000 0000 0000
000006f0: 0000 0000 0000 0000 0000 0000 0000 0000
00000700: 0000 0000 0000 0000 0000 0000 0000 0000
00000710: 0000 0000 0000 0000 0000 0000 0000 0000
00000720: 0000 0000 0000 0000 0000 0000 0000 0000
00000730: 0000 0000 0000 0000 0000 0000 0000 0000
00000740: 0000 0000 0000 0000 0000 0000 0000 0000
00000750: 0000 0000 0000 0000 0000 0000 0000 0000
00000760: 0000 0000 0000 0000 0000 0000 0000 0000
00000770: 0000 0000 0000 0000 0000 0000 0000 0000
00000780: 0000 0000 0000 0000 0000 0000 0000 0000
00000790: 0000 0000 0000 0000 0000 0000 0000 0000
000007a0: 0000 0000 0000 0000 0000 0000 0000 0000
000007b0: 0000 0000 0000 0000 0000 0000 0000 0000
000007c0: 0000 0000 0000 0000 0000 0000 0000 0000
000007d0: 0000 0000 0000 0000 0000 0000 0000 0000
000007e0: 0000 0000 0000 0000 0000 0000 0000 0000
000007f0: 0000 0000 0000 0000 0000 0000 0000 0000
0.0 0.0 0.0 0.0 0.0 0.0 0.0 0.0
0.0 0.0 0.0 0.0 0.0 0.0 0.0 0.0
0.0 0.0 0.0 0.0 0.0 0.0 0.0 0.0
0.0 0.0 0.0 0.0 0.0 0.0 0.0 0.0
0.0 0.0 0.0 0.0 0.0 0.0 0.0 0.0
0.0 0.0 0.0 0.0 0.0 0.0 0.0 0.0
0.0 0.0 0.0 0.0 0.0 0.0 0.0 0.0
0.0 0.0 0.0 0.0 0.0 0.0 0.0 0.0
0.0 0.0 0.0 0.0 0.0 0.0 0.0 0.0
0.0 0.0 0.0 0.0 0.0 0.0 0.0 0.0
0.0 0.0 0.0 0.0 0.0 0.0 0.0 0.0
0.0 0.0 0.0 0.0 0.0 0.0 0.0 0.0
0.0 0.0 0.0 0.0 0.0 0.0 0.0 0.0
0.0 0.0 0.0 0.0 0.0 0.0 0.0 0.0
0.0 0.0 0.0 0.0 0.0 0.0 0.0 0.0
0.0 0.0 0.0 0.0 0.0 0.0 0.0 0.0
0.0 0.0 0.0 0.0 0.0 0.0 0.0 0.0
0.0 0.0 0.0 0.0 0.0 0.0 0.0 0.0
0.0 0.0 0.0 0.0 0.0 0.0 0.0 0.0
0.0 0.0 0.0 0.0 0.0 0.0 0.0 0.0
0.0 0.0 0.0 0.0 0.0 0.0 0.0 0.0
0.0 0.0 0.0 0.0 0.0 0.0 0.0 0.0
0.0 0.0 0.0 0.0 0.0 0.0 0.0 0.0
0.0 0.0 0.0 0.0 0.0 0.0 0.0 0.0
0.0 0.0 0.0 0.0 0.0 0.0 0.0 0.0
0.0 0.0 0.0 0.0 0.0 0.0 0.0 0.0
0.0 0.0 0.0 0.0 0.0 0.0 0.0 0.0
0.0 0.0 0.0 0.0 0.0 0.0 0.0 0.0
0.0 0.0 0.0 0.0 0.0 0.0 0.0 0.0
0.0 0.0 0.0 0.0 0.0 0.0 0.0 0.0
0.0 0.0 0.0 0.0 0.0 0.0 0.0 0.0
0.0 0.0 0.0 0.0 0.0 0.0 0.0 0.0

position_y f8 [624]
00000000: 0000 0000 0000 0000 fac3 0e6b 673b 793f
00000010: 4cd1 ccf7 fbed 8e3f 4d20 091d 229f 983f
00000020: 8c91 0b64 1197 9d3f b4a0 a1da 7275 a13f
00000030: 40ba 50cd 4658 a53f ad71 67a9 6037 c73f
00000040: dd94 03d8 91e7 0340 1de9 f812 dcaf 2040
00000050: e60b 80a7 bbe5 3640 8511 4219 52e7 4c40
00000060: 70ce 2adf 8b3a 5b40 be4f 994e de0e 6640
00000070: c108 02a1 1e4b 7040 1054 f08c 669d 7640
00000080: a6d7 4b5e ee01 7e40 be7b 521a c13a 8340
00000090: 3e87 6be5 db03 8840 4274 490e 7d5a 8d40
000000a0: aa6b c7f7 1384 9140 7393 120c cfc3 9440
000000b0: 1978 0552 0c56 9840 e693 9d32 a13f 9c40
000000c0: f3b8 0320 eb42 a040 1bdb e850 ee96 a240
000000d0: 5d41 b610 151e a540 f162 3076 1bda a740
000000e0: 17f8 5445 27cc aa40 492f 6564 b8f4 ad40
000000f0: 649f 2971 c2a9 b040 a1a4 00b6 be73 b240
00000100: c0bf c2de 7357 b440 4998 aa21 b553 b640
00000110: 59b4 2bbb 1e8e b640 aeb4 1903 d2c8 b640
00000120: 313b ae90 baff b640 fcb4 cd4e 6c0c b740
00000130: f472 1c59 db17 b740 80ca 2d19 308a b740
00000140: 74b7 8d0e 5498 b940 76db 50bf 20a0 bb40
00000150: a60a 273a 199c bd40 4e9c 0f62 b486 bf40
00000160: 43b6 7e95 3dad c040 a521 87b3 1289 c140
00000170: d545 10e0 5954 c240 7ef6 c5bc c20c c340
00000180: 68fa a083 34b0 c340 2629 9d6d d33c c440
00000190: e40a 8022 15b1 c440 ff62 ed1d 0c0c c540
000001a0: 66c7 75d3 1b4d c540 c594 cfa9 ca73 c540
000001b0: 8fa9 3685 b77f c540 3438 6567 9070 c540
000001c0: 76ba c239 0a46 c540 a4db 44d2 d9ff c440
000001d0: e1bd 2cdd ae9d c440 725f c8b2 2e1f c440
000001e0: a5b2 f440 ef83 c340 f0aa 3ed2 72cb c240
000001f0: 115d 8a74 25f5 c140 3ac0 eb02 6900 c140
00000200: b10a 6d18 0dd9 bf40 cded 0df5 3671 bd40
00000210: 3b79 dc34 31c7 ba40 c681 7190 82d8 b740
00000220: e8df 9ede 53a2 b440 66ab c287 6b21 b140
00000230: ef57 ff63 4ea4 aa40 54fc 81b2 e660 a240
00000240: 6227 83b7 01df 9240 00be ca12 0c0b 3dc0
00000250: 9191 7e40 904e 95c0 296b 68a2 e2e4 a5c0
00000260: 33c8 e760 a700 b1c0 fb65 1f91 6c86 b7c0
00000270: f96f 9d17 078d bec0 7e5e 3df5 d2a9 c0c0
00000280: 6394 c2d4 e21e c1c0 fb5f 19ac 0495 c1c0
00000290: a9b0 d5aa e907 c2c0 7beb 7643 4e0e c2c0
000002a0: c3bc e594 b314 c2c0 c374 fcae 401b c2c0
000002b0: 84de cba4 c35c c2c0 f2b0 24bd dbeb c4c0
000002c0: 7711 1611 89c6 c8c0 36ce 4c0f 27a1 ccc0
000002d0: 2c9e 0ea3 dc3d d0c0 0d2d d230 212b d2c0
000002e0: 6f01 c733 6218 d4c0 e71a 1571 a005 d6c0
000002f0: 7902 dc7f dcf2 d7c0 a283 a5d4 16e0 d9c0
00000300: 2a18 d5c9 4fcd dbc0 adb4 e9a5 87ba ddc0
00000310: f198 29a0 bea7 dfc0 ea45 1272 7aca e0c0
00000320: 8147 2d4a 15c1 e1c0 6ace 1fe6 afb7 e2c0
00000330: 08db e250 4aae e3c0 dfc5 4593 e4a4 e4c0
00000340: 9812 63b4 7e9b e5c0 7310 fbb9 1892 e6c0
00000350: 0d7d baa8 b288 e7c0 a7d2 7184 4c7f e8c0
00000360: 73c6 4050 e675 e9c0 20a2 b80e 806c eac0
00000370: 4f81 f7c1 1963 ebc0 c201 be6b b359 ecc0
00000380: fd98 800d 4d50 edc0 627c 75a8 e646 eec0
00000390: a9d3 9f3d 803d efc0 7e62 ece6 0c1a f0c0
000003a0: 6265 ebac 5995 f0c0 93d5 1971 a610 f1c0
000003b0: 48ab b833 f38b f1c0 13f2 fef4 3f07 f2c0
000003c0: d86b 1bb5 8c82 f2c0 d1e9 3574 d9fd f2c0
000003d0: 8469 7032 2679 f3c0 c700 e8ef 72f4 f3c0
000003e0: c2a1 b5ac bf6f f4c0 26be ee68 0ceb f4c0
000003f0: 6ecf a524 5966 f5c0 eec8 eadf a5e1 f5c0
00000400: 7e77 cb9a f25c f6c0 f7d1 5355 3fd8 f6c0
00000410: 083d 8e0f 8c53 f7c0 8ac4 83c9 d8ce f7c0
00000420: 084c 3c83 254a f8c0 f1b7 be3c 72c5 f8c0
00000430: a310 11f6 be40 f9c0 43a0 38af 0bbc f9c0
00000440: 3e0c 3a68 5837 fac0 1b6b 1921 a5b2 fac0
00000450: 2c57 dad9 f12d fbc0 a2fe 7f92 3ea9 fbc0
00000460: 5f31 0d4b 8b24 fcc0 e06c 8403 d89f fcc0
00000470: 8ae6 e7bb 241b fdc0 9094 3974 7196 fdc0
00000480: ae35 7b2c be11 fec0 d857 aee4 0a8d fec0
00000490: 105e d49c 5708 ffc0 7885 ee54 a483 ffc0
000004a0: bee9 fd0c f1fe ffc0 7ec4 81e2 1e3d 00c1
000004b0: 8b23 803e c57a 00c1 5a78 7a9a 6bb8 00c1
000004c0: ed1e 71f6 11f6 00c1 196a 6452 b833 01c1
000004d0: 88a4 54ae 5e71 01c1 9b11 420a 05af 01c1
000004e0: 31ee 2c66 abec 01c1 5971 15c2 512a 02c1
000004f0: f0cc fb1d f867 02c1 292e e079 9ea5 02c1
00000500: 08be c2d5 44e3 02c1 d2a1 a331 eb20 03c1
00000510: 6cfb 828d 915e 03c1 b0e9 60e9 379c 03c1
00000520: bc88 3d45 ded9 03c1 36f2 18a1 8417 04c1
00000530: 8b3d f3fc 2a55 04c1 2380 cc58 d192 04c1
00000540: 93cd a4b4 77d0 04c1 ca37 7c10 1e0e 05c1
00000550: 39cf 526c c44b 05c1 f4a2 28c8 6a89 05c1
00000560: d4c0 fd23 11c7 05c1 9335 d27f b704 06c1
00000570: e50c a6db 5d42 06c1 9051 7937 0480 06c1
00000580: 830d 4c93 aabd 06c1 e549 1eef 50fb 06c1
00000590: 2a0f f04a f738 07c1 1f65 c1a6 9d76 07c1
000005a0: fb52 9202 44b4 07c1 6adf 625e eaf1 07c1
000005b0: 9a10 33ba 902f 08c1 45ec 0216 376d 08c1
000005c0: b977 d271 ddaa 08c1 e2b7 a1cd 83e8 08c1
000005d0: 53b1 7029 2a26 09c1 4c68 3f85 d063 09c1
000005e0: c0e0 0de1 76a1 09c1 5c1e dc3c 1ddf 09c1
000005f0: 8c24 aa98 c31c 0ac1 81f6 77f4 695a 0ac1
00000600: 3497 4550 1098 0ac1 6b09 13ac b6d5 0ac1
00000610: bd4f e007 5d13 0bc1 956c ad63 0351 0bc1
00000620: 3762 7abf a98e 0bc1 c032 471b 50cc 0bc1
00000630: 2be0 1377 f609 0cc1 536c e0d2 9c47 0cc1
00000640: f4d8 ac2e 4385 0cc1 b027 798a e9c2 0cc1
00000650: 0e5a 45e6 8f00 0dc1 7e71 1142 363e 0dc1
00000660: 586f dd9d dc7b 0dc1 e154 a9f9 82b9 0dc1
00000670: 4923 7555 29f7 0dc1 afdb 40b1 cf34 0ec1
00000680: 227f 0c0d 7672 0ec1 9f0e d868 1cb0 0ec1
00000690: 178b a3c4 c2ed 0ec1 6bf5 6e20 692b 0fc1
000006a0: 704e 3a7c 0f69 0fc1 f096 05d8 b5a6 0fc1
000006b0: a8cf d033 5ce4 0fc1 a6fc cd47 0111 10c1
000006c0: 428a b375 d42f 10c1 f910 99a3 a74e 10c1
000006d0: 1791 7ed1 7a6d 10c1 e30a 64ff 4d8c 10c1
000006e0: a27e 492d 21ab 10c1 94ec 2e5b f4c9 10c1
000006f0: f654 1489 c7e8 10c1 01b8 f9b6 9a07 11c1
00000700: ed15 dfe4 6d26 11c1 ee6e c412 4145 11c1
00000710: 35c3 a940 1464 11c1 f112 8f6e e782 11c1
00000720: 4f5e 749c baa1 11c1 7aa5 59ca 8dc0 11c1
00000730: 9ae8 3ef8 60df 11c1 d527 2426 34fe 11c1
00000740: 5063 0954 071d 12c1 2d9b ee81 da3b 12c1
00000750: 8ecf d3af ad5a 12c1 9300 b9dd 8079 12c1
00000760: 592e 9e0b 5498 12c1 fe58 8339 27b7 12c1
00000770: 9c80 6867 fad5 12c1 4ea5 4d95 cdf4 12c1
00000780: 2dc7 32c3 a013 13c1 51e6 17f1 7332 13c1
00000790: d002 fd1e 4751 13c1 c11c e24c 1a70 13c1
000007a0: 3834 c77a ed8e 13c1 4949 aca8 c0ad 13c1
000007b0: 075c 91d6 93cc 13c1 846c 7604 67eb 13c1
000007c0: d27a 5b32 3a0a 14c1 0287 4060 0d29 14c1
000007d0: 2391 258e e047 14c1 4599 0abc b366 14c1
000007e0: 779f efe9 8685 14c1 c6a3 d417 5aa4 14c1
000007f0: 40a6 b945 2dc3 14c1 f2a6 9e73 00e2 14c1
0.0 0.006160167672462963 0.015102356433637575 0.024044545194812184 0.028896590930246144 0.034099187076948395 0.04168912178316875 0.18137748977359305
2.488071143731402 8.343475907215685 22.89739462734351 57.807192952404 108.91478709392845 176.46463708823825 260.6949777678929 361.83753675344724
480.1206953966706 615.3442884868634 768.4823711777351 939.3110624064068 1121.0194998893226 1328.9521944906708 1557.5120316366722 1807.9074196454544
2081.459228626563 2379.4654610412085 2703.0411431269445 3053.0536360855845 3430.076700835499 3834.3601409549924 4265.7595392240655 4723.74496463794
5207.452617809118 5715.707544958285 5774.120043498545 5832.820359808551 5887.728770150615 5900.423077446638 5911.856828477921 6026.187884199084
6552.328347070015 7072.12791924818 7580.098543586826 8070.70462129179 8538.481124724383 8978.146103755405 9384.702150377367 9753.5213859037
10080.410266992825 10361.651782651035 10594.165115361517 10776.094663308466 10906.217390749323 10983.583307216302 11007.43375285415 10977.128155376857
10892.079887715383 10751.701729399916 10555.366124718394 10302.36483101521 9991.869169795254 9622.897041161981 9194.292619033282 8704.820401638852
8153.051153960333 7537.214676733548 6855.192212848279 6104.510016531165 5282.327615670838 4385.420040289731 3410.1531066698876 2352.450580656101
1207.751676606444 -29.04315297555695 -1363.6408710266444 -2802.4426453238307 -4352.6538224090355 -6022.424089395902 -7821.027704086148 -8531.648109122409
-8765.772117922263 -9002.036502048364 -9231.825525962124 -9244.611433854085 -9257.402981488389 -9270.505340153706 -9401.528466685915 -10711.716709696197
-12685.070833929565 -14658.305154419602 -16631.447452215638 -18604.51860479736 -20577.5344102396 -22550.5069020045 -24523.445303919234 -26496.356728914783
-28469.246693872068 -30442.119501520578 -32414.9785255426 -34387.82642472892 -36360.66530479398 -38333.4968413383 -40306.322373798175 -42279.142977606265
-44251.95951989776 -46224.77270272458 -48197.58309673714 -50170.39116755622 -52143.19729651222 -54116.00179702439 -56088.80492758995 -58061.60690212577
-60034.40789823418 -62007.20806383413 -63980.00752250042 -65952.8063777778 -67925.60471667864 -69898.40261252811 -71871.20012728602 -73843.99731344757
-75816.79421560408 -77789.59087172827 -79762.38731423585 -81735.18357086471 -83707.97966540515 -85680.77561830785 -87653.5714471915 -89626.36716726769
-91599.16279169728 -93571.95833189027 -95544.75379775849 -97517.54919792913 -99490.34453992557 -101463.13983032086 -103435.93507486819 -105408.73027861216
-107381.52544598372 -109354.32058088148 -111327.11568674137 -113299.91076659647 -115272.70582312856 -117245.50085871248 -119218.29587545447 -121191.09087522537
-123163.88585968941 -125136.68083032907 -127109.47578846687 -129082.2707352842 -131055.06567183786 -133027.86059907445 -135000.65551784294 -136973.45042890572
-138946.2453329483 -140919.04023058785 -142891.83512238064 -144864.63000882868 -146837.4248903855 -148810.21976746133 -150783.01464042766 -152755.80950962126
-154728.60437534773 -156701.39923788473 -158674.1940974848 -160646.98895437783 -162619.78380877327 -164592.57866086223 -166565.37351081925 -168538.1683588038
-170510.96320496182 -172483.7580494269 -174456.55289232152 -176429.34773375804 -178402.14257383964 -180374.93741266112 -182347.7322503097 -184320.52708686562
-186293.32192240292 -188266.11675698977 -190238.91159068915 -192211.7064235592 -194184.50125565365 -196157.29608702223 -198130.09091771097 -200102.88574776254
-202075.68057721647 -204048.4754061094 -206021.27023447547 -207994.0650623463 -209966.8598897513 -211939.6547167179 -213912.44954327156 -215885.24436943608
-217858.0391952336 -219830.8340206848 -221803.62884580894 -223776.42367062406 -225749.21849514704 -227722.01331939362 -229694.80814337856 -231667.60296711567
-233640.3977906179 -235613.19261389738 -237585.98743696552 -239558.782259833 -241531.57708250987 -243504.37190500557 -245477.16672732893 -247449.96154948833
-249422.75637149165 -251395.55119334624 -253368.34601505913 -255341.14083663686 -257313.93565808563 -259286.73047941132 -261259.52530061943 -263232.3201217152
-265205.1149427035 -267177.9097635891 -269150.70458437636 -271123.49940506945 -273096.2942256724 -275069.08904618886 -277041.88386662246 -279014.6786869765
-280987.4735072542 -282960.26832745865 -284933.06314759265 -286905.85796765896 -288878.6527876602 -290851.44760759885 -292824.24242747726 -294797.03724729765
-296769.83206706215 -298742.62688677275 -300715.4217064314 -302688.21652604005 -304661.0113456003 -306633.8061651139 -308606.60098458244 -310579.3958040074
-312552.1906233903 -314524.9854427325 -316497.7802620353 -318470.57508130005 -320443.3699005279 -322416.16471971996 -324388.9595388774 -326361.7543580013
-328334.5491770926 -330307.3439961524 -332280.1388151815 -334252.93363418087 -336225.72845315136 -338198.52327209373 -340171.3180910088 -342144.11290989735

position_z f8 [624]
00000000: 0000 0000 0000 0000 fac3 0e6b 673b 793f
00000010: 4cd1 ccf7 fbed 8e3f 4d20 091d 229f 983f
00000020: 8c91 0b64 1197 9d3f b4a0 a1da 7275 a13f
00000030: 40ba 50cd 4658 a53f ad71 67a9 6037 c73f
00000040: dd94 03d8 91e7 0340 1de9 f812 dcaf 2040
00000050: e60b 80a7 bbe5 3640 8511 4219 52e7 4c40
00000060: 70ce 2adf 8b3a 5b40 be4f 994e de0e 6640
00000070: c108 02a1 1e4b 7040 1054 f08c 669d 7640
00000080: a6d7 4b5e ee01 7e40 be7b 521a c13a 8340
00000090: 3e87 6be5 db03 8840 82a9 9816 de59 8d40
000000a0: 9662 599a a57e 9140 4bf6 1cd5 a2ab 9440
000000b0: 7bdf 662b 8c13 9840 e841 bf70 67b0 9b40
000000c0: 7337 831d 7e7c 9f40 05be e10e 3eb9 a140
000000d0: 0736 ad52 c1c6 a340 17d5 b421 c9e4 a540
000000e0: 8842 e7c8 fa11 a840 8a21 071d d04d aa40
000000f0: 2887 3ed4 a998 ac40 eca2 3bd9 ecf3 ae40
00000100: baa0 828a 0bb1 b040 8633 f7f4 58f3 b140
00000110: 2cb6 e12f 4018 b240 8cd1 0b67 533d b240
00000120: 0724 5d53 0060 b240 1302 2287 0768 b240
00000130: e5b4 36ea 486f b240 8f52 21cd 1fb9 b240
00000140: 4dfb 6a6c b72c b440 475a 7465 7ad4 b540
00000150: 1a8e f800 e4b1 b740 72fd 05b0 d4c5 b940
00000160: d57b 5ac0 9310 bc40 110f 4108 d891 be40
00000170: 5300 fc8a 6ba4 c040 174f d3dd 2c1a c240
00000180: 3cd4 0e3e 6aa9 c340 ed7b 28d4 4051 c540
00000190: 5bfe dce4 b710 c740 d5de 09ea cee6 c840
000001a0: da9d e0ad a0d2 ca40 0ecf 84ca 6dd3 cc40
000001b0: cf86 5258 9ee8 ce40 5641 26e5 e088 d040
000001c0: 7fa2 7cbf 46a7 d140 a466 b1d8 6ccf d240
000001d0: dccf acb3 4c01 d440 ec9d becf ed3c d540
000001e0: 0da7 e8ba 6582 d640 b3d6 e189 d6d1 d740
000001f0: 005f f1af 6d2b d940 f029 73e9 668f da40
00000200: f730 f4ca 08fe db40 95f1 3e45 9f77 dd40
00000210: af69 1abe 7afc de40 8815 13d4 7746 e040
00000220: 1daf 882e ab14 e140 b3c5 3798 05e9 e140
00000230: 5f33 4d5a b7c3 e240 cf9a e916 f3a4 e340
00000240: 6b36 3019 ee8c e440 5acb 71bc e07b e540
00000250: 5d0f 65ec 0672 e640 26f1 e1c1 a06f e740
00000260: ea15 7041 f374 e840 b67d 5f43 4982 e940
00000270: 49fd 6290 f497 ea40 ec64 ffa1 6b02 eb40
00000280: 1c67 73fc 1d25 eb40 76c4 a2d0 f147 eb40
00000290: 3878 f9e7 a369 eb40 2ab1 8693 826b eb40
000002a0: 1845 1e55 616d eb40 6656 ebb0 4b6f eb40
000002b0: 2f6f 2a83 7282 eb40 0e27 a861 aa41 ec40
000002c0: ebe3 c365 ab60 ed40 261c 24fe 737e ee40
000002d0: 5c92 c76e 059b ef40 0fef 035c 305b f040
000002e0: c760 4854 43e8 f040 8076 24f5 bb74 f140
000002f0: c475 d585 9a00 f240 3049 4b43 df8b f240
00000300: 528d a962 8a16 f340 099d 2113 9ca0 f340
00000310: 9661 537f 142a f440 c587 55ce f3b2 f440
00000320: fb87 7c24 3a3b f540 ed70 f1a3 e7c2 f540
00000330: 8ec7 246d fc49 f640 a781 269f 78d0 f640
00000340: 17c0 e957 5c56 f740 af34 79b4 a7db f740
00000350: 2fde 1fd1 5a60 f840 37d9 88c9 75e4 f840
00000360: 3857 d8b8 f867 f940 9e4b bfb9 e3ea f940
00000370: 67ff 8ae6 366d fa40 8673 3159 f2ee fa40
00000380: 4a44 5b2b 1670 fb40 1a97 6b76 a2f0 fb40
00000390: d27c 8653 9770 fc40 4a1b 96db f4ef fc40
000003a0: 6fde 4e27 bb6e fd40 5ee3 324f eaec fd40
000003b0: 20c5 946b 826a fe40 4eea 9994 83e7 fe40
000003c0: 5c6c 3ce2 ed63 ff40 37ac 4c6c c1df ff40
000003d0: f051 3925 7f2d 0041 c680 174a d26a 0041
000003e0: 2b0b 6e30 daa7 0041 4b50 d7e3 96e4 0041
000003f0: 3b3c db6f 0821 0141 f791 efdf 2e5d 0141
00000400: 462b 783f 0a99 0141 3e30 c799 9ad4 0141
00000410: d347 1dfa df0f 0241 9fc2 a96b da4a 0241
00000420: d3c0 8af9 8985 0241 2254 cdae eebf 0241
00000430: 439e 6d96 08fa 0241 9aec 56bb d733 0341
00000440: 77d1 6328 5c6d 0341 4c3b 5ee8 95a6 0341
00000450: 228a ff05 85df 0341 99a3 f08b 2918 0441
00000460: 9f05 ca84 8350 0441 14d8 13fb 9288 0441
00000470: 7efd 45f9 57c0 0441 ed22 c889 d2f7 0441
00000480: 2dcf f1b6 022f 0541 5a71 0a8b e865 0541
00000490: ee6e 4910 849c 0541 5131 d650 d5d2 0541
000004a0: 0633 c856 dc08 0641 750c 272c 993e 0641
000004b0: 6280 eada 0b74 0641 1988 fa6c 34a9 0641
000004c0: 595f 2fec 12de 0641 fc8f 5162 a712 0741
000004d0: 6dfd 19d9 f146 0741 e9ef 315a f27a 0741
000004e0: 8f1f 33ef a8ae 0741 4abf a7a1 15e2 0741
000004f0: 8e87 0a7b 3815 0841 f1c0 c684 1148 0841
00000500: a04e 38c8 a07a 0841 b9b8 ab4e e6ac 0841
00000510: 7b36 5e21 e2de 0841 61b8 7d49 9410 0941
00000520: 1df2 28d0 fc41 0941 7a64 6fbe 1b73 0941
00000530: 1f67 511d f1a3 0941 3f32 c0f5 7cd4 0941
00000540: 2ee8 9d50 bf04 0a41 db9e bd36 b834 0a41
00000550: 3969 e3b0 6764 0a41 8f60 c4c7 cd93 0a41
00000560: b0ad 0684 eac2 0a41 2292 41ee bdf1 0a41
00000570: 2c71 fd0e 4820 0b41 d1d8 b3ee 884e 0b41
00000580: b98a cf95 807c 0b41 0285 ac0c 2faa 0b41
00000590: 000b 985b 94d7 0b41 eaad d08a b004 0c41
000005a0: 7355 86a2 8331 0c41 5048 daaa 0d5e 0c41
000005b0: ac34 dfab 4e8a 0c41 8838 99ad 46b6 0c41
000005c0: 0cea fdb7 f5e1 0c41 c25f f4d2 5b0d 0d41
000005d0: c438 5506 7938 0d41 d2a4 ea59 4d63 0d41
000005e0: 5c6c 70d5 d88d 0d41 76f8 9380 1bb8 0d41
000005f0: c05a f462 15e2 0d41 3855 2284 c60b 0e41
00000600: fb61 a0eb 2e35 0e41 faba e2a0 4e5e 0e41
00000610: 9761 4fab 2587 0e41 3926 3e12 b4af 0e41
00000620: c8af f8dc f9d7 0e41 1c83 ba12 f7ff 0e41
00000630: 5e0a b1ba ab27 0f41 539c fbdb 174f 0f41
00000640: 9983 ab7d 3b76 0f41 d805 c4a6 169d 0f41
00000650: dc6a 3a5e a9c3 0f41 a303 f6aa f3e9 0f41
00000660: ae18 e8c9 fa07 1041 2736 ca8f d71a 1041
00000670: 6025 802a 902d 1041 dfc3 619d 2440 1041
00000680: ed04 c0eb 9452 1041 edf4 e418 e164 1041
00000690: adbc 1328 0977 1041 aba4 881c 0d89 1041
000006a0: 5818 79f9 ec9a 1041 4fa9 13c2 a8ac 1041
000006b0: 8612 8079 40be 1041 763b df22 b4cf 1041
000006c0: 3f3b 4bc1 03e1 1041 c25b d757 2ff2 1041
000006d0: b11c 90e9 3603 1141 9c36 7b79 1a14 1141
000006e0: f69d 970a da24 1141 1086 dd9f 7535 1141
000006f0: 0d64 3e3c ed45 1141 d2f1 a4e2 4056 1141
00000700: eb30 f595 7066 1141 6a6d 0c59 7c76 1141
00000710: bf40 c12e 6486 1141 8a94 e319 2896 1141
00000720: 61a5 3c1d c8a5 1141 9505 8f3b 44b5 1141
00000730: ee9f 9677 9cc4 1141 5cba 08d4 d0d3 1141
00000740: a5f8 9353 e1e2 1141 0c5f e0f8 cdf1 1141
00000750: ee54 8fc6 9600 1241 5ba7 3bbf 3b0f 1241
00000760: a78b 79e5 bc1d 1241 f1a1 d63b 1a2c 1241
00000770: abf7 d9c4 533a 1241 100a 0483 6948 1241
00000780: 9dc8 ce78 5b56 1241 7e97 ada8 2964 1241
00000790: f551 0d15 d471 1241 bc4c 54c0 5a7f 1241
000007a0: 5c58 e2ac bd8c 1241 82c3 10dd fc99 1241
000007b0: 4a5d 3253 18a7 1241 8677 9311 10b4 1241
000007c0: fae8 791a e4c0 1241 970f 2570 94cd 1241
000007d0: a9d2 cd14 21da 1241 05a5 a60a 8ae6 1241
000007e0: 2b87 db53 cff2 1241 6309 92f2 f0fe 1241
000007f0: d54d e9e8 ee0a 1341 9a0a fa38 c916 1341
0.0 0.006160167672462963 0.015102356433637575 0.024044545194812184 0.028896590930246144 0.034099187076948395 0.04168912178316875 0.18137748977359305
2.488071143731402 8.343475907215685 22.89739462734351 57.807192952404 108.91478709392845 176.46463708823825 260.6949777678929 361.83753675344724
480.1206953966706 615.3442884868634 768.4823711777351 939.2334415365915 1119.6617216078207 1322.9090160870862 1540.8868843149091 1772.1010160335518
2015.1231594565004 2268.621207289167 2531.377583897443 2802.3928352842445 3080.989814020988 3366.906471464962 3660.331697420119 3961.962594855917
4273.0450822489165 4595.347487878875 4632.250730616546 4669.3257911097135 4704.001272031112 4712.029405713564 4719.284823817409 4793.124223787933
5164.716498075822 5588.478110572853 6065.8906398150375 6597.830810903908 7184.57715383075 7825.843875948122 8520.840178966673 9268.350519574755
10066.830018857603 10914.506474552642 11809.4366718523 12749.61651728993 13733.255306317402 14758.857742882825 15825.237070384812 16931.513986171536
18077.105437430084 19261.70072588943 20485.19846649455 21747.71580472395 23049.58953300775 24391.35216566054 25773.713863699697 27197.6079986486
28664.137387321298 30174.488601432724 31729.917852976996 33331.74463800626 34981.3494304104 36680.17483128179 38429.72977314027 40231.596546938286
42087.44057474736 43999.02300348012 45968.21635678292 47997.02366730785 50087.60173801689 52242.28947424462 54463.64262532682 55315.36352510177
55592.93706674708 55871.55671823856 56141.122067198565 56156.08050856211 56171.041640410374 56186.36534659266 56339.578511445194 57869.3244210017
60165.35617250934 62451.62477307794 64728.169772897585 66995.02246468909 69252.20807683757 71499.74734922685 73737.65767427447 75965.9539292201
78184.64908747867 80393.75467072813 82593.28108537788 84783.23787453685 86963.63390782468 89134.47752517807 91295.7766464038 93447.53885508199
95589.77146315608 97722.48156090335 99845.67605578223 101959.36170277452 104063.54512819357 106158.23284844912 108243.43128490225 110319.14677567602
112385.38558508563 114442.1539111998 116489.45789192923 118527.30360994968 120555.6970966996 122574.6443356401 124584.15126492502 126584.22377959752
128574.86773340538 130556.0889403083 132527.8931757356 134490.28617764096 136443.27364739156 138386.86125052194 140321.05461737685 142245.8593436626
144161.280990923 146067.32508695306 147963.99712616074 149851.3025698857 151729.246846682 153597.8353525708 155457.07345126764 157306.96647438855
159147.51972163815 160978.73846098257 162800.62792880932 164613.19333007632 166416.4398384513 168210.37259644328 169994.99671552697 171770.3172762612
173536.3393284021 175293.06789101177 177040.50795256294 178778.66447104004 180507.54237403738 182227.1465588544 183937.4818925886 185638.55321222616
187330.36532473078 189012.9230071305 190686.23100660314 192350.29404056005 194005.11679672866 195650.7039332337 197287.0600786772 198914.18983221755
200532.09776364733 202140.7884134704 203740.26629297793 205330.53588432356 206911.60164059783 208483.4679859018 210046.1393154198 211599.61999549155
213143.9143636836 214679.02672885996 216204.9613712521 217721.7225425285 219229.31446586316 220727.74133600394 222217.0073193399 223697.1165539683
225168.07314976098 226629.88118842995 228082.5447235927 229526.06778083678 230960.45435778386 232385.70842415327 233801.83392182493 235208.83476490178
236606.71483977174 237995.47800516902 239375.12809223507 240745.66890457884 242107.10421833664 243459.43778223143 244802.6733176317 246136.81451860978
247461.86505199954 248777.82855745387 250084.7086475014 251382.5089076029 252671.23289620713 253950.8841448062 255221.46615799045 256482.98241350296
257735.43636229335 258978.83142857137 260213.17100985989 261438.45847704736 262654.69717444 263861.8904198133 265060.0415044632 266249.15369325684
267429.2302246828 268600.27431090066 269762.28913779074 270915.2778650026 272059.2436260036 273194.18952812714 274320.11865261977 275437.0340546885
276544.93876354763 277643.8357824647 278733.72808880644 279814.618634084 280886.5103439981 281949.4061184833 283003.3088317521 284048.22133233876
285084.14644314226 286111.08696146926 287129.04565907636 288138.0252822122 289138.0285516587 290129.0581627724 291111.1167855252 292084.20706454455
293048.3316191531 294003.4930434085 294949.69390614226 295886.93675099843 296815.22409647185 297734.55843594583 298644.94223772985 299546.37794509623
300438.867976317 301322.41472470004 302197.0205586248 303062.687821578 303919.41883218824 304767.21588426095 305606.0812468125 306436.01716410404
307257.025855675 308069.1095163761 308872.270316402 309666.5104013237 310451.83189212036 311228.2368852107 311995.72745248425 312754.3056413323
