JJINleejunseo/results_6dof/SCUD-B_45.0deg_20251212_113154.npz (npz, 19060 bytes, 22 tensors)

time f8 [104]
00000000: 0000 0000 0000 0000 086e 0893 291f 233f
00000010: 7f34 3997 c731 323f d4c6 12e8 f021 5a3f
00000020: fcf0 d7df 1c3f 8e3f 0868 3f49 ad49 b13f
00000030: ff68 880f 3d25 c53f e69a 2aee 04f9 d03f
00000040: 4c01 9154 6b5f d73f b267 f7ba d1c5 dd3f
00000050: 0ce7 ae10 1c16 e23f 3f1a e243 4f49 e53f
00000060: 724d 1577 827c e83f a580 48aa b5af eb3f
00000070: d8b3 7bdd e8e2 ee3f 8673 5708 0e0b f13f
00000080: 200d f1a1 a7a4 f23f baa6 8a3b 413e f43f
00000090: 5440 24d5 dad7 f53f eed9 bd6e 7471 f73f
000000a0: 8873 5708 0e0b f93f 220d f1a1 a7a4 fa3f
000000b0: bca6 8a3b 413e fc3f 5640 24d5 dad7 fd3f
000000c0: f0d9 bd6e 7471 ff3f c5b9 2b04 8785 0040
000000d0: 9286 f8d0 5352 0140 5f53 c59d 201f 0240
000000e0: 2c20 926a edeb 0240 f9ec 5e37 bab8 0340
000000f0: c6b9 2b04 8785 0440 9386 f8d0 5352 0540
00000100: 6053 c59d 201f 0640 2d20 926a edeb 0640
00000110: faec 5e37 bab8 0740 c7b9 2b04 8785 0840
00000120: 9486 f8d0 5352 0940 6153 c59d 201f 0a40
00000130: 2e20 926a edeb 0a40 fbec 5e37 bab8 0b40
00000140: c8b9 2b04 8785 0c40 9586 f8d0 5352 0d40
00000150: 6253 c59d 201f 0e40 2f20 926a edeb 0e40
00000160: fcec 5e37 bab8 0f40 e4dc 1582 c342 1040
00000170: 4a43 7ce8 29a9 1040 b0a9 e24e 900f 1140
00000180: 1610 49b5 f675 1140 7c76 af1b 5ddc 1140
00000190: e2dc 1582 c342 1240 4843 7ce8 29a9 1240
000001a0: aea9 e24e 900f 1340 1410 49b5 f675 1340
000001b0: 7a76 af1b 5ddc 1340 e0dc 1582 c342 1440
000001c0: 4643 7ce8 29a9 1440 aca9 e24e 900f 1540
000001d0: 1210 49b5 f675 1540 7876 af1b 5ddc 1540
000001e0: dedc 1582 c342 1640 4443 7ce8 29a9 1640
000001f0: aaa9 e24e 900f 1740 1010 49b5 f675 1740
00000200: 7676 af1b 5ddc 1740 dcdc 1582 c342 1840
00000210: 4243 7ce8 29a9 1840 a8a9 e24e 900f 1940
00000220: 0e10 49b5 f675 1940 7476 af1b 5ddc 1940
00000230: dadc 1582 c342 1a40 4043 7ce8 29a9 1a40
00000240: a6a9 e24e 900f 1b40 0c10 49b5 f675 1b40
00000250: 7276 af1b 5ddc 1b40 d8dc 1582 c342 1c40
00000260: 3e43 7ce8 29a9 1c40 a4a9 e24e 900f 1d40
00000270: 0a10 49b5 f675 1d40 7076 af1b 5ddc 1d40
00000280: d6dc 1582 c342 1e40 3c43 7ce8 29a9 1e40
00000290: a2a9 e24e 900f 1f40 0810 49b5 f675 1f40
000002a0: 6e76 af1b 5ddc 1f40 6aee 0ac1 6121 2040
000002b0: 9d21 3ef4 9454 2040 d054 7127 c887 2040
000002c0: 0388 a45a fbba 2040 36bb d78d 2eee 2040
000002d0: 69ee 0ac1 6121 2140 9c21 3ef4 9454 2140
000002e0: cf54 7127 c887 2140 0288 a45a fbba 2140
000002f0: 35bb d78d 2eee 2140 68ee 0ac1 6121 2240
00000300: 9b21 3ef4 9454 2240 ce54 7127 c887 2240
00000310: 0188 a45a fbba 2240 34bb d78d 2eee 2240
00000320: deb6 d133 4717 2340 82ec ac02 fd3f 2340
00000330: 7728 ac78 2765 2340 154b d5d5 9165 2340
0.0 0.0001458872079787984 0.00027762530155401444 0.001595006237306175 0.014768815594827782 0.06753047025941339 0.1651989293903355 0.2651989293903355
0.3651989293903355 0.46519892939033547 0.5651989293903354 0.6651989293903354 0.7651989293903354 0.8651989293903354 0.9651989293903354 1.0651989293903354
1.1651989293903355 1.2651989293903356 1.3651989293903357 1.4651989293903358 1.565198929390336 1.665198929390336 1.765198929390336 1.8651989293903362
1.9651989293903362 2.0651989293903363 2.1651989293903364 2.2651989293903365 2.3651989293903366 2.4651989293903367 2.565198929390337 2.665198929390337
2.765198929390337 2.865198929390337 2.965198929390337 3.0651989293903372 3.1651989293903373 3.2651989293903374 3.3651989293903375 3.4651989293903376
3.5651989293903377 3.6651989293903378 3.765198929390338 3.865198929390338 3.965198929390338 4.065198929390338 4.165198929390337 4.265198929390337
4.365198929390337 4.465198929390336 4.565198929390336 4.6651989293903355 4.765198929390335 4.865198929390335 4.9651989293903345 5.065198929390334
5.165198929390334 5.265198929390333 5.365198929390333 5.465198929390333 5.565198929390332 5.665198929390332 5.765198929390332 5.865198929390331
5.965198929390331 6.065198929390331 6.16519892939033 6.26519892939033 6.3651989293903295 6.465198929390329 6.565198929390329 6.665198929390328
6.765198929390328 6.865198929390328 6.965198929390327 7.065198929390327 7.165198929390327 7.265198929390326 7.365198929390326 7.465198929390326
7.565198929390325 7.665198929390325 7.7651989293903245 7.865198929390324 7.965198929390324 8.065198929390323 8.165198929390323 8.265198929390323
8.365198929390322 8.465198929390322 8.565198929390322 8.665198929390321 8.765198929390321 8.86519892939032 8.96519892939032 9.06519892939032
9.16519892939032 9.26519892939032 9.365198929390319 9.465198929390318 9.545465106344121 9.624977191552038 9.697566767707242 9.698378259932307

position_x f8 [104]
00000000: 0000 0000 0000 0000 8b3c 0cd9 7020 753f
00000010: 2311 25bc 2a1a 843f 357e 59a1 66df ac3f
00000020: c553 6c72 74b5 e03f bb47 a19a 7619 0340
00000030: 68c4 a542 115c 1740 3ad0 78bb a9bf 2240
00000040: fcde dac0 1fd1 2940 2a64 6a1d 4271 3040
00000050: 6a15 a9d6 fbf9 3340 dc48 b2ae d082 3740
00000060: 7cf4 0097 d70b 3b40 ca03 aec7 2a95 3e40
00000070: c835 5ddf 730f 4140 b6f8 b8a2 97d4 4240
00000080: 55c2 48bd 129a 4440 c4da 06f0 f85f 4640
00000090: 080a c2b5 5f26 4840 ce40 454c 5eed 4940
000000a0: 727a 18be 0db5 4b40 d58c 92ec 887d 4d40
000000b0: 242f fe99 ec46 4f40 e258 ceb9 ab88 5040
000000c0: 7393 ab0d 756e 5140 debe 7998 e354 5240
000000d0: 7953 53ad 093c 5340 43c2 6fa6 fa23 5440
000000e0: e42e 94e8 ca0c 5540 07fe fee5 8ff6 5540
000000f0: ac4a be20 60e1 5640 a2ac 612c 53cd 5740
00000100: 70f3 f7ae 81ba 5840 d39b 4961 05a9 5940
00000110: bad9 400e f998 5a40 361b 7091 788a 5b40
00000120: 88ef a7d4 a07d 5c40 1745 8dcc 8f72 5d40
00000130: bdfd 2074 6469 5e40 b9ee 29c7 3e62 5f40
00000140: 2442 b9dd 9f2e 6040 d5b9 659c 44ad 6040
00000150: 7896 e207 1f2d 6140 310d 89f7 40ae 6140
00000160: ba18 c2ab bc30 6240 2475 4cc7 a4b4 6240
00000170: ceb0 c347 0c3a 6340 5b9b 627d 06c1 6340
00000180: 94d2 fb01 a749 6440 81b4 23af 01d4 6440
00000190: 1d96 8793 2a60 6540 25c6 6ee7 35ee 6540
000001a0: 789b 6200 387e 6640 d194 fb43 4510 6740
000001b0: a463 d219 72a4 6740 249b 94dc d23a 6840
000001c0: 90a5 3dca 7bd3 6840 d791 75f3 806e 6940
000001d0: f03f 182a f60b 6a40 d567 e8ee eeab 6a40
000001e0: 5bea 725e 7e4e 6b40 dfc8 271d b7f3 6b40
000001f0: 1005 af42 ab9b 6c40 8381 8044 6c46 6d40
00000200: 79c2 c6df 0af4 6d40 c620 9502 97a4 6e40
00000210: 299c 7ab4 1f58 6f40 af7d 3d7f 5907 7040
00000220: 5026 3ce9 2e64 7040 7e8f 0bf9 95c2 7040
00000230: 4ff9 93ea 9322 7140 7531 d047 2d84 7140
00000240: 7038 97db 65e7 7140 770b 38a4 404c 7240
00000250: f578 ecc5 bfb2 7240 1da7 277d e41a 7340
00000260: fca6 c410 af84 7340 2013 19c4 1ef0 7340
00000270: 2c50 efc8 315d 7440 2e90 6b31 e5cb 7440
00000280: 9937 dee1 343c 7540 fbb4 8582 1bae 7540
00000290: ee42 4171 9221 7640 d466 35b3 9196 7640
000002a0: 184f 62e6 0f0d 7740 637a 2b33 0285 7740
000002b0: bc50 cf3d 5cfe 7740 6194 cc17 1079 7840
000002c0: f2d1 3231 0ef5 7840 d549 da49 4572 7940
000002d0: c041 7f62 a2f0 7940 e35e bcad 1070 7a40
000002e0: 6abc df80 79f0 7a40 3919 9744 c471 7b40
000002f0: 58f7 7065 d6f3 7b40 fe38 3344 9376 7c40
00000300: ce1e 0c26 dcf9 7c40 d91c a924 907d 7d40
00000310: 8582 481e 8c01 7e40 9353 e8a5 aa85 7e40
00000320: 16ce 6ae4 b4ef 7e40 37be d681 a758 7f40
00000330: be1b f2eb 4eb8 7f40 b29e bc62 60b9 7f40
0.0 0.0051578910940995966 0.009815534464572345 0.05639191360091581 0.5221502528025829 2.3874332504719553 5.839909592979076 9.374341829774597
12.908445383756309 16.44241508338397 19.976499000816524 23.51099674084331 27.046258390172156 30.582684020980913 34.12072364856027 37.66087755233586
41.203696880843076 44.74978447279639 48.29979583715982 51.854440244498264 55.41448188967924 58.980741092260054 62.55409550582252 66.13548131133169
69.72589437251536 73.32639133347718 76.93809064042388 80.56217347063016 84.19988455267918 87.85253286267844 91.52149218161748 95.20820149935255
98.91416525091131 102.64095337093686 106.39020115216309 110.16360889385109 113.96294132614105 117.79002679630172 121.64675620290559 125.53508166403743
129.45701490577005 133.41462535732595 137.41003793960022 141.44543053405644 145.52303111943712 149.64511456425782 153.81399906369046 158.03204221018936
162.30163668808075 166.6252055833211 171.00519730073657 175.4440800822787 179.9443361211704 184.5084552682588 189.13892832843442 193.83823994660008
198.60886108436944 203.45324109042005 208.37379936920433 213.3729166545078 218.45292589611458 223.61610276956978 228.86465582068968 234.20071625803766
239.62632740803 245.1434338486344 250.7538702387549 256.45934986133483 262.26145289894066 268.16161446109606 274.16111238291063 280.26105481458154
286.4623676211404 292.765781611371 299.171819614144 305.6807834195077 312.2927406007509 319.0075112323266 325.8246545169993 332.74345533387066
339.7629107170447 346.88171627263335 354.0982525395656 361.41057129726437 368.8163818206972 376.3130370806086 383.89751988394323 391.5664289466277
399.3159648881111 407.1419161345378 415.03964471540166 423.0040719373921 431.029663919419 439.1104169752394 447.2398428356878 455.41095371254767
463.6162472222758 471.84769121226924 480.0967085678497 488.3541621279957 494.98166314812386 501.54089530834193 507.5192679841383 507.5860316627469

position_y f8 [104]
00000000: 0000 0000 0000 0000 33af db6d 0fc8 9cbe
00000010: 897b e7cd c90e babe 92ce ed2a c5e0 0abf
00000020: 0f8c 2d26 3301 72bf 7727 6906 c988 b7bf
00000030: 0d47 a3ae 3d9d e1bf 5a73 c0c5 9ab5 f6bf
00000040: e4ed 5008 5d8b 05c0 5833 a05d 317d 11c0
00000050: 360b 9429 a1d4 19c0 f87e 6299 57e6 21c0
00000060: d46e c9e5 05b3 27c0 69d3 d4fe b250 2ec0
00000070: 9f39 4fd0 dadf 32c0 9dc1 e3ce 3100 37c0
00000080: 1eed ffe0 8889 3bc0 9485 d2ed 043e 40c0
00000090: 8058 5afb eeeb 42c0 bd3e bae0 96ce 45c0
000000a0: a19e ce8b 10e6 48c0 8a46 5e8b 6f32 4cc0
000000b0: 1a9d dc09 c7b3 4fc0 73d7 14e4 14b5 51c0
000000c0: 4246 200c d5aa 53c0 fdf3 e3eb 2cbb 55c0
000000d0: acf5 3d35 25e6 57c0 0876 355a c62b 5ac0
000000e0: df7d 008a 188c 5cc0 fc3c f0ad 2307 5fc0
000000f0: 30f1 21b3 77ce 60c0 0081 7183 c126 62c0
00000100: d5b6 00ca 728c 63c0 17a5 57df 8eff 64c0
00000110: 5f86 acf0 1880 66c0 57f8 1dfe 130e 68c0
00000120: 062e ead8 82a9 69c0 9e49 a621 6852 6bc0
00000130: b583 7946 c608 6dc0 b63c 6081 9fcc 6ec0
00000140: 11c6 3deb fa4e 70c0 7f2b 3989 653e 71c0
00000150: 2cb5 7464 9034 72c0 2c43 8c29 7c31 73c0
00000160: 1358 4167 2935 74c0 7c41 ec8d 983f 75c0
00000170: 36c8 05ef c950 76c0 ba15 cdbc bd68 77c0
00000180: 869a 0d0a 7487 78c0 add5 08ca ecac 79c0
00000190: 0ae8 87d0 27d9 7ac0 7edb 18d2 240c 7cc0
000001a0: bf76 7b64 e345 7dc0 2e57 41ff 6286 7ec0
000001b0: 14da a4fc a2cd 7fc0 470e 4d4d d18d 80c0
000001c0: c081 0e7e 3038 81c0 3469 5f95 eee5 81c0
000001d0: cfab 3a0c 0b97 82c0 ea8e d650 854b 83c0
000001e0: 90b2 cfc7 5c03 84c0 9ef0 75cd 90be 84c0
000001f0: b9af 3ab7 207d 85c0 a6c2 3fd5 0b3f 86c0
00000200: 5b69 0574 5104 87c0 457c 35de f0cc 87c0
00000210: 8934 895e e998 88c0 d966 c641 3a68 89c0
00000220: 2e63 d0d8 e23a 8ac0 fb03 c87a e210 8bc0
00000230: 2bcd 3587 38ea 8bc0 6350 3868 e4c6 8cc0
00000240: cd62 b094 e5a6 8dc0 840b 6492 3b8a 8ec0
00000250: b172 10f8 e570 8fc0 a041 b137 722d 90c0
00000260: e5b2 665b 1ba4 90c0 bcbe 9a51 6e1c 91c0
00000270: 8310 b310 6b96 91c0 69f6 a39b 1112 92c0
00000280: 05a0 6602 628f 92c0 3f20 4562 5c0e 93c0
00000290: d9ce f6e5 008f 93c0 cf9e 87c5 4f11 94c0
000002a0: 2301 0546 4995 94c0 c4f6 eab8 ed1a 95c0
000002b0: b106 4c7b 3da2 95c0 f1e4 aef4 382b 96c0
000002c0: 14b1 9c95 e0b5 96c0 c5cb dad5 3442 97c0
000002d0: 8156 4b32 36d0 97c0 2479 6f2a e55f 98c0
000002e0: c880 863d 42f1 98c0 ccca 44e7 4d84 99c0
000002f0: bd2d 1d9c 0819 9ac0 ec26 17c5 72af 9ac0
00000300: a574 2bbb 8c47 9bc0 76e7 1fc2 56e1 9bc0
00000310: 950d da02 d17c 9cc0 41df 1e85 fb19 9dc0
00000320: 0577 52dd 5a99 9dc0 4262 e737 9a18 9ec0
00000330: 9735 1eb9 b38d 9ec0 8d0d ab21 048f 9ec0
0.0 -4.2887755378919053e-07 -1.5531639331251368e-06 -5.1265732841890583e-05 -0.00439567546968346 -0.09193092733872087 -0.5504444514174068 -1.41933705565244
-2.693048539132848 -4.372258627798907 -6.4576460358246575 -8.949887078545984 -11.849654370154362 -15.157615626792635 -18.874432582227765 -23.000760012249533
-27.5372448563404 -32.48452542094597 -37.843230647195924 -43.61397942632673 -49.79737994755602 -56.39402906516359 -63.40451167366173 -70.82940008197129
-78.66925337936212 -86.92461678753894 -95.59602099467037 -104.68398146839911 -114.18899774597183 -124.11155270062221 -134.45211178426098 -145.21112224739773
-156.38901233806124 -167.9861904823126 -180.0030444497706 -192.4399405083993 -205.297222573645 -218.57521135786095 -232.27420352681443 -246.39447087093657
-260.9362594998393 -275.89978906948085 -291.2852520522017 -307.0928130606651 -323.3226082375051 -339.97474472320005 -357.0493002153265 -374.54632263289716
-392.46582989992055 -410.8078098626236 -429.5722203549236 -448.75898942670744 -468.36801574924533 -488.3991692116132 -508.8522917212988 -529.727198221205
-551.0236779340121 -572.7414958433133 -594.8803944190676 -617.4400955927242 -640.420302984845 -663.8207043851905 -687.6409744820477 -711.8807778340604
-736.5397720740106 -761.617611329894 -787.11394984428 -813.0284457683694 -839.360765102412 -866.1105857492652 -893.2776016429174 -920.8615269088299
-948.8621000080253 -977.2790878120436 -1006.1122895512582 -1035.361540574675 -1065.0267158552826 -1095.1077331713595 -1125.6045558909252 -1156.5171952838084
-1187.8457122836273 -1219.5902186203891 -1251.7508772433996 -1284.327901953762 -1317.3215561658806 -1350.7321507180322 -1384.5600406531414 -1418.805620892261
-1453.469320724781 -1488.5515970408317 -1524.0529262324856 -1559.9737946908654 -1596.3146878257849 -1633.0760775326517 -1670.2584080275694 -1707.8620799653536
-1745.8874327459282 -1784.3347249016783 -1823.2041124411382 -1862.4956250022663 -1894.3387349019188 -1926.1506038812372 -1955.4255108566483 -1955.754034683897

position_z f8 [104]
00000000: 0000 0000 0000 5940 8756 5381 5400 5940
00000010: 3015 c0cf a000 5940 6506 82b8 9b03 5940
00000020: 525c 1a63 5921 5940 ff55 1559 5d97 5940
00000030: 4284 157f 306d 5a40 eea0 1da7 e141 5b40
00000040: 8b02 8a7c 4310 5c40 d658 552d 56d8 5c40
00000050: 64f4 37da 199a 5d40 9579 9598 8e55 5e40
00000060: b9ee 9574 b40a 5f40 b329 5273 8bb9 5f40
00000070: 7b42 7fca 0931 6040 72e1 816b 2682 6040
00000080: 43dd fd9a 1bd0 6040 cb5c c657 e91a 6140
00000090: 596c 11a2 8f62 6140 a0cf 447c 0ea7 6140
000000a0: 832e b5eb 65e8 6140 9f63 5af9 9526 6240
000000b0: edf6 7bb2 9e61 6240 1edd 5829 8099 6240
000000c0: 7d82 cd75 3ace 6240 2305 fbb5 cdff 6240
000000d0: 4257 f20e 3a2e 6340 f5d4 65ad 7f59 6340
000000e0: 06ac 63c6 9e81 6340 d948 1b98 97a6 6340
000000f0: d8d1 af6a 6ac8 6340 2692 1991 17e7 6340
00000100: 010c 186a 9f02 6440 2542 3661 021b 6440
00000110: f99c e2ef 4030 6440 1ba3 9b9e 5b42 6440
00000120: a18c 3206 5351 6440 2384 24d1 275d 6440
00000130: 1830 0bbd da65 6440 c9e1 249c 6c6b 6440
00000140: e284 f456 de6d 6440 a223 f9ed 306d 6440
00000150: af87 7c7b 6569 6440 3b2f 7835 7d62 6440
00000160: e279 8f6f 7958 6440 fb98 1d9d 5b4b 6440
00000170: 2d75 5553 253b 6440 d55f 714b d827 6440
00000180: 6e0b f064 7611 6440 60ec dba7 01f8 6340
00000190: bfcc 1947 7cdb 6340 930b bba2 e8bb 6340
000001a0: 12b5 4f4a 4999 6340 d25e 34ff a073 6340
000001b0: 7b7b d7b6 f24a 6340 fdae f19c 411f 6340
000001c0: ed90 ac15 91f0 6240 2040 b3bf e4be 6240
000001d0: 1033 2876 408a 6240 17cd 7b52 a852 6240
000001e0: 9072 1fae 2018 6240 df1d 1124 aeda 6140
000001f0: 80d5 3b92 559a 6140 a9d6 a91a 1c57 6140
00000200: 89cf 8524 0711 6140 3a1d e95c 1cc8 6040
00000210: 91a8 75b7 617c 6040 90ad ba6e dd2d 6040
00000220: c5da c808 2cb9 5f40 08f6 6e82 2411 5f40
00000230: 02ed b169 b263 5e40 dc2e cb6a e4b0 5d40
00000240: 1ca2 b3bd c9f8 5c40 bd27 9b24 723b 5c40
00000250: 5553 0cea ed78 5b40 7ca3 c0de 4db1 5a40
00000260: b10f 2857 a3e4 5940 1c5b a428 0013 5940
00000270: 5c1a 75a6 763c 5840 f18e 4c9e 1961 5740
00000280: 4333 7f54 fc80 5640 44da b77f 329c 5540
00000290: 5f66 1044 d0b2 5440 a41b 632d eac4 5340
000002a0: 6b35 9a28 95d2 5240 1673 b27b e6db 5140
000002b0: ed82 11bc f3e0 5040 5e9a 7485 a5c3 4f40
000002c0: 6bc5 9d3b 33bd 4d40 61ef 63fd bcae 4b40
000002d0: 6033 f047 6f98 4940 c5ed 657c 767a 4740
000002e0: 2ba8 ed9c fe54 4540 fdfa 96fa 3228 4340
000002f0: 96c4 0cd1 3df4 4040 7d06 4c99 8f72 3d40
00000300: e335 c5ed eeee 3840 0014 bd09 e15d 3440
00000310: 4990 e00a 4c7f 2f40 124d 4059 e928 2640
00000320: be3b c1d3 6e2f 1d40 5bed 61fa 5c22 0c40
00000330: 0090 8748 23fb a33f 0000 0000 00ab 25bd
100.0 100.00515778673626 100.00981515653689 100.0563794393325 100.52108075689583 102.36507250865542 105.70608498669847 109.02939775365277
112.25411904790433 115.38025983175916 118.40782790626832 121.3368283710209 124.16726412431571 126.8991363813755 129.5324451909581 132.06718993537248
134.50336980421898 136.84098423712416 139.08003333476043 141.22051824035316 143.26244149577187 145.2058073773778 147.05062221729114 148.7968947158451
150.4446362508642 151.99386118914944 153.44458720524023 154.7968356121925 156.05063170878583 157.206005147257 158.26299032535348 159.22162680620494
160.0819597692171 160.84404049489345 161.50792688618074 162.07368402860524 162.54138479111592 162.9111104691702 163.18295147118693 163.3570080490447
163.43339107282287 163.4122228494644 163.29363798448819 163.07778428529295 162.76482370398213 162.35493331700113 161.84830633822403 161.24515316146304
160.54570242770882 159.75020211175706 158.85892062224409 157.87214790851849 156.79019656722863 155.6134029410228 154.34212820135494 152.97675940707987
151.51771053032226 149.96542344102727 148.320368841662 146.58304714374455 144.75398927824108 142.833757432395 140.82294570623708 138.722180682865
136.53212190756702 134.25346227197753 131.88692830066842 129.43328033886473 126.89331264128403 124.26785336338082 121.55776445746963 118.76394147722334
115.88731329481419 112.92884173538091 109.88952113345779 106.7703778153645 103.57246951019512 100.29688468981152 96.94474183498227 93.51718862034228
90.0154010050001 86.44058220819812 82.79396154023696 79.07679304770005 75.29035391864242 71.43594257761683 67.51487638197041 63.52848880952364
59.47812600330038 55.36514251117365 51.19089602688359 46.956740903634945 42.66402017216054 38.314055751534376 33.908136492952664 29.447503644047618
24.933333264014333 20.366715058004047 15.748627033150244 11.079905308818102 7.296321209591893 3.5167789040694237 0.03902540455217718 -3.8490044484973396e-14

u f8 [104]
00000000: 97c7 7294 e57f e33c 0432 8fa3 2f15 78bf
00000010: 293d a0dc 38ea 86bf b995 3f33 db74 b0bf
00000020: 53b7 9d6c 9b0c e3bf 2773 93de 09c9 05c0
00000030: 28ce e37d 1bab 1ac0 c24c 7882 7c6c 25c0
00000040: 4a49 d63d e686 2dc0 f348 8946 65d2 32c0
00000050: 65f6 0598 13e3 36c0 eb1a f010 7cf5 3ac0
00000060: cc41 cfdc 9b09 3fc0 f545 e3b3 b78f 41c0
00000070: dc31 b438 799b 43c0 4ff5 130f 10a8 45c0
00000080: 62b4 3683 79b5 47c0 c8ac 6ca1 b2c3 49c0
00000090: 4d89 d23a b8d2 4bc0 3b68 a7e8 86e2 4dc0
000000a0: 50ee 6f0e 1bf3 4fc0 e7e7 896d 3802 51c0
000000b0: e182 9124 420b 52c0 ce3f 368f a814 53c0
000000c0: 21c3 8575 691e 54c0 ec2d 0684 8228 55c0
000000d0: d73f e24a f132 56c0 a1cb fb3c b33d 57c0
000000e0: 08af efae c548 58c0 c489 15d6 2554 59c0
000000f0: 0cc7 84c7 d05f 5ac0 a123 2877 c36b 5bc0
00000100: faa0 e8b6 fa77 5cc0 57c1 f835 7384 5dc0
00000110: 98ec 4880 2991 5ec0 c7f1 2dfe 199e 5fc0
00000120: 815a 217a a055 60c0 da1a c741 4ddc 60c0
00000130: 4597 fb54 1163 61c0 304d 87a1 eae9 61c0
00000140: 2530 9d04 d770 62c0 68a4 a44b d4f7 62c0
00000150: 4f90 3c35 e07e 63c0 8cc6 7b72 f805 64c0
00000160: 7bc8 72a8 1a8d 64c0 6c85 f271 4414 65c0
00000170: ce4a 9b61 739b 65c0 988c 3604 a522 66c0
00000180: 9a85 5de3 d6a9 66c0 90e9 6d88 0631 67c0
00000190: bdfe cc7f 31b8 67c0 4a71 785c 553f 68c0
000001a0: f00f e3bb 6fc6 68c0 c25f 1a4a 7e4d 69c0
000001b0: ab95 30c6 7ed4 69c0 5409 e506 6f5b 6ac0
000001c0: 2ea1 83ff 4ce2 6ac0 e60d f2c4 1669 6bc0
000001d0: 83f1 df92 caef 6bc0 2548 0dd1 6676 6cc0
000001e0: ef9c 9818 eafc 6cc0 3fcb 4439 5383 6dc0
000001f0: 254b a43e a109 6ec0 cd57 1675 d38f 6ec0
00000200: 2aa8 806e e915 6fc0 3bff ae06 e39b 6fc0
00000210: d548 a033 e010 70c0 6d16 8505 c153 70c0
00000220: cf9b 6960 9496 70c0 bc8b a9d6 5ad9 70c0
00000230: ea22 2a26 151c 71c0 293b 7138 c45e 71c0
00000240: cece 3422 69a1 71c0 d63a 5622 05e4 71c0
00000250: b523 3da0 9926 72c0 a9a6 8629 2869 72c0
00000260: 0375 fe6e b2ab 72c0 1e96 d840 3aee 72c0
00000270: 9dd3 238a c130 73c0 d53b 6e4b 4a73 73c0
00000280: 9ea8 9694 d6b5 73c0 35cb c77d 68f8 73c0
00000290: 16d5 9a1f 023b 74c0 3362 618a a57d 74c0
000002a0: 1bbb 97bc 54c0 74c0 a3c8 8198 1103 75c0
000002b0: c70f f6d8 dd45 75c0 2aaa 5a05 bb88 75c0
000002c0: bc4f d864 aacb 75c0 5909 c7f0 ac0e 76c0
000002d0: 12e6 5646 c351 76c0 6ce8 7497 ed94 76c0
000002e0: b22d e99a 2bd8 76c0 b5e7 a67b 7c1b 77c0
000002f0: 3df8 40c7 de5e 77c0 c0b0 6e5b 50a2 77c0
00000300: aa48 8352 cee5 77c0 25f3 afee 5429 78c0
00000310: c613 dc83 df6c 78c0 2ff8 d05f 68b0 78c0
00000320: 8440 f3a9 97e6 78c0 e94d 3534 3b1c 79c0
00000330: c287 a237 274d 79c0 f0aa 5825 b34d 79c0
2.164890140588733e-15 -0.005879579629390456 -0.011188930733651308 -0.06428308488064872 -0.5952889558227333 -2.723163355707942 -6.667097060231335 -10.71188743322853
-14.76347535363006 -18.821857841984592 -22.88701772828644 -26.958924349421903 -31.037534523582323 -35.12279366109207 -39.214636886583065 -43.31299007868312
-47.41777076884388 -51.528888872207574 -55.64624724655241 -59.769742089978955 -63.89926319566132 -68.03469408480997 -72.17591203889926 -76.32278805063035
-80.47518671095578 -84.63296604731994 -88.79597732634225 -92.96406483258626 -97.13706563383687 -101.31480934241614 -105.49711788145595 -109.68380526466218
-113.87467739789636 -118.06953191082481 -122.26815802690032 -126.47033648001444 -130.6758394862591 -134.88443077933954 -139.09586571825835 -143.30989147592618
-147.52624731732172 -151.74466497570688 -155.96486913517808 -160.186578027486 -164.4095041505678 -168.63335511557977 -172.85783462839612 -177.08264361051693
-181.307481463108 -185.53204747645623 -189.75604238546467 -193.97917006992276 -198.2011393961725 -202.4216661944502 -206.64047536362827 -210.85730309232406
-215.0718991824046 -219.28402945781926 -223.4934782384772 -227.70005085558037 -231.9035761814807 -236.1039091437942 -240.30093319023686 -244.49456266750204
-248.68474507454204 -252.87146314791775 -257.05473673449643 -261.23462440478653 -265.41122475865717 -269.5846773741612 -273.7551633497193 -277.9229053900804
-282.08816738727626 -286.2512534492829 -290.41250633127794 -294.5723052272611 -298.7310628833513 -302.88922199825345 -307.0472508811452 -311.20563834247633
-315.3648877987961 -319.5255105785794 -323.6880184219493 -327.8529151729628 -332.02068766851306 -336.1917958326032 -340.36666198842835 -344.5456594029989
-348.72910007950463 -352.91722181080473 -357.1101745028001 -361.30800576846264 -365.5106457813773 -369.7178913612109 -373.9293892419699 -378.1446184467168
-382.3628716591144 -386.5832354424513 -390.80456911056206 -395.025482002532 -398.41202731151884 -401.7644540865136 -404.82207454193497 -404.8562367881377

v f8 [104]
00000000: b866 13c0 7bad 4140 ffae 1b7a 7bad 4140
00000010: e673 ed3a 7bad 4140 f8f3 2ec3 78ad 4140
00000020: cab2 811e 60ad 4140 c41b c9e1 feac 4140
00000030: 93c1 4b5f 59ac 4140 0205 f4c0 d3ab 4140
00000040: 4513 4e01 85ab 4140 b6fb 3eef 7eab 4140
00000050: 449d 6dab d2ab 4140 31d6 2be4 90ac 4140
00000060: 8b42 5b08 caad 4140 cea3 9b71 8eaf 4140
00000070: d60b 6e86 eeb1 4140 ecac 31d5 fab4 4140
00000080: 5682 f428 c4b8 4140 a093 0a99 5bbd 4140
00000090: c058 4594 d2c2 4140 d5aa 83e8 3ac9 4140
000000a0: e4a7 30c7 a6d0 4140 f1ef 28c7 28d9 4140
000000b0: dc45 63e4 d3e2 4140 2027 a47d bbed 4140
000000c0: 4ae2 7250 f3f9 4140 ed60 7973 8f07 4240
000000d0: ed81 6d4f a416 4240 1ae1 9a96 4627 4240
000000e0: 0cbc 1d3b 8b39 4240 efe2 da63 874d 4240
000000f0: b8fe 3c60 5063 4240 e0b4 bc9a fb7a 4240
00000100: fa26 378a 9e94 4240 65da 14a2 4eb0 4240
00000110: 5925 4241 21ce 4240 c6bc f99f 2bee 4240
00000120: b6e3 61bc 8210 4340 4bf8 fc45 3b35 4340
00000130: 49ac ee87 695c 4340 5811 1852 2186 4340
00000140: cec5 0de1 75b2 4340 b9f4 ecc4 79e1 4340
00000150: 657e 15c7 3e13 4440 1f7b d1ce d547 4440
00000160: b657 f4c4 4e7f 4440 e405 7e76 b8b9 4440
00000170: a719 5176 20f7 4440 4127 0dfe 9237 4540
00000180: 4043 21ce 1a7b 4540 561b 2d0d c1c1 4540
00000190: faad c926 8d0b 4640 c127 d5a9 8458 4640
000001a0: 21cc 5f26 aba8 4640 fc01 5a0b 02fc 4640
000001b0: 1391 2584 8852 4740 14c7 2d56 3bac 4740
000001c0: 1889 abbe 1409 4840 d03b bb50 0c69 4840
000001d0: 39dc ead3 16cc 4840 0291 6623 2632 4940
000001e0: 4962 e90d 299b 4940 3198 9636 0b07 4a40
000001f0: ac84 def6 b475 4a40 1a28 8f41 0be7 4a40
00000200: 0243 2e87 ef5a 4b40 6afe b69b 3fd1 4b40
00000210: 4873 d19d d549 4c40 660c 96df 87c4 4c40
00000220: 1d18 ead0 2841 4d40 f1f5 7deb 86bf 4d40
00000230: 7534 70a0 6c3f 4e40 1fc7 9347 a0c0 4e40
00000240: 424e 5210 e442 4f40 2453 1ef4 f5c5 4f40
00000250: d732 32d5 c724 5040 bea4 f24e b366 5040
00000260: 8e6a aff1 95a8 5040 236d b218 46ea 5040
00000270: bba9 a3ec 972b 5140 ef93 6f60 5d6c 5140
00000280: af86 8b2e 66ac 5140 ac2d 81d6 7feb 5140
00000290: a102 a89a 7529 5240 b139 f27d 1066 5240
000002a0: f9da b041 17a1 5240 236f 3163 4eda 5240
000002b0: a0d1 1619 7811 5340 4ace 4e50 5446 5340
000002c0: 1bbb 87a8 a078 5340 bc11 0d70 18a8 5340
000002d0: c33e f99e 74d4 5340 5ae6 b6d1 6bfd 5340
000002e0: 3ca8 de42 b222 5440 d362 9ac4 f943 5440
000002f0: 1c20 dfb9 f160 5440 86f9 0610 4779 5440
00000300: 40db a039 a48c 5440 2b9f b22b b19a 5440
00000310: 7edd 305f 13a3 5440 399d 1ed9 6da5 5440
00000320: 9ee6 223a b4a2 5440 3c63 3f85 be9b 5440
00000330: b52e cfba 8591 5440 28f7 69fb 6291 5440
35.35533905932738 35.35533071853387 35.35532318682071 35.35524787705066 35.35449582417421 35.35152838058232 35.34647742461234 35.34239971079843
35.339996493456546 35.33981123519281 35.34236662723791 35.348171731381065 35.357728046951785 35.37153453921893 35.39009170888282 35.41390480924187
35.443486327542516 35.47935784355582 35.52205136667317 35.572110237398796 35.630089663274504 35.69655694483652 35.77209143492993 35.85728426471019
35.95273786172454 36.059065279261496 36.17688935133979 36.30684168398348 36.44956149055369 36.60569427669349 36.775890378744805 36.9608033582133
37.16108825390798 37.37739969270914 37.610389859483526 37.86070632642945 38.128989742086034 38.41587138034864 38.721970550097986 39.04789186644729
39.394222385144175 39.76152860231509 40.15035332250117 40.56121239880144 40.9945913498954 41.450941859755204 41.93067816696139 42.434173351690795
42.96175552963405 43.51370396330337 44.09024510238301 44.6915485659406 45.31772308042151 45.96881238837156 46.64479114374458 47.345560810425155
48.07094558120497 48.82068833486812 49.59444664924417 50.3917888880551 51.21219037910175 52.05502970078704 52.919585093165864 53.805031008625704
54.71043481596827 55.634753670074886 56.57683155753199 57.53539652659019 58.50905810766583 59.49630492830682 60.49550252417331 61.50489134517397
62.52258495348771 63.546568407828346 64.57469682600218 65.60469411559731 66.63415186052791 67.66052834915585 68.68114772780147 69.69319926162983
70.69373668313595 71.67967760672644 72.64780298621419 73.59475659041233 74.51704447051078 75.41103439166595 76.27295520046619 77.09889610000496
77.88480580573052 78.62649155880257 79.31961798038814 79.9597057615405 80.54213020080437 81.06211962773095 81.51475378789513 81.89496231728671
82.19752350529325 82.41706364100962 82.54805736324303 82.58482959737456 82.54225018890654 82.43350344839286 82.27378721459066 82.27166638706387

w f8 [104]
00000000: b866 13c0 7bad 4140 93ce d298 4cad 4140
00000010: 5f43 5304 22ad 4140 5d2a 8737 78ab 4140
00000020: 0018 e249 d69a 4140 352d 165c 3a58 4140
00000030: bd7c 6cd6 f1dc 4040 36c6 6a35 bd5e 4040
00000040: 3eb2 7178 19c1 3f40 46e2 ef9f bec4 3e40
00000050: 139a 10f4 67c8 3d40 19d9 bed8 13cc 3c40
00000060: 1553 ed07 c1cf 3b40 2e3f db92 6ed3 3a40
00000070: ca1f 68e0 1bd7 3940 413c 55a9 c8da 3840
00000080: 7ceb 56f3 74de 3740 73d4 b80b 21e2 3640
00000090: 551f 2a82 cde5 3540 8d95 1724 7be9 3440
000000a0: c7cd d1f8 2aed 3340 8977 9f3e def0 3240
000000b0: dd41 c768 96f4 3140 c5e4 8f1e 55f8 3040
000000c0: 58de 5a76 38f8 2f40 538d 1e9d dbff 2d40
000000d0: 3cac 013e 9807 2c40 4c6e 1d57 730f 2a40
000000e0: e909 455e 7217 2840 0922 9048 9b1f 2640
000000f0: cb48 1e93 f427 2440 5363 fa4c 8530 2240
00000100: 6b98 0422 5539 2040 837a 91cd d884 1c40
00000110: 72d7 4b4a a897 1840 5c45 5453 2cab 1440
00000120: 5e29 0523 7abf 1040 6bcc 7a63 51a9 0940
00000130: f7a3 84a6 a1d5 0140 ae9b b751 3508 f43f
00000140: dec3 358d b1a7 d13f f63c 0e40 365e e6bf
00000150: d38f 5798 5bc2 fabf 6890 67db a227 05c0
00000160: e360 7a0b a0ea 0cc0 3b62 04b8 e954 12c0
00000170: 206f 20dc 7232 16c0 b480 2e05 bd0d 1ac0
00000180: c7bb f1f2 96e6 1dc0 7841 6043 66de 20c0
00000190: 4a7b 545e 13c8 22c0 88a9 97d4 35b0 24c0
000001a0: 2e8b ff3d af96 26c0 fbc4 edc3 5f7b 28c0
000001b0: aaaf 0628 265e 2ac0 c2c0 bccd df3e 2cc0
000001c0: f595 bcc6 681d 2ec0 1877 3ae2 9bf9 2fc0
000001d0: e5f3 8a5f a9e9 30c0 4d6a 5df0 32d5 31c0
000001e0: b724 4d63 56bf 32c0 7263 0303 ffa7 33c0
000001f0: bc4f 19b3 178f 34c0 84de 00ff 8a74 35c0
00000200: 472d aa29 4358 36c0 1d1d b33d 2a3a 37c0
00000210: 9931 eb1d 2a1a 38c0 01a0 f395 2cf8 38c0
00000220: 1f73 c36a 1bd4 39c0 af23 da6a e0ad 3ac0
00000230: 457e f07d 6585 3bc0 08a5 00b4 945a 3cc0
00000240: 0bf1 8a53 582d 3dc0 d9f1 0ee7 9afd 3dc0
00000250: fb50 c649 47cb 3ec0 9e7a cbb3 4896 3fc0
00000260: 1b0f fc62 452f 40c0 dd32 f8ca fc91 40c0
00000270: 14d1 7fdd 40f3 40c0 124c 512e 0853 41c0
00000280: 127f eda1 49b1 41c0 0dc4 5778 fc0d 42c0
00000290: f034 c65a 1869 42c0 74f1 486d 95c2 42c0
000002a0: 96bd a065 6c1a 43c0 d8b0 b3a8 9670 43c0
000002b0: 0b0d 4a70 0ec5 43c0 d1c4 fdfa ce17 44c0
000002c0: 1dd4 8cc8 d468 44c0 7d57 09e5 1db8 44c0
000002d0: c544 b245 aa05 45c0 b8a9 943a 7c51 45c0
000002e0: fc1c 6ff8 989b 45c0 e817 af3e 09e4 45c0
000002f0: f159 c11d da2a 46c0 5ed3 51e2 1d70 46c0
00000300: 05a4 7a2a edb3 46c0 8114 412a 68f6 46c0
00000310: 4701 1625 b837 47c0 bb9a 5522 1178 47c0
00000320: 9947 49f8 2fab 47c0 c1ef 7c74 87dd 47c0
00000330: 10e8 9786 610b 48c0 0512 44c1 e40b 48c0
35.35533905932738 35.35390005391414 35.35260061326584 35.33960622882726 35.209664569279994 34.68928099711267 33.726130297634406 32.74014919007861
31.75429489875591 30.768533702912713 29.782836202672183 28.79717783603073 27.811539168778 26.825905970122385 25.840269112988416 24.854624350842872
23.868972023697538 22.883316738724215 21.897667060169017 20.91203523231302 19.926436949941287 18.94089118378864 17.955420063635632 16.970048818712502
15.984805773346281 14.999722394923685 14.014833390907476 13.030176851599343 12.04579443543203 11.06173159369884 10.078037831732578 9.094767003598156
8.11197763734909 7.1297332878153865 6.1481029137411145 5.167161275881281 4.186989352407492 3.207674767670644 2.229312230036608 1.2520039741591336
0.2758602026943303 -0.6990004778944285 -1.6724506331311104 -2.644353593919778 -3.6145630737993186 -4.582922816531716 -5.549266280631656 -6.513416367495825
-7.475185199741595 -8.43437395620343 -9.39077276974935 -10.34416069365831 -11.294305741733833 -12.240965006613342 -13.183884859863458 -14.122801236430295
-15.057440004845356 -15.98751742328345 -16.912740680145266 -17.8328085163178 -18.74741192468056 -19.65623492081381 -20.558955377273136 -21.45524591227742
-22.344774822280012 -23.22720704672712 -24.102205152435634 -24.96943032453419 -25.82854335090371 -26.67920558763188 -27.521079894270105 -28.353831529767405
-29.177129002972872 -29.990644875668156 -30.794056521336625 -31.587046849420055 -32.36930501277512 -33.14052712554051 -33.900417029772285 -34.648687162109255
-35.38505958649161 -36.10926727567139 -36.82105574300829 -37.52018514692 -38.206433013426405 -38.87959774755444 -39.53950313201684 -40.18600404158645
-40.81899363399882 -41.438412313043024 -42.04425879673503 -42.63660366305288 -43.215605787519934 -43.78153213071329 -44.33478137913688 -44.8759119891681
-45.40567522991481 -45.92505386522044 -46.435307155365585 -46.93802289180663 -47.33740142419919 -47.73069625950257 -48.0889137498599 -48.09291854690313

phi f8 [104]
00000000: 0000 0000 0000 0000 4273 ab76 e48a e9bd
00000010: eeb9 6db7 df1f 07be e7f8 5649 02d8 57be
00000020: 1d2b e5fe 57d4 bfbe 0497 667f d882 04bf
00000030: 92d4 c1c8 cdf3 2dbf 20e9 78bc 0ddc 42bf
00000040: f833 58ee 2e82 51bf 70e5 1d5a e4dd 5bbf
00000050: 3907 e953 c135 64bf b2af 9290 e58d 6bbf
00000060: f6f1 d56f 3cf9 71bf a8e0 7ea6 6fb0 76bf
00000070: f2f0 768d 31ec 7bbf 7884 ce2a 77d6 80bf
00000080: e0c4 0273 d9f9 83bf 9379 83e5 0561 87bf
00000090: 834c 5871 f40c 8bbf 459f 3797 c2fe 8ebf
000000a0: b460 a58c d49b 91bf aeb9 8095 79dc 93bf
000000b0: 3831 8270 fb41 96bf d727 8554 07cd 98bf
000000c0: cc53 74cc 497e 9bbf fe53 9a35 6c56 9ebf
000000d0: 890c 7e41 09ab a0bf 6045 549b ec3e a2bf
000000e0: c889 15c2 29e7 a3bf 7e54 9ac8 04a4 a5bf
000000f0: 8de1 9265 bb75 a7bf 1e6e bc24 845c a9bf
00000100: e66d 169b 8d58 abbf ec1a 229b fd69 adbf
00000110: e8fd a066 f090 afbf 0966 d2ed bbe6 b0bf
00000120: 34c8 8b4d cd0f b2bf e1a4 9893 a943 b3bf
00000130: e118 4d7c 4782 b4bf e945 a0c4 96cb b5bf
00000140: ddc4 17aa 7f1f b7bf 6bc4 fd64 e27d b8bf
00000150: dea9 cf9c 96e6 b9bf 9e42 f7d6 6a59 bbbf
00000160: ff51 05e0 23d6 bcbf 5c5d c92f 7c5c bebf
00000170: 54b0 c748 23ec bfbf ef92 d989 5ec2 c0bf
00000180: aacd d99b f092 c1bf 5994 3138 8d67 c2bf
00000190: fd19 45f1 f23f c3bf a4f4 5d38 d91b c4bf
000001a0: 0c08 8408 f0fa c4bf c079 8192 dfdc c5bf
000001b0: 2222 b3ea 47c1 c6bf e33d 42b9 c0a7 c7bf
000001c0: ae95 58ed d88f c8bf 6ebe cc73 1679 c9bf
000001d0: 3a43 a7f1 f562 cabf 5a2f ba82 ea4c cbbf
000001e0: 8c2a 517c 5d36 ccbf 5cad bf33 ae1e cdbf
000001f0: 5517 43c8 3105 cebf 4abe 4def 32e9 cebf
00000200: f821 dcc1 f1c9 cfbf 41bf 75c4 5153 d0bf
00000210: aab9 4243 39bf d0bf 685a 09dc 3e28 d1bf
00000220: 1e4d e046 ec8d d1bf 1244 d948 c5ef d1bf
00000230: 8fc9 367c 474d d2bf 4395 2d09 eaa5 d2bf
00000240: d75f 294a 1df9 d2bf 0947 5b55 4a46 d3bf
00000250: 7cb2 d763 d28c d3bf 96cd a10c 0ecc d3bf
00000260: 154a 9047 4c03 d4bf 6b83 ca28 d131 d4bf
00000270: d96f 7441 d456 d4bf 5d90 9f8c 7e71 d4bf
00000280: 99f8 3ec8 e780 d4bf 6ef9 f60f 1384 d4bf
00000290: 412c 2a82 ea79 d4bf 7cbd 25a5 3961 d4bf
000002a0: bd9a 9f28 a638 d4bf 469f aa7b a6fe d3bf
000002b0: bcfb 0c7c 75b1 d3bf c132 383a 024f d3bf
000002c0: e908 ba61 dad4 d2bf 874d 2d37 0d40 d2bf
000002d0: 5ad4 562e 048d d1bf 3788 c9af 4cb7 d0bf
000002e0: b68f 8de5 9872 cfbf c921 d3b5 ac17 cdbf
000002f0: 7209 f087 204b cabf 1931 cc74 22f4 c6bf
00000300: a687 b139 22f1 c2bf 685e 17c0 ac27 bcbf
00000310: b9fd 165d 4236 b0bf 98e7 c0d9 2b35 75bf
00000320: fab5 98b4 fde8 aa3f 4729 bf06 9762 bf3f
00000330: 866a 669c 5fba c93f 1760 c27c 1dda c93f
0.0 -1.8584650080573338e-10 -6.730117425659722e-10 -2.2206255131370392e-08 -1.897184116100409e-06 -3.912184904501621e-05 -0.00022851836218121653 -0.0005755488463770365
-0.0010686357794640316 -0.0017008523941214014 -0.0024670387204261094 -0.0033635600744527866 -0.004388080674627029 -0.005539356359740712 -0.006817048611477571 -0.008221560472352105
-0.009753893682815151 -0.011415525500009937 -0.01320830317403066 -0.015134353866372083 -0.017196007809020045 -0.01939573264115218 -0.021736077062585596 -0.024219622167301082
-0.0268489390410485 -0.02962655141034886 -0.03255490231006159 -0.03563632389171789 -0.03887300962630352 -0.042266988265660096 -0.045820099019184025 -0.04953396748006987
-0.05340998190078121 -0.05744926947322945 -0.06165267231744648 -0.06602072292516693 -0.07055361884320704 -0.07525119641708812 -0.08011290344902335 -0.08513777065697749
-0.09032438185365117 -0.09567084279639608 -0.10117474869154061 -0.1068331503695483 -0.1126425191808451 -0.11859871069588251 -0.12469692732673937 -0.13093168002082886
-0.13729674920942375 -0.1437851452239183 -0.15038906842001146 -0.1570998692731439 -0.16390800872619626 -0.1708030190811325 -0.17777346572826597 -0.18480690999829993
-0.19188987340127767 -0.19900780348097008 -0.2061450414608091 -0.21328479178589071 -0.2204090935723183 -0.22749879385751626 -0.23453352240010852 -0.24149166760206447
-0.24835035291495422 -0.25508541284124325 -0.26167136734411633 -0.26808139312689727 -0.27428728982450135 -0.2802594386494671 -0.28596675043368064 -0.2913765992764931
-0.29645473711343356 -0.3011651834068379 -0.3054700827622481 -0.30932952149961446 -0.31270129192958623 -0.3155405901289245 -0.3177996291358319 -0.3194271443628674
-0.32036776118537486 -0.32056118544632894 -0.31994116507911846 -0.31843415382078155 -0.31595758406767144 -0.31241762234502735 -0.30770623316123724 -0.3016973084020656
-0.29424151939032456 -0.2851594008290807 -0.2742319538622887 -0.26118771712038175 -0.24568473061219515 -0.22728499296341756 -0.20541769635753898 -0.17932539656647675
-0.14798381630958807 -0.10998038949707623 -0.06332793019009032 -0.00517766121998333 0.05255883054301687 0.12259811320033008 0.20100016724321196 0.2019688471962133

theta f8 [104]
00000000: 182d 4454 fb21 e93f 1b71 4654 fb21 e93f
00000010: c13f 4d54 fb21 e93f 8cce 8955 fb21 e93f
00000020: 0b61 d4c2 fb21 e93f dcc4 c753 0422 e93f
00000030: 1c96 04c2 3022 e93f be63 f91c 8422 e93f
00000040: d0db 6570 fd22 e93f bd2a 47d1 9c23 e93f
00000050: 7982 a1c4 6224 e93f 8abc 1640 5025 e93f
00000060: 559b eaa8 6626 e93f cd3d dad1 a727 e93f
00000070: 36c8 11f8 1529 e93f d256 76bf b32a e93f
00000080: be87 6a2e 842c e93f 4585 28a9 8a2e e93f
00000090: 189b c4ec ca30 e93f de31 e609 4933 e93f
000000a0: 3bd6 415f 0936 e93f 3921 dd93 1039 e93f
000000b0: 8e83 2491 633c e93f d7cd da7c 0740 e93f
000000c0: 6b9f eab2 0144 e93f 5f87 22bf 5748 e93f
000000d0: 107f e556 0f4d e93f 496a da52 2e52 e93f
000000e0: 876b a6a8 ba57 e93f 7b12 bf64 ba5d e93f
000000f0: 82b1 62a4 3364 e93f 5276 c68f 2c6b e93f
00000100: ba35 8b54 ab72 e93f f42b 8b20 b67a e93f
00000110: 373d 141d 5383 e93f f77d a36a 888c e93f
00000120: 70f0 371d 5c96 e93f 9c6d 5339 d4a0 e93f
00000130: 7091 c1b1 f6ab e93f cb33 3d66 c9b7 e93f
00000140: 5e6e 0d23 52c4 e93f 4261 b3a1 96d1 e93f
00000150: cbc8 c18a 9cdf e93f 3afc f678 69ee e93f
00000160: 4f0b b1fd 02fe e93f 155e d2a6 6e0e ea3f
00000170: 626d 2b06 b21f ea3f d8db 7bba d231 ea3f
00000180: 3361 1a7a d644 ea3f a199 4f1f c358 ea3f
00000190: 75e1 6bb6 9e6d ea3f 66f7 9b8d 6f83 ea3f
000001a0: 1036 7b46 3c9a ea3f fade 5ce9 0bb2 ea3f
000001b0: 7a42 40fa e5ca ea3f 41a2 5d8f d2e4 ea3f
000001c0: 0ba1 3369 daff ea3f 110f f70b 071c eb3f
000001d0: 1d15 41da 6239 eb3f c958 d230 f957 eb3f
000001e0: 67e9 3c83 d677 eb3f 8dce 4279 0899 eb3f
000001f0: 9428 b40c 9ebb eb3f 8330 96a7 a7df eb3f
00000200: a03b 5c42 3705 ec3f d763 fd81 602c ec3f
00000210: 17bb b4d5 3855 ec3f 8a0f 3f94 d77f ec3f
00000220: 1e40 7018 56ac ec3f ceda 02dd cfda ec3f
00000230: 6eff 8e97 620b ed3f 64eb a052 2e3e ed3f
00000240: 4796 f386 5573 ed3f 249b df33 fdaa ed3f
00000250: 2e3b 19f7 4ce5 ed3f 4822 e023 6f22 ee3f
00000260: 60cf c6d9 9062 ee3f 0a88 331b e2a5 ee3f
00000270: 0420 aee3 95ec ee3f 93f4 ef3d e236 ef3f
00000280: 72ee 7759 0085 ef3f 815b 129f 2cd7 ef3f
00000290: abc9 a361 d316 f03f d66d 75ea 5844 f03f
000002a0: a982 7922 4a74 f03f 04b5 9cf1 cba6 f03f
000002b0: f53b bce4 04dc f03f 42f5 4715 1d14 f13f
000002c0: 1d7d 93fb 3d4f f13f a3e6 ae20 928d f13f
000002d0: b477 fa9e 44cf f13f 622d e457 8014 f23f
000002e0: 0bba 58b7 6e5d f23f 0911 efc6 35aa f23f
000002f0: 415f 7e2d f5fa f23f ec3c 4d78 c14f f33f
00000300: 86fa 3d9c 9ca8 f33f 8e40 2fd7 6905 f43f
00000310: c2a5 7baf d965 f43f aece 4330 48c9 f43f
00000320: dbd2 21f3 791a f53f 1d30 a36d 0c6b f53f
00000330: fb45 845a 64b3 f53f f961 a50c 30b4 f53f
0.7853981633974483 0.7853981634139332 0.7853981634634623 0.7853981657667233 0.7853983693376291 0.7854024540266908 0.7854236401951229 0.7854633870984953
0.7855212397834013 0.7855972373448236 0.7856916275450906 0.7858048679098755 0.7859376238965107 0.7860907648736714 0.7862653584582009 0.7864626636025724
0.7866841227116692 0.7869313529846883 0.787206137120708 0.7875104134887427 0.787846265839739 0.7882159126247991 0.7886216959778822 0.789066070420115
0.7895515913450998 0.7900809033492172 0.7906567284771615 0.7912818544603591 0.7919591230341759 0.7926914184286739 0.7934816561369618 0.7943327720747198
0.7952477122541304 0.7962294231050451 0.7972808425855992 0.7984048922334627 0.7996044703172753 0.8008824462553323 0.8022416564750028 0.8036849018914095
0.8052149471872772 0.8068345220772601 0.808546324739177 0.8103530275910835 0.8122572855867051 0.8142617471921222 0.8163690681935061 0.8185819284689115
0.8209030518365011 0.8233352290670163 0.8258813441198486 0.8285444036298315 0.831327569636132 0.8342341955057855 0.8372678649630665 0.8404324340927546
0.8437320761413799 0.8471713288967938 0.8507551443841838 0.8544889405773343 0.8583786547890612 0.8624307983759124 0.8666525123710636 0.8710516236474323
0.8756367012118638 0.8804171122420666 0.885403077501766 0.8906057258068227 0.8960371472658186 0.9017104450820967 0.9076397857788672 0.913840447792023
0.9203288684627261 0.9271226895478759 0.9342408014434562 0.9417033863729296 0.9495319608163122 0.9577494174266132 0.9663800665739477 0.9754496774400131
0.9849855182105343 0.9950163943166076 1.0055726827673463 1.0166863592665911 1.0283910128274931 1.0407218397115807 1.053715604302622 1.0674105483333993
1.081846220702409 1.0970631863296283 1.113102551469166 1.1300052102331724 1.1478106653190732 1.1665551920751247 1.1862689759345388 1.2069716166768627
1.2286649802405534 1.2513216405532464 1.2748658041767702 1.2991411099764423 1.3189639565800266 1.3386348993981365 1.3562968765075982 1.3564911359773062

psi f8 [104]
00000000: 182d 4454 fb21 f93f 661d 3254 fb21 f93f
00000010: 29c5 0254 fb21 f93f 4515 d64b fb21 f93f
00000020: 3e39 0c84 f821 f93f d5e8 a950 c121 f93f
00000030: e754 1176 a820 f93f d3dc 8fde a51e f93f
00000040: 19e6 00bc ca1b f93f cb0c 585d 2118 f93f
00000050: 20f7 5b75 b113 f93f a072 6376 800e f93f
00000060: 0b64 72e8 9108 f93f 0ff7 2eb8 e701 f93f
00000070: eed8 d47d 82fa f83f 16fa e9bb 61f2 f83f
00000080: ec41 f415 84e9 f83f 00df c37f e7df f83f
00000090: 3f7d 1566 89d5 f83f e066 62d1 66ca f83f
000000a0: 8942 b383 7cbe f83f a894 3c12 c7b1 f83f
000000b0: d55a 78fb 42a4 f83f 6917 5aba ec95 f83f
000000c0: f4f0 24d7 c086 f83f 8980 57f6 bb76 f83f
000000d0: f524 0fe6 da65 f83f b953 35aa 1a54 f83f
000000e0: df4c bc87 7841 f83f 578e 250f f22d f83f
000000f0: 7b1c 8326 8519 f83f 50e5 1c13 3004 f83f
00000100: 60e6 dc82 f1ed f73f 7b14 9f95 c8d6 f73f
00000110: 831d 7de6 b4be f73f fec9 2995 b6a5 f73f
00000120: 89e2 6b4f ce8b f73f 07ee c45a fd70 f73f
00000130: 8cc8 4c9e 4555 f73f 1fe5 c7ac a938 f73f
00000140: b5f6 face 2c1b f73f 1db4 3b0e d3fc f63f
00000150: d267 3b3f a1dd f63f 68fb 040d 9dbd f63f
00000160: 502e 2504 cd9c f63f 00ab f09d 387b f63f
00000170: 78ba d84b e858 f63f 5975 bc82 e535 f63f
00000180: 2990 21c6 3a12 f63f f44d 3db3 f3ed f53f
00000190: ced4 b30b 1dc9 f53f 0d2a f2bf c4a3 f53f
000001a0: 2c9b 05f9 f97d f53f 4d6a d221 cd57 f53f
000001b0: cb5b 8bef 4f31 f53f e161 4c69 950a f53f
000001c0: 9643 bcee b1e3 f43f 58e7 9b3d bbbc f43f
000001d0: be0c 2e76 c895 f43f adeb 671e f26e f43f
000001e0: 6794 e223 5248 f43f da42 8edc 0322 f43f
000001f0: 2c5c 3406 24fc f33f 63c4 e2c4 d0d6 f33f
00000200: 12f3 6ba0 29b2 f33f 9c09 3b81 4f8e f33f
00000210: 75a4 d2ac 646b f33f 52cd 68c2 8c49 f33f
00000220: 5a20 33b8 ec28 f33f c5ed 1cda aa09 f33f
00000230: a049 cfca eeeb f23f 7775 2a88 e1cf f23f
00000240: f063 9374 adb5 f23f 35b1 ca66 7e9d f23f
00000250: 53f1 68c2 8187 f23f c4f6 9c9b e673 f23f
00000260: 4e4e 6ce9 dd62 f23f 8476 88ca 9a54 f23f
00000270: 1ba8 dce1 5249 f23f 8516 5fd1 3e41 f23f
00000280: 6351 8ddb 9a3c f23f 5819 7bb6 a73b f23f
00000290: a74e be9e ab3e f23f 035d 27bd f345 f23f
000002a0: 0106 a5f8 d551 f23f 8269 b856 b362 f23f
000002b0: a4e7 ac19 fb78 f23f 5499 31de 2e95 f23f
000002c0: 87de c814 e8b7 f23f 9af2 305b dfe1 f23f
000002d0: e6b2 7675 f613 f33f fdb3 2c01 464f f33f
000002e0: 4a7e db89 3095 f33f a048 f782 7de7 f33f
000002f0: cd79 de0c 8048 f43f 8bfc 3ea5 4fbb f43f
00000300: ba6d b283 1c44 f53f 2e06 fe3f afe8 f53f
00000310: c398 0285 2cb1 f63f 6ee5 7650 42a9 f73f
00000320: 0cda 6c1a 129e f83f bd15 90a3 8ac5 f93f
00000330: 7732 aaa2 d50e fb3f 7648 e42b e512 fb3f
1.5707963267948966 1.57079632653207 1.5707963258431141 1.5707962953905092 1.570793643771665 1.570741000263799 1.5704731571216202 1.5699824041201296
1.5692851394545697 1.568391193985735 1.5673079094262405 1.5660404800939105 1.5645922737078333 1.5629651255289365 1.5611596026697572 1.5591752376927892
1.5570107324202764 1.5546641341042573 1.5521329867986677 1.5494144610478813 1.5465054649868384 1.5434027397507553 1.5401029418041408 1.5366027144786705
1.5328987506937297 1.5289878485419044 1.5248669611631247 1.520533242107588 1.5159840871972887 1.5112171737354367 1.5062304977780332 1.5010224100681917
1.4955916511375094 1.4899373859964544 1.4840592387643887 1.4779573275269509 1.4716322996520452 1.4650853677438833 1.4583183463660445 1.4513336896182591
1.4441345296067258 1.4367247158036272 1.4291088552476947 1.4212923534939481 1.413281456177078 1.4050832910094755 1.3967059099919918 1.3881583315736263
1.3794505824562384 1.370593738702948 1.3615999657752584 1.3524825570954164 1.3432559707086495 1.3339358636063878 1.3245391232683115 1.3150838959901352
1.3055896115876968 1.2960770041085734 1.2865681282426489 1.2770863712055232 1.2676564599762743 1.258304463906987 1.2490577928890714 1.2399451914646071
1.2309967295142923 1.2222437904425538 1.2137190581218225 1.205456504260685 1.1974913783360734 1.1898602027930434 1.1826007768873765 1.1757521933535295
1.1693548730602252 1.1634506240180376 1.1580827325952512 1.1532960966718955 1.1491374128426233 1.1456554328391642 1.1429013083202395 1.1409290484020016
1.1397961212397483 1.1395642402800004 1.1403003884233074 1.142078150636565 1.1449794495277958 1.1490968120111522 1.154536342901772 1.1614216498797605
1.1698990642452445 1.180144649711258 1.192373713343096 1.2068538709529542 1.2239232430510065 1.244016181550741 1.2677002432534323 1.2957302527354695
1.3291287559903666 1.3693077563951976 1.418255347796319 1.4788230078832743 1.5385914833292444 1.6107279194996942 1.691121707353117 1.6921130861778955

p f8 [104]
00000000: 0000 0000 0000 0000 0000 0000 0000 0000
00000010: 0000 0000 0000 0000 0000 0000 0000 0000
00000020: 0000 0000 0000 0000 0000 0000 0000 0000
00000030: 0000 0000 0000 0000 0000 0000 0000 0000
00000040: 0000 0000 0000 0000 0000 0000 0000 0000
00000050: 0000 0000 0000 0000 0000 0000 0000 0000
00000060: 0000 0000 0000 0000 0000 0000 0000 0000
00000070: 0000 0000 0000 0000 0000 0000 0000 0000
00000080: 0000 0000 0000 0000 0000 0000 0000 0000
00000090: 0000 0000 0000 0000 0000 0000 0000 0000
000000a0: 0000 0000 0000 0000 0000 0000 0000 0000
000000b0: 0000 0000 0000 0000 0000 0000 0000 0000
000000c0: 0000 0000 0000 0000 0000 0000 0000 0000
000000d0: 0000 0000 0000 0000 0000 0000 0000 0000
000000e0: 0000 0000 0000 0000 0000 0000 0000 0000
000000f0: 0000 0000 0000 0000 0000 0000 0000 0000
00000100: 0000 0000 0000 0000 0000 0000 0000 0000
00000110: 0000 0000 0000 0000 0000 0000 0000 0000
00000120: 0000 0000 0000 0000 0000 0000 0000 0000
00000130: 0000 0000 0000 0000 0000 0000 0000 0000
00000140: 0000 0000 0000 0000 0000 0000 0000 0000
00000150: 0000 0000 0000 0000 0000 0000 0000 0000
00000160: 0000 0000 0000 0000 0000 0000 0000 0000
00000170: 0000 0000 0000 0000 0000 0000 0000 0000
00000180: 0000 0000 0000 0000 0000 0000 0000 0000
00000190: 0000 0000 0000 0000 0000 0000 0000 0000
000001a0: 0000 0000 0000 0000 0000 0000 0000 0000
000001b0: 0000 0000 0000 0000 0000 0000 0000 0000
000001c0: 0000 0000 0000 0000 0000 0000 0000 0000
000001d0: 0000 0000 0000 0000 0000 0000 0000 0000
000001e0: 0000 0000 0000 0000 0000 0000 0000 0000
000001f0: 0000 0000 0000 0000 0000 0000 0000 0000
00000200: 0000 0000 0000 0000 0000 0000 0000 0000
00000210: 0000 0000 0000 0000 0000 0000 0000 0000
00000220: 0000 0000 0000 0000 0000 0000 0000 0000
00000230: 0000 0000 0000 0000 0000 0000 0000 0000
00000240: 0000 0000 0000 0000 0000 0000 0000 0000
00000250: 0000 0000 0000 0000 0000 0000 0000 0000
00000260: 0000 0000 0000 0000 0000 0000 0000 0000
00000270: 0000 0000 0000 0000 0000 0000 0000 0000
00000280: 0000 0000 0000 0000 0000 0000 0000 0000
00000290: 0000 0000 0000 0000 0000 0000 0000 0000
000002a0: 0000 0000 0000 0000 0000 0000 0000 0000
000002b0: 0000 0000 0000 0000 0000 0000 0000 0000
000002c0: 0000 0000 0000 0000 0000 0000 0000 0000
000002d0: 0000 0000 0000 0000 0000 0000 0000 0000
000002e0: 0000 0000 0000 0000 0000 0000 0000 0000
000002f0: 0000 0000 0000 0000 0000 0000 0000 0000
00000300: 0000 0000 0000 0000 0000 0000 0000 0000
00000310: 0000 0000 0000 0000 0000 0000 0000 0000
00000320: 0000 0000 0000 0000 0000 0000 0000 0000
00000330: 0000 0000 0000 0000 0000 0000 0000 0000
0.0 0.0 0.0 0.0 0.0 0.0 0.0 0.0
0.0 0.0 0.0 0.0 0.0 0.0 0.0 0.0
0.0 0.0 0.0 0.0 0.0 0.0 0.0 0.0
0.0 0.0 0.0 0.0 0.0 0.0 0.0 0.0
0.0 0.0 0.0 0.0 0.0 0.0 0.0 0.0
0.0 0.0 0.0 0.0 0.0 0.0 0.0 0.0
0.0 0.0 0.0 0.0 0.0 0.0 0.0 0.0
0.0 0.0 0.0 0.0 0.0 0.0 0.0 0.0
0.0 0.0 0.0 0.0 0.0 0.0 0.0 0.0
0.0 0.0 0.0 0.0 0.0 0.0 0.0 0.0
0.0 0.0 0.0 0.0 0.0 0.0 0.0 0.0
0.0 0.0 0.0 0.0 0.0 0.0 0.0 0.0
0.0 0.0 0.0 0.0 0.0 0.0 0.0 0.0
