JJINleejunseo/results_6dof/SCUD-B_45.0deg_20251212_113009.npz (npz, 7423 bytes, 22 tensors)

time f8 [20]
0	0x0000000000000000	0.0
1	0x3f4201e7d06adbae	0.0005495435624059874
2	0x3f78c29ebe92ee10	0.0060449791864658625
3	0x3faca7ea857bd95a	0.05596859816971529
4	0x3fba2055e17b6766	0.10205590014393592
5	0x3fc9dcf7bd8a8080	0.20205590014393593
6	0x3fd354e2452ba6a6	0.3020559001439359
7	0x3fd9bb48ab920d0c	0.4020559001439359
8	0x3fe010d788fc39b9	0.5020559001439359
9	0x3fe3440abc2f6cec	0.6020559001439358
10	0x3fe6773def62a01f	0.7020559001439358
11	0x3fe9aa712295d352	0.8020559001439358
12	0x3fecdda455c90685	0.9020559001439358
13	0x3ff0086bc47e1cdc	1.0020559001439358
14	0x3ff1a2055e17b676	1.1020559001439358
15	0x3ff33b9ef7b15010	1.202055900143936
16	0x3ff4d538914ae9aa	1.302055900143936
17	0x3ff66ed22ae48344	1.402055900143936
18	0x3ff8086bc47e1cde	1.5020559001439362
19	0x3ff809c10276c095	1.50238133394672

position_x f8 [20]
0	0x0000000000000000	0.0
1	0x3f3977640f105d2f	0.000388585976055694
2	0x3f718214b046b047	0.004274445357094043
3	0x3fa4434527743e38	0.03957573038689727
4	0x3fb2795a9818a7d6	0.07216421330727427
5	0x3fc249afa5467e30	0.14287372179113467
6	0x3fcb56a221f5b646	0.21358133943742724
7	0x3fd231be144be092	0.28428604108877054
8	0x3fd6b81969eb81da	0.3549865278601182
9	0x3fdb3e5b3e0a122f	0.42568093355683606
10	0x3fdfc477aabfbe46	0.49636642145830867
11	0x3fe2252e487dc31e	0.5670386710972684
12	0x3fe467f77d246b47	0.6376912540612033
13	0x3fe6aa840123d01e	0.7083148977531015
14	0x3fe8ecb8a359e1ec	0.77889663605225
15	0x3feb2e706e70c430	0.8494188458481684
16	0x3fed6f7a65d0fb9c	0.9198581684685112
17	0x3fefaf9704493fff	0.990184315081933
18	0x3ff0f73abdfbcb70	1.0603587552293128
19	0x3ff0f829e523562c	1.0605868292526663

position_y f8 [20]
0	0x0000000000000000	0.0
1	0xbed9852c79873b26	-6.084492178050685e-06
2	0xbf482018d8235cb6	-0.0007362481412894948
3	0xbfb02978d20570fe	-0.06313281180831962
4	0xbfcae0667886791b	-0.20997315297149374
5	0xbfea5a8fba037496	-0.8235548623157622
6	0xbffd7700f8ca53d0	-1.841553661191245
7	0xc00a1e12dd701d48	-3.2646844196166604
8	0xc0145fe6ad196cf4	-5.093653397251945
9	0xc01d510ed4bd2b22	-7.329158138318947
10	0xc023f19b38879d86	-9.9718873658701
11	0xc02a0b87db2f4c21	-13.022520875476461
12	0xc0307b529eac4840	-16.48172942834958
13	0xc03459a50ba35d95	-20.350174643882912
14	0xc038a0e5f56e8e44	-24.628508891574043
15	0xc03d513f7ffc5ed8	-29.317375182260406
16	0xc041356d9830d483	-34.417407058565935
17	0xc043f6f0f57f87ca	-39.92922848441192
18	0xc046ed3df8d0c84d	-45.853453733391326
19	0xc046efcbcd75aa08	-45.87340706105539

position_z f8 [20]
0	0x4024000000000000	10.0
1	0x40240032bd182f95	10.0003871051811
2	0x40240218c66e5fd8	10.004095269177853
3	0x40240c660f63e69f	10.024216156907015
4	0x40240accdc6c131a	10.021094215576841
5	0x4023e2a833ccb835	9.942689532032185
6	0x4023884e40fe2a4d	9.766222029710798
7	0x4022fbbfc49f2c72	9.491697449140904
8	0x40223cfdda4142fb	9.119124241320142
9	0x40214c09f92f5339	8.648513590838421
10	0x402028e5f52aef02	8.079879437914773
11	0x401da727fe4ea903	7.413238500166929
12	0x401a982d4c06faa1	6.648610294271436
13	0x401724e1ae86bf97	5.786017157530202
14	0x40134d4bbf900d51	4.825484269301641
15	0x400e22e5b21718b6	3.7670396722124577
16	0x4004e2be2cdddc7f	2.6107142930227947
17	0x3ff5b46558698853	1.3565419629672035
18	0x3f72aceaa3ccdc00	0.004559437333958805
19	0x3cf8340000000000	5.374173328576148e-15

u f8 [20]
0	0x3c88f5a0be038ed7	4.329780281177467e-17
1	0xbf96acdff1109ea8	-0.022143839920458902
2	0xbfcf2e1a4874b2d9	-0.24359444177516457
3	0xc0020d16e50f95d4	-2.2563913245564695
4	0xc01076ec51d3b688	-4.1161358628720635
5	0xc020503b80a3e613	-8.156703968054932
6	0xc02868af6fd4be02	-12.204463476867208
7	0xc03042635f6fd048	-16.259328808592073
8	0xc034523b0982c112	-20.32121333544007
9	0xc03863d8f713b4e2	-24.390029375373054
10	0xc03c773757495a30	-28.465688186081195
11	0xc040462823b41520	-32.54809995930759
12	0xc042518ee95cfadc	-36.637173815155364
13	0xc0445dccf93a2856	-40.73281779613232
14	0xc0466adf46ce6101	-44.83493886067482
15	0xc04878c2bc74adf0	-48.943442875835785
16	0xc04a87743b4e0530	-53.0582346087416
17	0xc04c96f09b2b3ff5	-57.17921771632965
18	0xc04ea734aa72182c	-61.30629473277108
19	0xc04ea8ed17955838	-61.319735477373285

v f8 [20]
0	0x3fe6a09e667f3bcd	0.7071067811865476
1	0x3fe6a09e5fb4187f	0.7071067685326539
2	0x3fe6a09e1c6b0276	0.7071066432036577
3	0x3fe6a09a5f168b1e	0.7071048600376775
4	0x3fe6a093205b7f36	0.7071014053326283
5	0x3fe6a0756141d968	0.7070872211032055
6	0x3fe6a04389353ed7	0.7070634536593968
7	0x3fe69ffa28066fd3	0.7070284635296907
8	0x3fe69f90ce704d05	0.7069782287602783
9	0x3fe69ef7be690f1d	0.7069052428200596
10	0x3fe69e159ea307da	0.7067974184394601
11	0x3fe69cc529845736	0.7066369830015222
12	0x3fe69ad2d6824ba1	0.7063993634823086
13	0x3fe697fa7dc0c2fb	0.70605206071022
14	0x3fe693e4f613ab57	0.70555351316339
15	0x3fe68e25ad9af532	0.7048519507149307
16	0x3fe686383d435bc3	0.7038842388673107
17	0x3fe67b7df786fd83	0.7025747141378108
18	0x3fe66d3b72d9f652	0.7008340113822646
19	0x3fe66d2ddceffc20	0.7008275332626717

w f8 [20]
0	0x3fe6a09e667f3bcd	0.7071067811865476
1	0x3fe6747871024b41	0.701717587204577
2	0x3fe4bafcdd97df73	0.6478256538384656
3	0x3fc44140045e1084	0.15824127400640375
4	0xbfd2cc5059ef3818	-0.29372032911931134
5	0xbff463cff67a1d54	-1.2743682506569103
6	0xc0020a2ee1c5744a	-2.254972232664419
7	0xc009e25099f71a3c	-3.235505297521085
8	0xc010dd1f6ef62b0b	-4.215940221571837
9	0xc014c8f5a4e5ae85	-5.196249557989749
10	0xc018b4a3ae3284a5	-6.1764056413968875
11	0xc01ca0223bb424d4	-7.156380589361294
12	0xc02045b4f7e02b6d	-8.136146303286035
13	0xc0223b39af1ecbbc	-9.115674469479806
14	0xc024309b8660324c	-10.094936560862287
15	0xc02625d6b95d4520	-11.073903839717389
16	0xc0281ae77ce22f7f	-12.052547361956156
17	0xc02a0fc9ff04ac0e	-13.030837983436893
18	0xc02c047a67719a95	-14.008746368997246
19	0xc02c061b728b4c04	-14.011928157333394

phi f8 [20]
0	0x0000000000000000	0.0
1	0x0000000000000000	0.0
2	0x0000000000000000	0.0
3	0xbe3795f27756dfc5	-5.491480927479641e-09
4	0xbe5a37f838af4cf3	-2.441800321299858e-08
5	0xbe768b7dbe4debfe	-8.398625046632406e-08
6	0x3e5d2231588ea8c0	2.7132747191086627e-08
7	0x3ea9dfcac4bca45e	7.711108848995761e-07
8	0x3ec813d6f260b40a	2.8702614996074315e-06
9	0x3edea6f1c3427169	7.308036448130551e-06
10	0x3ef0130a99528653	1.532972381269031e-05
11	0x3efdd321f4803668	2.844308554022235e-05
12	0x3f0962b07adcad57	4.8419008960765945e-05
13	0x3f1442fe31297ed3	7.729221787533139e-05
14	0x3f1ec409424c076c	0.00011736208450588225
15	0x3f26704db35cd069	0.00017119358533934932
16	0x3f2fab5ea962efca	0.00024161844766534677
17	0x3f35bd9d95201fad	0.0003317365382149395
18	0x3f3d287a54092e30	0.00044491755037221175
19	0x3f3d2f5ab94fe253	0.0004453274244151973

theta f8 [20]
0	0x3fe921fb54442d18	0.7853981633974483
1	0x3fe921fb54442d18	0.7853981633974483
2	0x3fe921fb54442d18	0.7853981633974483
3	0x3fe921fb5519a943	0.7853981649507563
4	0x3fe921fb5b5d15ae	0.7853981766171978
5	0x3fe921fbb62008a9	0.7853983456737029
6	0x3fe921fd35fc0efd	0.7853990606676856
7	0x3fe922013a36bce6	0.7854009758938474
8	0x3fe92209b03a5042	0.7854050104092567
9	0x3fe9221913db8e05	0.7854123485416841
10	0x3fe922326f9a0682	0.7854244403572042
11	0x3fe922595cdab9d1	0.7854430020868738
12	0x3fe92292041d163c	0.785470016512313
13	0x3fe922e11d2a4bf0	0.7855077333100535
14	0x3fe9234bef3ef2de	0.785558669354568
15	0x3fe923d8512f01ea	0.7856256089799534
16	0x3fe9248ca98418de	0.7857116042003118
17	0x3fe9256fee9620e0	0.7858199748889341
18	0x3fe92689a69e4926	0.7859543089164489
19	0x3fe9268aaa4b2d1c	0.7859547925994863

psi f8 [20]
0	0x3ff921fb54442d18	1.5707963267948966
1	0x3ff921fb54442d18	1.5707963267948966
2	0x3ff921fb54442d18	1.5707963267948966
3	0x3ff921fb522e7df2	1.5707963190287697
4	0x3ff921fb4aff22f4	1.5707962922626253
5	0x3ff921fb34620e30	1.5707962080204076
6	0x3ff921fb5e9109e9	1.570796365166297
7	0x3ff921fc78ffaece	1.570797417308245
8	0x3ff921ff95e29226	1.5708003859409785
9	0x3ff922062a8ecc08	1.5708066618360608
10	0x3ff922120fbac299	1.5708180059847676
11	0x3ff9222581b67fc6	1.5708365504178672
12	0x3ff9224320a18778	1.5708647989890476
13	0x3ff9226df0a1279a	1.5709056281652694
14	0x3ff922a95a198fd7	1.5709622878575737
15	0x3ff922f929ebebdf	1.5710384023247952
16	0x3ff9236191bbda00	1.5711379711843847
17	0x3ff923e7283ecb62	1.5712653705674815
18	0x3ff9248ee9981995	1.5714253544589145
19	0x3ff9248f851b2949	1.5714259337861043

p f8 [20]
0	0x0000000000000000	0.0
1	0x0000000000000000	0.0
2	0x0000000000000000	0.0
3	0x0000000000000000	0.0
4	0x0000000000000000	0.0
5	0x0000000000000000	0.0
6	0x0000000000000000	0.0
7	0x0000000000000000	0.0
8	0x0000000000000000	0.0
9	0x0000000000000000	0.0
10	0x0000000000000000	0.0
11	0x0000000000000000	0.0
12	0x0000000000000000	0.0
13	0x0000000000000000	0.0
14	0x0000000000000000	0.0
15	0x0000000000000000	0.0
16	0x0000000000000000	0.0
17	0x0000000000000000	0.0
18	0x0000000000000000	0.0
19	0x0000000000000000	0.0

q f8 [20]
0	0x0000000000000000	0.0
1	0x0000000000000000	0.0
2	0x0000000000000000	0.0
3	0x3e798823b283cc95	9.511334709052309e-08
4	0x3ea0241696a65519	4.81038381838303e-07
5	0x3ecdc7d80198542e	3.550128906191464e-06
6	0x3ee8d4a1e6d6f6aa	1.1840150558546762e-05
7	0x3efd5b2292c97907	2.7996059701934142e-05
8	0x3f0ca96f47dba299	5.46681485341139e-05
9	0x3f18c69334395253	9.451173269187903e-05
10	0x3f23af6fc6e6bcff	0.00015018691506216844
11	0x3f2d68386964d580	0.0002243584501201816
12	0x3f34f39ab843c024	0.00031969573343726605
13	0x3f3cc310ee12f630	0.00043887294129860404
14	0x3f4327b91c627e61	0.0005845693456371753
15	0x3f48e2e50a5c7f4e	0.0007594698297203968
16	0x3f4fa99fa3f8344e	0.0009662656302126345
17	0x3f53c94609cc2c0b	0.0012076553313729056
18	0x3f585a300331c6e6	0.0014863461372240316
19	0x3f585e42683d9162	0.0014873169429502

r f8 [20]
0	0x0000000000000000	0.0
1	0x0000000000000000	0.0
2	0x0000000000000000	0.0
3	0xbe9153a28246b111	-2.581879263951053e-07
4	0xbea29f08abfad9cc	-5.549557826254518e-07
5	0xbe93e5dfbe30b498	-2.9650249028479404e-07
6	0x3ecb96ba04fd277b	3.2888383784444647e-06
7	0x3eead4e7b33baa29	1.2794332725237188e-05
8	0x3f002986fedafeaf	3.0826980816465114e-05
9	0x3f0f752ff667ea94	6.000092144016925e-05
10	0x3f1afbe346dfed6e	0.00010293554961997794
11	0x3f25445ab0bd778e	0.00016225440082967248
12	0x3f2f88aa1af95dda	0.00024058414918458234
13	0x3f36518a4c73b3da	0.0003405535357632862
14	0x3f3e75eb155b3213	0.00046479214993835996
15	0x3f442ec97eb8c954	0.0006159290182437363
16	0x3f4a1a4a132446f7	0.0007965909665321448
17	0x3f5089bbc6c523f0	0.0010094007257797043
18	0x3f5498225d7d0522	0.0012569747540996453
19	0x3f549bc3758f280a	0.0012578400403406875

mass f8 [20]
0	0x40aabd0000000000	3422.5
1	0x40aabcee6a239e78	3422.46565352735
2	0x40aabc3e8f87cf24	3422.122188800846
3	0x40aab601013e6943	3419.0019626143926
4	0x40aab03e3610e6bf	3416.121506241004
5	0x40aaa3be3610e6bf	3409.871506241004
6	0x40aa973e3610e6bf	3403.621506241004
7	0x40aa8abe3610e6bf	3397.371506241004
8	0x40aa7e3e3610e6bf	3391.121506241004
9	0x40aa71be3610e6bf	3384.871506241004
10	0x40aa653e3610e6bf	3378.621506241004
11	0x40aa58be3610e6bf	3372.371506241004
12	0x40aa4c3e3610e6bf	3366.121506241004
13	0x40aa3fbe3610e6bf	3359.871506241004
14	0x40aa333e3610e6bf	3353.621506241004
15	0x40aa26be3610e6be	3347.3715062410038
16	0x40aa1a3e3610e6be	3341.1215062410038
17	0x40aa0dbe3610e6be	3334.8715062410038
18	0x40aa013e3610e6be	3328.6215062410038
19	0x40aa0133cc1cc03f	3328.60116662833

V f8 [20]
0	0x3ff0000000000000	1.0
1	0x3fefe2dba493c041	0.9964426245114809
2	0x3fefa9982ad73511	0.9894524418574823
3	0x4002f5848cd75d77	2.369881725618764
4	0x4010bf3a3b152d22	4.18674557034254
5	0x4020925edb0b923d	8.28587994114161
6	0x4028dcc1271bdad5	12.431161138677831
7	0x403097dbb33cbcbe	16.5931961081776
8	0x4034c416e17075cb	20.765974130588614
9	0x4038f28ac3ad176e	24.947429876097367
10	0x403d22f9e5b7c1dd	29.13662563072454
11	0x4040aaa13d1acc93	33.3330456143241
12	0x4042c4a778793af8	37.5363607971139
13	0x4044df87e6c50da9	41.74633488294359
14	0x4046fb3c6d724ed1	45.962781601728814
15	0x404917bfe2931e05	50.18554336722813
16	0x404b350dac79c07b	54.41447978920856
17	0x404d53218aa897f9	58.649461109467616
18	0x404f71f774c55a67	62.89036426197418
19	0x404f73bc02bd1cae	62.90417513116823

gamma f8 [20]
0	0x3fe921fb54442d18	0.7853981633974483
1	0x3fe900a3393f75d0	0.7813278310892944
2	0x3fe6d7ac5c4e2398	0.713827305110601
3	0x3fb11b370df4bad5	0.06682151880952898
4	0xbfb1f971fa02478f	-0.07021248201115625
5	0xbfc3c3cd1b73b68d	-0.15441287842206855
6	0xbfc7591949aef7b7	-0.18240657899690202
7	0xbfc91ea040751be3	-0.19624713084542042
8	0xbfca2b2e1a7e1e2b	-0.20444275182329483
9	0xbfcadb8511ea681f	-0.20982421278751048
10	0xbfcb574a5c437aff	-0.21360139374788642
11	0xbfcbb244438cbcc1	-0.2163777665932454
12	0xbfcbf76974a05948	-0.21848791308065985
13	0xbfcc2d4b19826c93	-0.22013224359111358
14	0xbfcc581584353519	-0.2214381118341542
15	0xbfcc7a90117034ea	-0.22249031878929
16	0xbfcc96a6bb9f5918	-0.22334751282932852
17	0xbfccadb89d3a0a67	-0.22405154873929975
18	0xbfccc0c6fdbc4a92	-0.2246330965941366
19	0xbfccc0d569f3ad7c	-0.2246348159163566

chi f8 [20]
0	0x3ff921fb54442d18	1.5707963267948966
1	0x3ff9a235ee9c35fd	1.6021022148810282
2	0x3ffe70e0dba4a367	1.9025581912812528
3	0x4006b408da499a0c	2.8379075101577254
4	0x4007c58fbaf22ead	2.9714655499609166
5	0x400870e342bfa183	3.055120965455161
6	0x4008ab76b5ff1a28	3.0837225168682103
7	0x4008c8fb4a9f6027	3.0981355504882404
8	0x4008dac29ecbb733	3.106816521255405
9	0x4008e6a3f2ee7c3e	3.1126173953084892
10	0x4008ef2409313bb1	3.1167679517888804
11	0x4008f58689f6b779	3.1198855188767394
12	0x4008fa7fd0224628	3.1223140964946374
13	0x4008fe7c5e11e21a	3.1242606496055148
14	0x400901c173e0a657	3.12585726289107
15	0x4009047d649447aa	3.1271922929526754
16	0x400906d065adf45c	3.1283271735870084
17	0x400908d199f3835d	3.129306032890254
18	0x40090a9218d5290c	3.1301614704181073
19	0x40090a937747609b	3.130164081445469

launch_angle f8 []
0	0x4046800000000000	45.0

duration f8 []
0	0x3ff809c10276c095	1.50238133394672

alpha f8 [20]
0	0x0000000000000000	0.0
1	0x3f70ac0d825ba400	0.004070332308153901
2	0x3fb25277bfb04c00	0.07157085828684728
3	0x3fe6fe94735b11e8	0.7185766461412273
4	0x3feb61299a9d5ea0	0.8556106586283541
5	0x3fee12eefcfcf64c	0.9398112240957714
6	0x3feef8438867cceb	0.9678056396645877
7	0x3fef69a94a5403df	0.9816481067392678
8	0x3fefacd536d9d7cd	0.9898477622325516
9	0x3fefd8fa5856280d	0.9952365613291946
10	0x3feff80506aae542	0.9990258341050906
11	0x3ff0077536def481	1.0018207686801193
12	0x3ff0103630a29647	1.0039579295929728
13	0x3ff01719f1c5738a	1.005639976901167
14	0x3ff01ca8a8262012	1.0069967811887222
15	0x3ff0213e2ac58792	1.0081159277692433
16	0x3ff0251b2c35f792	1.0090591170296404
17	0x3ff0286f0af251bd	1.0098715236282338
18	0x3ff02b5db306ade5	1.0105874055105855
19	0x3ff02b6002640c3e	1.010589608515843

beta f8 [20]
0	0x0000000000000000	0.0
1	0x0000000000000000	0.0
2	0x0000000000000000	0.0
3	0x0000000000000000	0.0
4	0x0000000000000000	0.0
5	0x0000000000000000	0.0
6	0x0000000000000000	0.0
7	0x0000000000000000	0.0
8	0x0000000000000000	0.0
9	0x0000000000000000	0.0
10	0x0000000000000000	0.0
11	0x0000000000000000	0.0
12	0x0000000000000000	0.0
13	0x0000000000000000	0.0
14	0x0000000000000000	0.0
15	0x0000000000000000	0.0
16	0x0000000000000000	0.0
17	0x0000000000000000	0.0
18	0x0000000000000000	0.0
19	0x0000000000000000	0.0

mach f8 [20]
0	0x3f68181818181818	0.0029411764705882353
1	0x3f680226e2512152	0.0029307136015043556
2	0x3f67d709294ab27f	0.0029101542407573007
3	0x3f7c8cd3a6e9f629	0.0069702403694669535
4	0x3f89380f6807cb7e	0.012313957559830998
5	0x3f98f482cb5cb814	0.024370235121004738
6	0x3fa2b849267b5f7f	0.03656223864317009
7	0x3fa8fcc6532e4966	0.048803517965228235
8	0x3faf4567b9e29344	0.06107639450173122
9	0x3fb2c8b0c38556e9	0.07337479375322754
10	0x3fb5f02b97e1b319	0.08569595773742512
11	0x3fb9190ae68ec19e	0.09803836945389441
12	0x3fbc433e73290175	0.11040106116798205
13	0x3fbf6eba94bc50ce	0.12278333789101056
14	0x3fc14dbb0d22ddfb	0.13518465176979064
15	0x3fc2e4b49e8ce367	0.14760453931537684
16	0x3fc47c4687e33390	0.1600425876153193
17	0x3fc6146d95940601	0.17249841502784594
18	0x3fc7ad26be525623	0.1849716595940417
19	0x3fc7ae7b7d8b60e3	0.1850122797975536
